ICTCS_notebooks/models/DROP_New_Tree_lstm_with_dropout.pth (torch, 778692 bytes, 12 tensors)

encoder.embedding.weight f4 [108, 32]
000000 00 00 00 00 00 00 00 00 00 00 00 00 00 00 00 00
       0.0 0.0 0.0 0.0
000010 00 00 00 00 00 00 00 00 00 00 00 00 00 00 00 00
       0.0 0.0 0.0 0.0
000020 00 00 00 00 00 00 00 00 00 00 00 00 00 00 00 00
       0.0 0.0 0.0 0.0
000030 00 00 00 00 00 00 00 00 00 00 00 00 00 00 00 00
       0.0 0.0 0.0 0.0
000040 00 00 00 00 00 00 00 00 00 00 00 00 00 00 00 00
       0.0 0.0 0.0 0.0
000050 00 00 00 00 00 00 00 00 00 00 00 00 00 00 00 00
       0.0 0.0 0.0 0.0
000060 00 00 00 00 00 00 00 00 00 00 00 00 00 00 00 00
       0.0 0.0 0.0 0.0
000070 00 00 00 00 00 00 00 00 00 00 00 00 00 00 00 00
       0.0 0.0 0.0 0.0
000080 69 56 81 3e b4 65 a5 3f 30 59 aa bc a3 32 3c 3f
       0.25261238 1.2921662 -0.020794481 0.73514766
000090 48 26 4c 3f bf bf 06 3e 70 b7 01 bf 48 ee f6 3d
       0.7974591 0.13159083 -0.5067053 0.12057167
0000a0 fd 69 96 bf 25 e2 4d 3f e6 aa 1e bf f0 5a 6c 3f
       -1.1751095 0.80423194 -0.6197952 0.9232626
0000b0 d8 4a 84 bf e1 ce 10 3f a8 e5 02 c0 7e 02 ba bf
       -1.033534 0.5656567 -2.045267 -1.453201
0000c0 c0 e7 8d 3f ef 1a ba 3f b9 e8 b0 bf 73 98 de bf
       1.108635 1.453947 -1.3821021 -1.7390274
0000d0 cf eb b7 3f d6 eb a9 bf 2e d6 4e 3f 52 ec 8f bf
       1.4368838 -1.3275096 0.8079556 -1.1243994
0000e0 a5 81 a0 3f af 6d 88 bf 44 c5 1a 3e ce 3a bd bf
       1.2539564 -1.0658473 0.15114313 -1.4783571
0000f0 1d c0 0a 3e ff 91 24 40 bf b6 91 3d 6f 69 20 bf
       0.13549848 2.571411 0.07114934 -0.6266088
000100 9a 78 4c bf 15 19 bf be 51 c7 bf be 7b b6 a4 bf
       -0.79871523 -0.37323824 -0.37456754 -1.2868189
000110 9d 0b 3f be 01 bc 3f be db 10 09 bf 35 62 0c be
       -0.18656774 -0.18724062 -0.53541344 -0.13709338
000120 cf 81 dc 3e 90 99 ac 3d 35 3f 09 be 9c 98 18 bf
       0.43067786 0.08427727 -0.13403018 -0.59607863
000130 c5 1e b2 3f 5b 99 f0 bf 67 d9 84 bd 21 ad 08 3e
       1.391564 -1.87968 -0.06486779 0.13347293
000140 16 6c b7 3d 2c 58 6d 3b 8d 0e 20 3e 1d 0f a0 3e
       0.08956163 0.0036215885 0.1563055 0.3126153
000150 ef e8 91 bf 0b 97 61 3f 5a 82 68 bf 58 40 84 be
       -1.1399211 0.881211 -0.908239 -0.2583034
000160 a4 38 6d 3f c5 2e 8c bf 29 a6 ac bf b8 ec b3 bf
       0.9266455 -1.0951773 -1.3488208 -1.4056616
000170 04 14 f1 3e ac 9f 7e be 63 00 a3 bf c5 b5 35 3f
       0.47085583 -0.24865597 -1.2734493 0.70980483
000180 5f 84 d2 3e 0a 0d 8f 3e 39 a3 fb 3f 16 93 95 be
       0.41116616 0.27939636 1.9659187 -0.2921378
000190 99 8f c3 be 70 40 ca be c5 5a d8 be ae 7e 8a bf
       -0.38195494 -0.39502287 -0.42256752 -1.081991
0001a0 65 e1 02 c0 ed e6 09 3e 98 fb 89 3e e8 6f 00 bf
       -2.045007 0.13466997 0.26949763 -0.50170755
0001b0 ac f9 57 3f 92 39 cf be ea a3 24 bf b8 5a a2 3f
       0.84365344 -0.4047361 -0.64312613 1.2683935
0001c0 09 9e 74 be 97 a0 bd 3f 57 d9 fc bf cd 64 71 bf
       -0.2388841 1.4814633 -1.9753827 -0.94294435
0001d0 81 3a 5c bf f6 58 61 3f 3b 72 11 bd 98 b8 34 bf
       -0.8602677 0.8802637 -0.03550933 -0.7059417
0001e0 a2 72 8e bf 36 b2 c7 be 5a 5a 0d 3f c5 14 c9 bf
       -1.1128733 -0.39003152 0.5521599 -1.5709463
0001f0 f3 e8 e3 3f 41 03 0b c0 ff 88 9d bf 46 3e 60 be
       1.7805465 -2.1720736 -1.2307433 -0.21898755
000200 29 db 2f 3f e7 70 65 bf aa e1 f9 3f ac 59 9e bf
       0.68693787 -0.896254 1.9521992 -1.2371116
000210 69 44 fb bf 33 a1 8e 3d f8 44 2f be 4f ce 06 3f
       -1.9630252 0.0696434 -0.17116153 0.5265855
000220 19 db 8e bf 7b dc 68 be 16 a8 57 3e 5d 1a 93 bf
       -1.1160613 -0.22740357 0.21060213 -1.149242
000230 ea bd 84 3f 75 57 10 3f 18 b1 83 3f f3 7f fa 3e
       1.0370457 0.5638345 1.028842 0.48925743
000240 25 0c 7b 3f a4 47 26 3f 4a 57 07 bf 7d 0a 9a be
       0.98065406 0.64953065 -0.5286757 -0.30086127
000250 da c5 a0 bf 9b 15 c0 bf 76 0b be be 62 7e 85 3f
       -1.256038 -1.5006593 -0.3711812 1.0429194
000260 56 e1 ea bf f0 eb 5b be a2 f8 af bf 18 b4 cb 3e
       -1.8350017 -0.21476722 -1.3747752 0.39785838
000270 31 98 e6 be 7b c6 ac 3f ce 1c e2 3e e1 4b 06 c0
       -0.45037988 1.3498071 0.441626 -2.0983813
000280 2a 3e ce be e0 26 1e be 7b 7f 5b be 48 9e a1 3e
       -0.40281802 -0.15444517 -0.21435349 0.31566072
000290 33 4e 7e bf 8b 85 a9 bf ca 44 8d bf 76 2e 57 3e
       -0.9933807 -1.3243879 -1.1036618 0.21013817
0002a0 81 0e 09 3f 92 d7 f9 3e 29 56 2b be 18 86 41 be
       0.53537756 0.4879728 -0.16732086 -0.18898809
0002b0 d4 bb 2f 3f 7f 52 f3 bf 5d 71 1f bf b6 c9 ce 3f
       0.6864598 -1.9009551 -0.62282354 1.6155307
0002c0 0a ec 2b 3f 9c 6e 91 bf 6f 8b dd bf ab 3c 61 be
       0.6715704 -1.136188 -1.7308177 -0.21995799
0002d0 0a fc 4f 3f f2 83 52 bf da 2f d1 bf a9 d9 84 3f
       0.81243956 -0.8223258 -1.6342728 1.0378925
0002e0 80 9c 5c 3e 25 c3 db 3d a7 11 bb be 57 3d c1 bf
       0.21544075 0.1073058 -0.36536905 -1.5096844
0002f0 ca ef 01 3f d9 a6 3f bf 0a 6f a7 be 52 1f e1 3b
       0.50756514 -0.74863964 -0.32701904 0.0068701888
000300 75 34 eb bf 43 7a e2 3f c5 d6 8f be d7 a4 cc be
       -1.8375384 1.7693561 -0.28093544 -0.39969513
000310 c5 80 52 3f 84 41 0f be ca 14 46 3f 09 2c cd 3e
       0.82227737 -0.13989836 0.7737547 0.4007266
000320 90 9d 03 3e 67 36 b1 3f e3 41 1f 3f a1 8c 7b bf
       0.12853074 1.3844727 0.6220991 -0.9826146
000330 2e 89 c3 3f 2b 7c 01 be 7d 98 d4 3e 0b 7f b6 bf
       1.5276239 -0.12645023 0.4152259 -1.425752
000340 29 d9 04 3e 80 cb 0e c0 04 3c e6 be a0 47 7e bf
       0.12973465 -2.2311707 -0.44967663 -0.9932804
000350 e3 28 67 bf d4 45 57 3e 41 d5 b4 bf 45 ba 0d be
       -0.90296763 0.21022731 -1.412758 -0.13840587
000360 6e f6 01 bf d9 4d 9e 3e 5e a1 a2 bf be e2 65 bf
       -0.50766647 0.30918768 -1.2705495 -0.89799106
000370 d4 8f 50 3e 90 61 77 bf 1e 43 e7 bf c8 b3 81 bf
       0.20367366 -0.96633244 -1.8067358 -1.013299
000380 30 23 bf bf 79 bc f3 3e a4 3a 00 bf 9d a1 21 bf
       -1.4932613 0.4760473 -0.5008948 -0.6313723
000390 30 87 71 3e 03 35 7c bf 08 72 94 bf fd be 2c bf
       0.23586726 -0.9851839 -1.15973 -0.67478925
0003a0 48 08 7b bf b4 94 3e 3f 58 6b 57 3e 7a f4 61 bf
       -0.9805951 0.7444565 0.21037042 -0.88263667
0003b0 51 03 a2 bd ce 3c c2 be 64 38 34 3e ff ba b1 bf
       -0.07910789 -0.37937015 0.17599636 -1.3885192
0003c0 6a bd 1b 3f 3e 6f 3c 3f 02 42 dd be c1 f7 a3 3f
       0.608359 0.7360724 -0.43214422 1.2809983
0003d0 b9 90 56 bd e8 12 83 be 6a 82 4d bf 36 85 94 3f
       -0.052384112 -0.25600362 -0.8027712 1.1603153
0003e0 cf 8f 40 bf 07 aa a1 bd db 9a 57 bf bc d6 57 3f
       -0.75219434 -0.07893758 -0.84220666 0.84312034
0003f0 41 f8 5c 3f 16 f9 90 bf cb 33 31 bf d4 64 de bf
       0.86316305 -1.1326015 -0.69219655 -1.737452

encoder.cell.W_iou.weight f4 [384, 32]
000000 11 ea 25 bd 4d 3c 95 bd 63 f5 15 bc 77 69 eb bd
       -0.040506426 -0.07286892 -0.009152743 -0.11494725
000010 aa 5b 29 be b4 89 2b bd b1 52 ce 3c 9c 9c 97 3d
       -0.16538873 -0.04187937 0.025185915 0.07402918
000020 fe 48 95 bc d0 98 ad be d3 32 d6 3c 09 27 4b 3e
       -0.018223282 -0.3390565 0.026147282 0.1983911
000030 d7 32 85 be 6d b6 12 bb c7 f0 6b 3d 94 c2 62 3e
       -0.2601535 -0.0022386566 0.05760267 0.22144538
000040 2a f0 f3 bd ec d9 8a 3d 42 84 39 3e a2 21 9d bd
       -0.11911042 0.067798465 0.18116859 -0.076724306
000050 92 94 f9 bd 4f a3 bc bd 5f 90 3c 3d 95 dc 96 bd
       -0.12186541 -0.09210836 0.04603612 -0.073662914
000060 fa bc ee bd 74 f1 11 be 32 6d 53 3d ec 01 98 bd
       -0.11657138 -0.14252263 0.05161781 -0.074222416
000070 fb 68 b4 bd 67 bb bb bd 9c 95 09 3e 53 95 ed bd
       -0.08809086 -0.091666035 0.13435978 -0.11600747
000080 e1 a5 7a 3d d4 99 2b 3e 3e 73 90 3d 88 d1 98 3d
       0.06119335 0.167579 0.07053231 0.0746184
000090 ec 3e f7 bd a9 04 04 3c 37 22 c7 3d 25 34 09 3e
       -0.12072548 0.008057752 0.09723323 0.13398798
0000a0 de fc 1d be 4c 60 14 3d c0 86 85 be 84 4d 34 be
       -0.15428492 0.03622465 -0.2607937 -0.17607695
0000b0 91 25 d8 3d 41 ae 13 3e ff fc 31 be 1d 4c 9c bd
       0.1055404 0.14421941 -0.17381667 -0.07631705
0000c0 68 9b 07 3f ea 9c 41 3e 27 8d 72 be f2 0a 83 be
       0.52971506 0.18907514 -0.23686658 -0.25594288
0000d0 21 83 15 bd b7 99 c6 be ca 08 97 be 46 3a 68 bc
       -0.036502007 -0.3878915 -0.29498893 -0.01417405
0000e0 83 54 7a 3d 9b bb fe 3d 6a c6 34 3d eb 4c f4 3b
       0.061115753 0.12438127 0.044134535 0.0074554584
0000f0 81 76 f0 3d 71 83 02 3c fb ca 38 3d 33 6c 40 be
       0.11741353 0.007965908 0.045115452 -0.18791275
000100 19 99 04 3e e0 ce e7 bc a1 0a 0d bd 61 24 0e 3e
       0.12949027 -0.028296888 -0.034433965 0.13881065
000110 c5 57 f0 3e e8 8d 26 bd 06 82 85 bd 7f 80 14 bb
       0.46941963 -0.040662676 -0.06518941 -0.0022659597
000120 06 3f ad 3c fa 06 39 3d 1b b8 a2 be 92 1c 40 3e
       0.021148216 0.04517267 -0.31781086 0.18760899
000130 92 6a b5 be 81 22 9f 3d 1a db 9e be 0e d6 9c bd
       -0.3543287 0.07770253 -0.31026536 -0.07658015
000140 a7 80 66 3e ab 28 b2 bd 05 1b 97 3d ed 1b e8 be
       0.22510014 -0.08699163 0.073782004 -0.45333806
000150 de 17 ca 3e 05 20 be 3d f5 95 b8 3d 16 9e d6 be
       0.39471334 0.09283451 0.09012977 -0.41917485
000160 2c 0d a8 3e 9b b1 00 3e 31 87 57 bc c7 ab f2 3c
       0.3282255 0.12567751 -0.013154791 0.029622925
000170 d7 e8 d0 bd a0 ac 3f 3e 0a 51 91 3d 77 53 88 bd
       -0.10200661 0.18718195 0.07095535 -0.06656545
000180 cb 1b d4 3d f4 d2 15 3d 41 98 a5 be 2c f4 39 bd
       0.103568636 0.036578134 -0.32342723 -0.045398876
000190 76 0b da bd 83 3c 31 bd 0b e9 8f be ab 63 92 bd
       -0.10646717 -0.0432706 -0.28107485 -0.071479164
0001a0 63 b1 09 bc 39 0f e2 bd 3e 2e 28 3e d2 28 bb 3e
       -0.008404109 -0.1103806 0.1642389 0.3655458
0001b0 c5 b6 56 bd 7a ee 6a be 24 5a 30 be 63 d8 1b bc
       -0.052420396 -0.22942534 -0.17221886 -0.00951204
0001c0 a1 27 5e be 15 b5 48 3b e1 14 0f bc 9a 00 5f be
       -0.21694805 0.0030625511 -0.008733005 -0.21777573
0001d0 46 39 00 3f c5 8c 34 bd c5 45 a1 bc 53 34 1e be
       0.5008739 -0.04407956 -0.019686589 -0.15449648
0001e0 4e 6a 1a 3d 9b c2 ec bd 46 4e 91 bd 05 1f 14 be
       0.037699036 -0.115605555 -0.070950076 -0.14464958
0001f0 3f 2f ea 3d 0d 4a 18 3e 1f 01 bf bc 2c 96 24 3e
       0.11434793 0.14871998 -0.023315964 0.16072911
000200 9d c4 9e 3d a2 42 e1 bd 8d 7b 07 bb 2e 53 fa bd
       0.07752345 -0.10999037 -0.0020673007 -0.122228965
000210 da fc 42 3e 94 b0 6e 3e d7 ed 70 be 3d f1 73 bc
       0.19041768 0.23309547 -0.23528229 -0.014889059
000220 b1 9c 0b bd 2f bb 73 3c 84 fd 11 3d d9 9d ee 3c
       -0.03408498 0.014876171 0.035642162 0.029128002
000230 ac a7 2a be a2 d3 88 3e 43 e6 56 3e 7f b1 8a be
       -0.16665524 0.26723963 0.20986275 -0.27088544
000240 30 fd 3c be c6 d7 86 be 49 41 c7 bc 2b f9 21 be
       -0.18455958 -0.26336497 -0.024323123 -0.15817706
000250 30 84 f1 3e a8 c2 11 3e cb c4 ed bc 0e df dd bd
       0.47171164 0.14234412 -0.029024502 -0.1083356
000260 63 9a ef 3d 87 8b 36 be ff 20 f3 3c 73 82 99 bd
       0.11699369 -0.17826663 0.02967882 -0.07495584
000270 cf fd 41 be f8 cf 0a 3e 88 17 73 bd 54 f3 31 3e
       -0.18944477 0.13555896 -0.059348613 0.17377979
000280 2c 66 66 bd 63 5f 9d 3d 49 84 ff 3d c3 51 6f 3e
       -0.056249782 0.07684209 0.12476403 0.23371033
000290 13 5d 39 3e c3 24 3d 3e dd 1e 1f 3e 9e 97 ad 3d
       0.18101911 0.18471055 0.15539117 0.08476184
0002a0 92 40 e0 3d 2a a0 1c bd 89 b5 3f be c6 be 2c 3e
       0.10949816 -0.03823868 -0.18721594 0.1686965
0002b0 3b d8 39 be 32 a8 7f 3e 94 23 af 3c 9e ca 5b 3d
       -0.18148892 0.24966505 0.02137927 0.053660028
0002c0 f2 54 0b 3e 21 aa 21 3e 93 e4 1d 3e f1 13 09 be
       0.13606623 0.15787555 0.15419225 -0.13386513
0002d0 94 52 b0 3d 08 05 23 bd 29 70 9f 3d dd 68 1a bd
       0.086095005 -0.03979972 0.07785065 -0.03769766
0002e0 84 83 43 3e 3b db 84 be 32 be b0 bc de db a9 3d
       0.19093138 -0.2594851 -0.021575067 0.082938895
0002f0 56 90 31 be cb 1d 2e ba e3 f0 25 3c 07 64 a6 3d
       -0.17340216 -0.0006642013 0.010128233 0.081245475
000300 22 19 8d bd 41 57 90 bd 76 e5 8f 3e cb f3 8d 3d
       -0.06889559 -0.07047892 0.28104752 0.069312654
000310 b7 59 ad 3e 24 87 15 3e 1a a0 c6 3d e1 1f a7 3c
       0.3385751 0.14602333 0.09698506 0.020400943
000320 48 76 51 3e 37 4d cd bd 5e fc 4c 3b 61 4a c2 bd
       0.20455277 -0.10024493 0.0031278352 -0.09486843
000330 70 09 4d be 1b 53 3e 3e 84 44 17 3e 77 2e e4 3d
       -0.20023131 0.1858639 0.1477223 0.11141675
000340 df 3c 14 be fc 44 fb bc 1e a1 76 3e b6 88 0a 3e
       -0.14476345 -0.030672543 0.24084899 0.13528714
000350 31 00 c6 3d d3 db 05 3e 47 47 e3 ba bd b7 9b 3c
       0.09668005 0.13072138 -0.0017339968 0.019008512
000360 44 45 c0 bd d3 00 15 3c c1 21 ef 3c ba 58 ac 3e
       -0.09388211 0.009094435 0.0291909 0.33661443
000370 04 30 30 bd a4 d1 67 3d fd 0e 8a 3d 84 cd cf bd
       -0.04301454 0.056596413 0.0674114 -0.10146621
000380 29 87 95 be 56 6d 1a bd 1f c8 29 be 21 89 27 3e
       -0.29204682 -0.037701927 -0.16580246 0.16360904
000390 6d 33 6d 3e fb 63 5b be b6 80 3c 3e d5 1c 02 3d
       0.23164149 -0.21424858 0.18408474 0.031765778
0003a0 b7 ac 12 3d c4 ef eb 3d ff ab 8c 3e 05 80 e5 3c
       0.035809245 0.11520341 0.27474973 0.028015146
0003b0 a5 48 dd 3d 4d c8 3c 3d b0 bd 5d 3e 5e 30 9d 3d
       0.108048715 0.04608946 0.21654391 0.07675241
0003c0 1e b8 b2 be 62 82 0f 3e 51 d4 14 bd 1a 04 7a 3e
       -0.34906095 0.14014581 -0.036335293 0.24415627
0003d0 40 f1 e1 bd e2 14 bd 3e 0c 3f e7 bd 32 59 2e 3e
       -0.11032343 0.36929995 -0.11291322 0.17026213
0003e0 41 99 96 be f6 9e 88 bd e2 15 80 3e e8 99 38 3e
       -0.29413798 -0.066709444 0.25016695 0.1802746
0003f0 0c 1c dd 3d 5f ba 04 bd 32 be 06 be f5 0b 8f bd
       0.10796365 -0.0324043 -0.13158491 -0.069847025

encoder.cell.W_iou.bias f4 [384]
000000 48 2a e1 bd d7 26 3f 3e 63 e6 2a be 29 34 4f 3d
       -0.10994393 0.1866716 -0.16689448 0.050586853
000010 f3 9a aa 3d 99 a9 56 3c 4a 56 7a be 3e 10 75 be
       0.083303355 0.013101959 -0.24446979 -0.23931977
000020 72 3a 27 be 12 12 d2 bc 76 4d 77 be 1c 66 61 3c
       -0.16330889 -0.025643382 -0.24150643 0.013757255
000030 34 e8 47 be c4 b8 f7 bd 25 36 a1 bd 74 c1 4e be
       -0.19522172 -0.12095788 -0.078716554 -0.20190984
000040 e0 58 03 3e 2b c3 dd bd eb 08 52 be 48 af 27 3e
       0.12826872 -0.10828241 -0.20511214 0.16375458
000050 ca f6 1b be 9d 62 21 bc d6 ad 8e 3c 34 9a 14 be
       -0.15230861 -0.009850171 0.017416876 -0.14511949
000060 e5 38 2e bd 68 26 01 3e 3b 0f 78 bd a4 42 b2 bd
       -0.042534728 0.12612307 -0.0605614 -0.08704117
000070 bc 9c a7 bd 90 1c 41 3a 0a 34 72 3e 23 6e 6a be
       -0.081841916 0.0007366622 0.23652664 -0.22893576
000080 ef 82 05 be 33 d8 d5 bc 9d 57 9d 3d 57 e5 25 be
       -0.13038228 -0.026104068 0.076827265 -0.16200767
000090 eb a9 16 be bf 03 59 3d db 8d 35 3d ab b1 80 3d
       -0.14713256 0.05298209 0.044324737 0.062838875
0000a0 22 90 77 bd 22 98 01 3d 26 95 a5 3d ef 24 bd 3b
       -0.06044019 0.031639226 0.080850884 0.005772225
0000b0 31 a8 64 be 3e 52 a0 bd df 8d 49 bc 17 89 ec bd
       -0.22329785 -0.078281865 -0.012301891 -0.11549585
0000c0 c3 ba a7 bd 94 8d 9e 3d 82 fe 82 3b 5b 3b 3e be
       -0.08189919 0.07741848 0.003997625 -0.1857733
0000d0 62 e3 64 3e 92 05 f5 bc f5 09 51 be 63 03 6f 3c
       0.22352365 -0.029909883 -0.20413955 0.01458821
0000e0 77 cf 87 bd 3b a1 75 be 62 b6 f0 bd c2 44 e7 bd
       -0.06631368 -0.23987286 -0.11753537 -0.112924114
0000f0 68 05 3f bd b0 21 43 bd 2e 25 8a bd e3 d2 09 3e
       -0.046636015 -0.04763955 -0.06745373 0.13459353
000100 44 3e 30 bc 01 43 c0 3d 5c b1 30 be 9a 7e 69 be
       -0.010757033 0.0938778 -0.17255157 -0.22802201
000110 cc 01 32 3e f6 c6 32 3d ba 92 a1 bd 60 2e c0 bd
       0.17383498 0.043646775 -0.07889314 -0.09383845
000120 1f c7 ae 3c 92 bf 0f be 30 40 53 3d fd 22 15 be
       0.021335183 -0.14037922 0.051574886 -0.14564128
000130 63 be 8d be 0f ca c1 3b 1c 3c 69 be e1 b8 ef 3d
       -0.27684316 0.00591398 -0.22776836 0.11705185
000140 96 1c 8e bd f3 76 8d bd e1 a1 6c 3d 40 6e 19 be
       -0.06939046 -0.069074534 0.057771567 -0.14983463
000150 50 eb 99 bb af 06 5a be c1 79 01 bd aa 11 d1 bd
       -0.004697241 -0.21291612 -0.031610254 -0.10208447
000160 60 c8 ef bd c9 d6 03 bc 0e d8 2b 3e d1 7c 99 3b
       -0.117081404 -0.008046814 0.16781637 0.0046840687
000170 e9 3d 42 be b0 5b f9 bd 0b 7f 89 bd c0 35 ec bd
       -0.1896893 -0.12175691 -0.06713685 -0.115336895
000180 7b bd 0a 3e c4 ba 00 be 19 cf 54 be 47 d6 9c be
       0.13548844 -0.12571245 -0.20782126 -0.3063223
000190 82 6e b2 bd 21 b4 2a 3e b7 c4 97 be e6 05 0e bd
       -0.08712484 0.16670276 -0.2964227 -0.034673594
0001a0 fa ff a6 3b a7 a7 c0 3d 84 36 5c be 47 ec 43 3e
       0.0050964328 0.09406977 -0.21505171 0.19133101
0001b0 30 82 78 be 6e 74 e2 bd 01 83 64 be 25 1b fa bd
       -0.24268413 -0.110573635 -0.22315599 -0.12212209
0001c0 3d 28 c4 bc cc 49 9b 3d 87 2f 06 3d 55 c5 69 be
       -0.023944968 0.07582435 0.03276017 -0.22829182
0001d0 c3 88 f9 3c 52 32 96 3c df 61 c3 3c 9d f5 87 be
       0.03046072 0.018334541 0.02385038 -0.26554576
0001e0 ed ba a2 bd 43 3a 67 be fb d3 ad 3d 1f 6f ed bd
       -0.079458095 -0.22580819 0.08487698 -0.1159346
0001f0 5c 41 f7 bd 09 92 66 be b7 39 46 3d 56 83 aa bd
       -0.12073013 -0.22516645 0.048394885 -0.083258316
000200 4c 21 14 be 2b ed 38 3d 0d 55 72 be 92 9a 88 bc
       -0.14465827 0.045148056 -0.23665257 -0.016675267
000210 46 d5 25 3e c1 ac 30 be 66 62 0c be 33 bc a1 bd
       0.16194639 -0.172534 -0.13709411 -0.07897224
000220 1e d6 f4 3d 00 5e 01 be a8 fa 1d bc bf a9 2f 3e
       0.11954902 -0.12633514 -0.009642281 0.17154597
000230 53 82 a8 bd b1 73 3a be 97 84 09 be ab 55 19 be
       -0.08227982 -0.18208195 -0.13429485 -0.14974086
000240 f8 b4 10 bd 62 91 b2 bd c0 b5 07 bd b2 13 a0 3e
       -0.035328835 -0.08719136 -0.033132315 0.31265026
000250 50 a7 c0 bd 0c cb 71 3d 8c c1 e5 bd 86 60 39 bd
       -0.09406912 0.05903153 -0.11218557 -0.045258068
000260 28 b3 34 bd 41 72 cf bc b7 67 4a bd 4a 01 32 3d
       -0.04411617 -0.025323035 -0.049415316 0.04345826
000270 2a 0e 79 bd 97 9f 9a 3e be 8b 2a 3e f5 c8 1f 3e
       -0.060804524 0.30199882 0.1665487 0.15604003
000280 36 75 aa bb 90 a3 2d 3e c4 8e d3 3c 4e 10 5d bc
       -0.005201961 0.16956925 0.025824912 -0.013492657
000290 b1 13 b6 bd 61 f6 ea 3d 9b 25 13 be a3 02 5f bd
       -0.088904746 0.11472774 -0.14369814 -0.054445874
0002a0 46 5a 80 bd 51 1d 18 be 8c 1c 65 bd 55 31 72 bd
       -0.06267218 -0.14854933 -0.055935428 -0.059129078
0002b0 23 8e fa 3c 7e cf 13 be 59 7d 11 bc b1 80 96 3e
       0.030585354 -0.1443462 -0.008879983 0.2939506
0002c0 bd e1 e5 bd be e6 d1 3d 17 a3 58 3e 4f 77 c2 bd
       -0.11224697 0.10249089 0.21155964 -0.094954126
0002d0 fc 6b 0e 3d 6a fc c8 bc 2f 92 91 bd 43 e6 a1 bd
       0.03477095 -0.024534423 -0.071079604 -0.07905247
0002e0 83 f2 dc 3d 2a 42 91 bb b6 f2 c3 3d 1e 50 d7 3d
       0.10788443 -0.004432936 0.09567778 0.10513328
0002f0 d7 84 da 3d cb 41 29 3e 1d 05 b8 bd 0f 5d 16 3e
       0.106698684 0.16529004 -0.0898535 0.14683937
000300 be 8a 41 be 29 53 15 3e b9 6e d0 bd 35 31 ae 3d
       -0.18900582 0.14582504 -0.10177369 0.08505479
000310 4d 25 88 3e 5d f1 1b 3d 08 ce 2a 3e 7b c2 11 be
       0.26590958 0.03807198 0.16680157 -0.14234345
000320 9d d8 9c 3c 13 44 37 3e d2 c3 18 be eb a3 26 be
       0.019146258 0.17897062 -0.1491845 -0.16273467
000330 b8 7f c7 bc 7b 8e 34 3d ee 4c 16 bc d9 3d 6e 3e
       -0.024352893 0.044081192 -0.009173615 0.2326578
000340 21 1a c6 bd ee 5f 5c 3d 40 7e e8 bd 56 10 95 bb
       -0.096729524 0.053802423 -0.11352205 -0.0045490665
000350 65 d4 3c be f2 c6 02 bd a8 56 26 3e dd d9 32 3e
       -0.18440397 -0.03192801 0.16243994 0.17465921
000360 33 29 5d 3d 0b e6 4e 3d 9e 22 2b 3d e9 b5 cc 3d
       0.05399437 0.050512355 0.04178106 0.09995634
000370 0b 4c a5 3d 59 33 a6 3d cc 44 b9 3d 9a 14 2a be
       0.08071145 0.081152625 0.09046325 -0.16609421
000380 55 29 17 3d e2 50 ba 3d dd 65 90 bd 42 a7 28 be
       0.03690465 0.090974584 -0.07050679 -0.16470054
000390 79 9b 27 bd 3c 4f 62 bd a1 2e fa 3c 61 8a d7 bd
       -0.040919755 -0.055251345 0.030539813 -0.105244406
0003a0 f4 9f 33 3e cf 5d 26 3e b7 81 1a be 16 ab 21 bc
       0.17541486 0.16246723 -0.15088545 -0.00986745
0003b0 de 99 6d be 62 ca 20 3e 25 de 98 3d 5c c0 fc 3d
       -0.23203227 0.15702203 0.07464246 0.12341377
0003c0 6a 30 b9 3d 8f e1 20 bd cc 85 fe bd fc e2 5e be
       0.090424374 -0.03927761 -0.124278635 -0.21766275
0003d0 b4 82 54 bd fd 39 24 3d 8a 75 42 bd e8 88 90 bd
       -0.05188246 0.040094364 -0.047475375 -0.07057363
0003e0 ea de 39 be 22 37 1b be 53 4b b1 3c 20 2e 48 be
       -0.18151441 -0.1515775 0.021642363 -0.19548845
0003f0 31 8b 3d 3d 4d d4 a3 ba c6 1d b3 bd 13 27 3b bd
       0.04627532 -0.0012499184 -0.08745913 -0.04569156

encoder.cell.U_iou.weight f4 [384, 256]
000000 00 a7 34 bc 0e a1 43 be b3 2f 0f 3c f1 cf db bd
       -0.011026144 -0.19104406 0.0087394 -0.10733021
000010 e5 8f 31 be e4 ad c6 bc bc 5b 1c 3d 1e c3 25 bd
       -0.17340048 -0.02425284 0.038173422 -0.04046928
000020 e9 94 e8 3c 71 52 dd 3d 35 c1 b4 bd ca c0 82 be
       0.028391318 0.1080674 -0.08825914 -0.2553771
000030 74 e9 bb bd 66 c8 80 3c 45 ad 39 3e 85 8f 00 3e
       -0.09175387 0.015720557 0.18132503 0.12554748
000040 31 32 5f be e8 20 d8 3d e6 32 e2 bd 44 54 5f be
       -0.2179649 0.10553151 -0.11044864 -0.21809489
000050 74 75 26 3c 79 a4 87 3d de 96 22 be 67 59 fe bc
       0.010159839 0.066231675 -0.15877864 -0.03104849
000060 78 81 4b 3d 7d a9 56 3d 5c 44 bc 3c 4d 04 2b be
       0.049684018 0.05240773 0.022981815 -0.1670086
000070 d7 9e 84 bb 91 a6 b4 be 9d 95 1d be aa 89 b0 be
       -0.0040472555 -0.3528333 -0.15389104 -0.3448003
000080 09 87 bc bd a8 f6 a2 3d 7a 37 9f bd fb 81 5c be
       -0.092054434 0.07957202 -0.07774253 -0.21533959
000090 74 b3 b4 3d 0c ac 0e be 5a e5 6b 3c 0e 39 86 3c
       0.088232905 -0.13932818 0.014397943 0.016384628
0000a0 9d 48 08 3e 6a d0 0c be 6a 9e 59 bd 7d b0 92 be
       0.1330895 -0.13751379 -0.05312959 -0.28650275
0000b0 30 e5 af 3d 8b e0 41 3d ce dd f6 bd d7 1c 97 bd
       0.08588636 0.04733328 -0.12054025 -0.07378548
0000c0 0c d8 26 be e3 17 8c bc 51 1f 6a 3d 91 df 20 3e
       -0.16293353 -0.017101234 0.057158772 0.15710284
0000d0 2f ce 9e bd e9 9e 88 bd 84 ff 03 3e 88 5f 3c 3d
       -0.0775417 -0.06670935 0.1289044 0.045989543
0000e0 5c 27 b2 3d c0 f5 6d bd 2a 92 f9 bd cf 80 a0 3d
       0.086989135 -0.058095694 -0.12186082 0.07837068
0000f0 68 3d f4 bd bc a5 e5 bd 8d ec 92 bc 11 37 37 be
       -0.11925775 -0.11213252 -0.017935062 -0.178921
000100 61 06 e9 bd 63 f7 36 be 88 17 e9 3d 98 4f e7 bd
       -0.1137817 -0.17867808 0.11381441 -0.11294478
000110 ec 67 b3 be 9e 20 f4 bc 32 6c 15 3e fa 3c 72 bd
       -0.35040224 -0.02980071 0.14592054 -0.059140183
000120 8a e6 18 be 79 bf 19 bd 24 7b a3 3d 18 9f 33 bd
       -0.14931694 -0.03753612 0.079824716 -0.043852895
000130 69 81 0d 3e 5e 39 46 be d5 7c b9 3c 6e 3e b6 bd
       0.13818897 -0.19357821 0.022642532 -0.08898626
000140 f1 a2 fe bd ee 27 e1 bc a6 0b b7 bd 7c 40 50 be
       -0.12433422 -0.02748486 -0.08937769 -0.20337099
000150 27 df b8 bd 1d e7 f2 3d e7 1f fc bc 27 00 27 3e
       -0.09026938 0.118604876 -0.030776931 0.16308652
000160 28 ff e5 bd 76 a7 05 ba a0 ae 91 be 1d 60 be bc
       -0.11230308 -0.0005098501 -0.2845354 -0.02323919
000170 9c 9e 06 be 6b 7b 18 be 19 59 7c 3c 7c 63 47 3e
       -0.13146442 -0.1489083 0.015402102 0.19471544
000180 0c 4a 1f be 21 00 cc bd 86 cb 83 bd 34 fb 7a be
       -0.1555559 -0.09960962 -0.064353034 -0.24509889
000190 35 b0 12 bd 94 fe 3f bd 99 00 2a 3d 5f 09 db 3d
       -0.035812575 -0.046873644 0.041504476 0.10695147
0001a0 6e d9 1a 3d f4 3d 90 3d 12 10 db 3c f5 ea c7 bd
       0.037805013 0.070430666 0.026741061 -0.09761611
0001b0 79 45 e4 bd a7 28 db 3c 91 72 8b 3c 55 24 84 be
       -0.11146063 0.026752783 0.017022403 -0.2580897
0001c0 d7 79 e6 bd c7 a8 ff bd cb ad e1 bd 59 e3 27 3d
       -0.11253708 -0.124833636 -0.110194765 0.0409883
0001d0 40 1e 51 3d d6 66 82 bd 51 30 a1 be ab 56 0d 3d
       0.05105424 -0.06367271 -0.31482175 0.03450648
0001e0 c4 04 4c 3d 09 7a 8a bd b9 f2 1c be 20 e7 16 3e
       0.049809232 -0.067615576 -0.15326966 0.14736605
0001f0 0e 61 ca bd a1 4b 05 3e d8 4d 1a 3e aa 53 4a be
       -0.09881793 0.13017131 0.15068758 -0.19758478
000200 f3 b6 89 bd fd 57 45 bd f1 5f 6f bd 67 0e 64 be
       -0.06724348 -0.048179615 -0.058441106 -0.22271119
000210 37 84 32 be 43 a1 36 be f4 81 7b 3d 9a c9 f3 bd
       -0.17433248 -0.17834954 0.06140323 -0.11903687
000220 93 1d bd bd 33 11 d4 3c 27 c4 9a bd cd 71 0e be
       -0.092341565 0.025887107 -0.07556944 -0.13910599
000230 12 0f 73 bd 9c 3f 93 3d 3a 16 0a 3e 75 96 e5 bb
       -0.059340544 0.07189867 0.13485041 -0.0070064613
000240 8b 63 43 be 28 71 73 bc 88 73 42 be fe 1e 1e be
       -0.19080941 -0.0148585215 -0.18989384 -0.1544151
000250 cc 80 41 be 00 79 80 bd 13 c0 8a be ba 0a 77 bd
       -0.18896788 -0.06273079 -0.27099666 -0.060312964
000260 a1 4c c8 3d 0d 7e a0 bc 6c 61 83 bc e5 d0 3b be
       0.09780241 -0.019591356 -0.016037665 -0.18341406
000270 cf 31 a0 bd 2d cf 63 be 73 48 54 be a7 58 a3 be
       -0.07822 -0.22247 -0.20730762 -0.31903574
000280 19 54 01 bd 63 25 dc 3c 1b 60 be bd 68 90 88 be
       -0.031574342 0.026873296 -0.092956744 -0.26672673
000290 3c 60 fe 3d bc 77 2c be 86 86 1d be 84 87 2d be
       0.12420699 -0.1684255 -0.15383348 -0.16946226
0002a0 bf 77 f9 3b 60 c7 af bd e3 1b 14 be be d5 5d be
       0.007613152 -0.0858295 -0.14463763 -0.21663567
0002b0 ec cc 94 bc 68 44 e4 bd b8 5b ff bd d6 ed 4e bd
       -0.01816412 -0.1114586 -0.12468666 -0.050519787
0002c0 04 3f 8d bd 1d e8 26 be da 18 23 be e5 14 24 3e
       -0.06896785 -0.16299482 -0.15927449 0.16023596
0002d0 4a 2c 3a be 76 43 9f bd 60 fc 35 3d 27 f9 a8 bd
       -0.18180957 -0.07776539 0.044430137 -0.08250647
0002e0 9f 74 22 be d2 3a 89 bc 9a c4 ae bd 31 0e 9c bd
       -0.158648 -0.01675168 -0.085335925 -0.07619894
0002f0 84 39 fb bd 37 b8 35 be eb c0 31 be d6 ab 94 bd
       -0.122668296 -0.17746054 -0.17358749 -0.072593376
000300 7a 49 d5 bd 9f 96 50 bd 02 f3 b1 bd cf 12 3c bd
       -0.10414405 -0.050924893 -0.08688928 -0.045916375
000310 53 88 81 be ce 96 9a bd e6 ab 25 bd ac 4e 20 be
       -0.2529932 -0.07548295 -0.04044714 -0.15655011
000320 a4 10 26 be 8c 6a 89 bd 48 44 15 3c 36 23 bd 3d
       -0.16217285 -0.06709775 0.009110518 0.092352316
000330 79 a4 e7 bc a1 b0 e9 bd 06 45 9a bd eb 9b 90 bd
       -0.028276669 -0.114106424 -0.075326964 -0.07060989
000340 ca e5 c0 bd 5d a4 66 bd 6e bf 21 be ee 5a 83 bd
       -0.09418829 -0.056309093 -0.15795681 -0.06413828
000350 4f f0 a4 bd fa 20 9c 3d 78 23 0e be 58 8c 7d bc
       -0.08053648 0.07623477 -0.13880718 -0.015475355
000360 26 33 c3 bc 33 14 92 3c a0 f4 2e be 65 29 cd bd
       -0.0238281 0.017831897 -0.17085505 -0.10017661
000370 26 7a 95 bd 34 49 05 be d1 26 5c be 8d db 54 3e
       -0.072986886 -0.13016206 -0.21499182 0.20786877
000380 d2 cd 38 be e2 e7 48 3c c6 38 ae bd a3 6a 82 be
       -0.18047264 0.012262316 -0.085069224 -0.25471982
000390 f3 8e 5e bc a9 96 0d be d5 62 52 bd 47 41 ba bd
       -0.013583886 -0.13827004 -0.051363785 -0.09094482
0003a0 3b 6d b2 bd de 25 80 bd 52 c8 43 bd b1 2a 00 bd
       -0.0871224 -0.062572226 -0.047798462 -0.031290714
0003b0 ef ef 55 be 76 90 11 3c cb b7 89 bd 55 f9 10 be
       -0.20892309 0.00888454 -0.06724509 -0.14157613
0003c0 bc 84 ab bd cc bf 88 bd 03 7d 89 3a 6e b7 9a 3d
       -0.083749264 -0.06677207 0.0010489527 0.07554518
0003d0 f7 0f 53 3e 9e e8 34 bd e1 bb 0a be f3 b6 06 3e
       0.20611559 -0.044167154 -0.13548233 0.13155727
0003e0 9c 44 9f bd 92 37 1e be 1d b0 2d be 61 97 04 bc
       -0.07776758 -0.15450886 -0.16961713 -0.008092732
0003f0 31 57 11 be c7 c4 ea bc 10 11 44 3d 4a 9d 26 be
       -0.14193417 -0.028658284 0.047867835 -0.16270939

encoder.cell.U_iou.bias f4 [384]
000000 84 e3 e0 bd 1e bc dc 3c 9b 6e ee bc f0 bc 45 bc
       -0.10980895 0.02694517 -0.029105475 -0.012068972
000010 2b 36 3b bd 16 cc 61 bd 43 85 04 be 08 a7 a2 bd
       -0.045705955 -0.055126272 -0.1294146 -0.07942015
000020 fa 29 c6 bd 98 d0 a4 3d 32 78 40 be 2b 7c a8 3d
       -0.09675975 0.080475986 -0.18795851 0.08226808
000030 8a 90 3e bd ca c2 93 bd bd 91 03 be 49 21 6d bd
       -0.046524562 -0.072148874 -0.12848563 -0.05789307
000040 a0 dd 2e bc 42 69 18 be 5a 3e 83 bd 15 3c 8f 3b
       -0.010672957 -0.14883903 -0.06408377 0.004371176
000050 d4 29 19 be 2e 78 0d be d8 d4 a8 3d 89 b9 e0 bc
       -0.14957362 -0.13815376 0.08243722 -0.02743222
000060 71 33 0d be 05 fb 5c 3d 60 2b e5 bd 32 2d 42 bc
       -0.13789155 0.05395033 -0.11189914 -0.011851596
000070 08 b7 1d be 77 c1 bb bd 83 65 c8 3d 24 36 65 bd
       -0.15401852 -0.0916776 0.09784987 -0.055959836
000080 cf dc 15 be 10 49 bd bb 08 93 65 3c 31 d1 97 bd
       -0.14635013 -0.005776532 0.014012106 -0.07412947
000090 81 4a 7b bd 46 4d 0c be fc b5 58 bd 30 ca f3 bd
       -0.06135035 -0.13701352 -0.05290793 -0.119037986
0000a0 81 96 be bd 84 97 c7 bc 8f a8 13 bd 0c 78 3c bd
       -0.0930605 -0.02436424 -0.036049422 -0.046012923
0000b0 55 2a 32 bd 62 04 fa bd 20 46 86 bd 24 9c d6 3d
       -0.043497402 -0.12207867 -0.06556344 0.10479
0000c0 20 7f 06 be aa 4a 18 bd 6f 78 33 be 1a 90 d1 bd
       -0.13134432 -0.03718058 -0.1752641 -0.10232563
0000d0 49 5a 95 3d 66 77 9c 3d 57 c1 d3 bd 70 e3 c1 bd
       0.07292611 0.07639961 -0.10339611 -0.094672084
0000e0 a7 78 bc bd 5d 70 11 be 4c b3 32 bc 98 b5 27 be
       -0.092027 -0.1420302 -0.0109070055 -0.16377866
0000f0 af b4 95 bc a8 63 3b bd ce 27 d0 3a 14 7a 97 38
       -0.018274633 -0.045749336 0.0015881003 7.22298e-05
000100 b0 fb 0c bd e2 63 5b 3d a7 0a 65 bd c1 af 51 bd
       -0.034419715 0.053562053 -0.055918362 -0.051193003
000110 44 13 62 3d fb 04 80 bd 8b 26 1d be 34 22 fe bd
       0.055194154 -0.0625095 -0.15346734 -0.124088675
000120 7c 79 9e 3d 57 2b eb bc 89 9f 27 be 07 0f f4 bd
       0.07738015 -0.02870719 -0.16369452 -0.11916929
000130 f5 a7 18 be a7 01 97 3c 9d 3c de bc a0 8b 89 3b
       -0.1490782 0.018433405 -0.027128512 0.004197553
000140 8e 18 12 3e 24 7e 32 be 5c fd 2c bd 6b c9 0f be
       0.1426718 -0.17430931 -0.04223381 -0.14041679
000150 db 4f d8 bd 3a 6d 10 be 62 3c f9 3c 0c a3 16 3a
       -0.10562106 -0.14104167 0.0304243 0.0005746342
000160 e8 c5 17 bd 9e 96 fd bd 35 98 25 3d db 7b 5f 3c
       -0.037053972 -0.123822436 0.04042836 0.013640369
000170 2c 34 28 be 20 54 b0 3d e8 48 9f bd e7 54 c4 bd
       -0.16426152 0.086097956 -0.07777578 -0.09586506
000180 0e c7 ab 3d 6d 97 34 be 9d c9 97 bd 2b 8c 15 be
       0.08387576 -0.1763589 -0.074115016 -0.14604251
000190 3c 1b 18 be b3 c9 1b 3c 99 cf 40 be 3c d8 cf bd
       -0.14854139 0.009508538 -0.18829192 -0.10148665
0001a0 33 05 b8 bd d8 6c 56 bd f9 63 65 be 1d 18 a5 3d
       -0.08985367 -0.052349895 -0.22401418 0.0806124
0001b0 de d0 25 be 3a 16 3e be f8 3d 30 be 69 e4 64 bd
       -0.16192958 -0.18563166 -0.17211139 -0.05588189
0001c0 1c 96 de bd 11 17 72 bd bd d9 7a 3b 60 50 f8 bb
       -0.10868475 -0.05910403 0.0038276755 -0.007577941
0001d0 3b 7a e0 bd 3e d0 ef 3d 85 f8 50 bd fa e8 8f bd
       -0.109608136 0.11709641 -0.051018257 -0.07026859
0001e0 08 ce 19 be e8 31 bc bd a2 2b b0 3d e2 a6 1b be
       -0.15020001 -0.09189206 0.08602072 -0.1520038
0001f0 55 e7 ea bd 74 f0 1f bd 4a d2 50 bd b1 0f 87 3d
       -0.11469904 -0.039047673 -0.050981797 0.0659479
000200 23 e3 e1 bd f6 37 96 3d ae 5b ca bd be 0c 84 3c
       -0.11029651 0.073348925 -0.09880768 0.016119357
000210 7e 0f e3 3d 0a 45 a3 bd 27 60 b3 3c 32 91 32 3d
       0.11086939 -0.079721525 0.021896435 0.0435955
000220 06 08 ae bd eb d5 0c 3c 29 a7 ce bd 44 b7 4b 3c
       -0.08497624 0.008595924 -0.10090477 0.012433831
000230 f6 04 40 3d 9e 6e 10 be 43 5f be bd 36 8f 61 bd
       0.04687973 -0.14104697 -0.092955135 -0.055068217
000240 83 f7 e5 bd b7 5a 03 3d c8 db d9 bd 84 75 16 3e
       -0.1122885 0.032068934 -0.10637623 0.14693266
000250 86 4c 4f bb c2 74 b2 3d 45 fe b2 3d 0f 52 87 bd
       -0.0031631305 0.08713676 0.08739904 -0.06607448
000260 39 58 ee bd 10 ab 1d bd 11 c1 14 bd b5 7c 30 3d
       -0.11637921 -0.038493216 -0.036316935 0.04308768
000270 26 94 9c bd 2d cb 0e 3e 7c 26 9f bb af b1 64 3e
       -0.076454446 0.13944693 -0.0048568826 0.22333406
000280 53 45 96 3d b1 01 96 bc f1 aa 12 bd 47 df ce 3d
       0.07337441 -0.018311353 -0.035807554 0.101011805
000290 1f e7 3e bd 6e e2 46 3c fe 23 d1 bd c1 19 e9 3c
       -0.046607133 0.012138946 -0.10211943 0.028454663
0002a0 01 ba ef 3b 62 af 16 3d 70 15 09 bc cc a3 d5 3d
       0.0073158746 0.03678835 -0.0083669275 0.104316324
0002b0 35 84 fe 3c b1 97 43 3d 31 77 20 bb ab 71 17 3e
       0.0310689 0.047752086 -0.0024485106 0.14789455
0002c0 fb 48 62 bd 4e 1e 03 3d 36 4e b5 3d 19 3c a2 bd
       -0.05524538 0.032011323 0.08852808 -0.07921619
0002d0 2d 99 5a 3d ad 7f 9c 3b c0 7d 8a bc d5 e4 04 ba
       0.053368736 0.0047759623 -0.016905665 -0.0005069499
0002e0 1b 25 f6 3c 29 ef 9e 3d 8b af f5 3d a4 f9 1c 3e
       0.03004699 0.0776046 0.11996373 0.15329605
0002f0 78 64 37 3d 93 7e bb 3d 53 ce 00 3d 9f 4e 47 3c
       0.04477355 0.091550015 0.031446766 0.012164741
000300 5f 2e c7 3c 2f dc 3a 3d 95 52 b3 3d 35 11 04 bd
       0.024314104 0.04562014 0.08755986 -0.032242972
000310 fb 17 db 3d 7d c1 77 3b de 75 0d 3c 38 ae 5b 3d
       0.10697933 0.0037804537 0.008634059 0.053632945
000320 0c 67 e6 3d 60 48 82 3d a2 e4 89 3c a7 d3 2e bd
       0.112501234 0.06361461 0.016832653 -0.042682316
000330 d8 82 7f 3d 6d e7 3f 3d 3e 5f 42 3b 5f 0e e5 3d
       0.06238064 0.046851564 0.002965882 0.11184382
000340 10 c2 f2 3c 9a 6b 99 3c 9e 75 29 bb 1f 86 23 bd
       0.029633552 0.018728066 -0.0025857459 -0.03992283
000350 08 c6 05 3b 94 af 6e bd 83 c0 35 3d af 7c cb 3d
       0.0020412225 -0.058272913 0.044373047 0.09935891
000360 27 c7 b4 bc 69 17 84 bc ea 78 c3 3d d9 17 1e 3e
       -0.02206762 -0.016124444 0.09544547 0.15438785
000370 3e b9 90 bc b1 4d 72 3c 3d b5 b1 3b f6 e4 88 bd
       -0.017666455 0.014789031 0.0054232166 -0.06684296
000380 3d 27 93 3c ab ec a1 bc c2 e4 91 bd 8b 7f 99 bc
       0.017963046 -0.019766172 -0.0712371 -0.018737575
000390 8f 10 01 3d e7 03 1b 3c 9c 13 de bc 61 de 3d bc
       0.031509932 0.00946138 -0.02710896 -0.011588664
0003a0 1b da ca 3d c4 69 24 bd e9 37 7c 3d 11 58 4a bc
       0.099048816 -0.04013993 0.061576758 -0.012350098
0003b0 4e cf 03 be 02 a4 fd bc 5e fb f6 bc 7d b5 b6 3d
       -0.12872049 -0.030961994 -0.030149158 0.08921335
0003c0 fb 2b fd 3a bc a0 97 3d 66 e3 3e bc 89 c5 6a bd
       0.0019315475 0.074037045 -0.011650896 -0.05731729
0003d0 31 7b ec bb 6c 51 df 3c 2b 49 5d 3d 3f 62 db bc
       -0.007216834 0.027260505 0.054024857 -0.026780246
0003e0 7b a0 c5 bd 05 8a ca bc 45 a1 8e 3d 51 ea 59 bd
       -0.0964975 -0.024724016 0.069643535 -0.053201977
0003f0 70 ee 1f bd f3 21 9f bd e4 9d 16 bc 9a c8 d1 3d
       -0.03904575 -0.07770147 -0.0091929175 0.1024334

encoder.cell.W_f.weight f4 [256, 32]
000000 37 83 48 be e2 be d7 bb 49 65 04 be 20 25 2b 3d
       -0.19581304 -0.0065840343 -0.12929262 0.041783452
000010 80 f8 2f 3d 3f 38 5f 3e f9 b7 cf 3d 9b 0d 40 3e
       0.042961597 0.217988 0.10142512 0.1875519
000020 5a 3b 42 3e 56 4f 00 be a2 d5 ff 3d da a4 d9 bc
       0.18967953 -0.12530264 0.12491919 -0.026567865
000030 ec 81 cf 3d 58 10 7d 3d 31 90 21 be 32 a6 49 3e
       0.101322025 0.061783165 -0.15777661 0.19692305
000040 9c e9 76 3e 5e 27 c1 bd ba 26 39 3d 84 5e 76 bd
       0.24112552 -0.09431337 0.04520295 -0.06014873
000050 4d e0 18 be b1 d9 23 bc d8 d8 32 bb 27 f2 9c 3d
       -0.14929314 -0.010000632 -0.0027289893 0.076633744
000060 22 61 08 3c 2e 3d 19 3e 03 c3 79 3d 35 49 a6 3d
       0.0083239395 0.14964744 0.060976993 0.08119432
000070 15 cd e0 bd ef 6b 76 3e e1 b0 30 3e 7c 7d 60 be
       -0.10976616 0.24064611 0.17254974 -0.21922868
000080 b8 e3 17 3e dd 8b 4b bd 3c c1 b4 3e 78 29 9f be
       0.14832962 -0.04969393 0.35303676 -0.31086326
000090 c1 1a 43 be 82 92 54 3e 00 52 08 3e a5 e5 09 3e
       -0.19053175 0.20759013 0.1331253 0.13466509
0000a0 06 0a d3 bd a5 2a 07 bd ef 3a 83 be 48 85 17 be
       -0.10304646 -0.032999653 -0.256309 -0.14796937
0000b0 e6 5d 7b 3e 68 23 61 3e 34 93 6b 3e 77 b3 da bd
       0.24547538 0.21986163 0.23005372 -0.106787615
0000c0 03 d6 fd 3d f2 9f 3d 3a bb 54 db bd 2f e5 14 3d
       0.12394335 0.00072336115 -0.107095204 0.03635138
0000d0 28 e3 56 3e 7b 52 02 be 8c c2 80 be 5e 82 31 bd
       0.2098509 -0.12726776 -0.25148427 -0.04333722
0000e0 dc 58 87 bd c4 e0 d7 bd e0 fe ab 3d c1 90 45 be
       -0.066087455 -0.105409175 0.08398223 -0.192935
0000f0 9a ed 0d bd 4b a5 29 be 14 ff 9c b9 7f 9b 3a bd
       -0.034650423 -0.1656696 -0.00029944687 -0.04555845
000100 a9 fb 97 3e 37 ef 88 be a2 39 21 3e a5 3d 4e 3d
       0.2968419 -0.26745006 0.15744641 0.050351758
000110 29 da 96 bd 87 0a 10 3e 68 df 20 3e 4e 60 9d bd
       -0.073658295 0.14066516 0.15710223 -0.07684384
000120 1c 60 f5 3d 12 1d d2 bc f5 44 f2 bc b9 b0 58 3e
       0.11981222 -0.025648627 -0.029573897 0.21161164
000130 64 19 a6 3e c4 30 8d 3e 89 37 e0 bb d9 9b 07 3d
       0.32441247 0.27576268 -0.006842558 0.033107612
000140 af 3b 1c 3e 7a c8 b7 3d ed 1d 6f bc 31 36 e2 bc
       0.15257142 0.08973785 -0.014594537 -0.027613731
000150 f6 91 91 bd bb 69 0f be 44 d7 da bd 0b d9 89 be
       -0.07107918 -0.14005177 -0.1068559 -0.26923403
000160 e0 8f 4d be 00 2f 09 3e dc 01 cc bd bd db 9e bd
       -0.20074415 0.13396835 -0.09961292 -0.077567555
000170 31 ff 4a be c1 4d 29 be 91 a1 50 3e 6d 54 f5 bd
       -0.1982391 -0.16533567 0.20374133 -0.119789936
000180 9b 12 75 be 0b 6d 92 3c 58 54 8a 3e b5 de 30 3d
       -0.23932879 0.017874261 0.27017474 0.04318114
000190 ec fc b6 3e e5 c2 d1 bd 46 1f ad bc ce 9a 8f 3e
       0.3573984 -0.10242251 -0.021133076 0.28047794
0001a0 55 5f da bd 53 81 19 3e 4f 09 ef bd 94 9b 7d be
       -0.106627144 0.1499074 -0.11671697 -0.2476638
0001b0 b7 c2 9a be f4 4f 1f be 24 13 1e bd f3 3f 77 3d
       -0.3022668 -0.15557843 -0.038592473 0.06036372
0001c0 72 1e ef 3c 5a a6 2f be 1f 6f 84 3e 1e 11 1b bd
       0.029189322 -0.17153302 0.2586603 -0.03785812
0001d0 06 1e bd 3e e4 24 45 3e a1 11 27 bd 8f c3 c8 3b
       0.3693697 0.19252354 -0.040788297 0.006126828
0001e0 8d 60 53 3e 22 26 81 be 37 f5 86 bc ff a2 e0 39
       0.206423 -0.25224406 -0.01647435 0.0004284605
0001f0 7a f0 17 bd ee d0 b0 3e 31 d0 66 be 75 3c b8 be
       -0.03709457 0.345344 -0.22540356 -0.35983625
000200 50 2d 26 be c5 89 ae 3e 77 e5 57 3d fb e3 73 3e
       -0.16228223 0.34089485 0.05270907 0.23817436
000210 ab c9 a7 3e c4 17 24 be 9c b8 c6 ba 5c be 32 3e
       0.32771048 -0.16024691 -0.0015161219 0.17455429
000220 15 a8 fb bd 26 4d bf 3c 8a 5c 8b 3d 8e c0 63 be
       -0.122879185 0.023352217 0.0680476 -0.22241423
000230 a5 0f f7 be bc 62 09 3c d8 04 9d 3d 85 7d 83 be
       -0.48254123 0.0083853565 0.076669395 -0.256817
000240 5b 94 a5 be 46 01 bd 3d 8d 3a 16 3e 35 6c 89 be
       -0.3233975 0.092287585 0.14670773 -0.26840368
000250 4b b9 e2 3e 6d 3c a2 3e a2 5e cc bd c3 be 06 3e
       0.44281992 0.31686726 -0.09978987 0.13158707
000260 26 78 bc 3d 05 ac c6 be c6 f3 8d 3e f7 f0 21 be
       0.09202604 -0.38803115 0.27725047 -0.15814577
000270 d1 2d 9f bc 42 55 8d 3e 0d ab 30 be 72 60 32 3d
       -0.019431027 0.2760411 -0.1725275 0.04354901
000280 fc 27 0e 3e da 2e bc 3d 3a 97 42 bd 79 6a 34 3e
       0.1388244 0.09188624 -0.047507502 0.17618741
000290 e6 70 28 be 3b 85 6a be 24 b0 b6 bd 2d 49 3b be
       -0.16449317 -0.22902386 -0.08920315 -0.18289633
0002a0 c2 8e 55 3d 1a 32 0f be 0d 86 b6 3d 9d 90 bb 3c
       0.052138098 -0.13983956 0.08912287 0.022896105
0002b0 cc bf 5a be ff 62 a3 3d 6d 20 3c be 9e 15 b1 3d
       -0.21362227 0.079778664 -0.18371744 0.08646701
0002c0 5a 97 77 bd 45 62 f3 bd 70 26 f1 bd be 97 22 3e
       -0.060447074 -0.11883978 -0.117749095 0.15878198
0002d0 35 35 cd bd fc 53 b0 3d f2 2c 2e 3e 18 90 b0 bd
       -0.10019914 0.08609769 0.17009333 -0.08621234
0002e0 df e2 01 3e c9 82 cf bd bd 9c 18 3c ed 40 0a 3d
       0.126842 -0.10132367 0.009314713 0.033753324
0002f0 84 db 0b 3e f6 98 da 3d 07 6f fd bd c2 95 dc bd
       0.13657957 0.10673706 -0.123746924 -0.107707515
000300 cf f3 9f be b7 85 26 bd f4 6a 6a 3c 23 0c 52 bd
       -0.312407 -0.040654864 0.014307726 -0.051281106
000310 83 f4 8e 3e 79 ea 5b bc f9 b9 e5 3b fe 8d 73 3e
       0.27920923 -0.013422602 0.007010695 0.23784634
000320 e7 09 4e 3d c7 38 6f be 06 d9 2c be 97 13 ae bd
       0.050302412 -0.23361503 -0.16879663 -0.0849983
000330 fb 73 f9 bc bf f8 84 3c 1a 23 8d 3e 9e 5d 87 bd
       -0.030450812 0.016231893 0.27565843 -0.06609653
000340 6a 5a 40 bd 44 8f 0c be 5a 7c e9 3e e4 a2 ac bd
       -0.046961226 -0.13726526 0.45602685 -0.084295064
000350 91 69 67 3e e5 bb 38 3e f9 14 7b be 4b 8e 55 3d
       0.22598864 0.18040426 -0.24519719 0.052137654
000360 6b da ac 3d 3f 03 a3 bc 03 5b ae bc 8f 06 20 be
       0.084400974 -0.019899009 -0.021283632 -0.15627502
000370 2d 4c 90 3e e6 92 6f 3e 65 a4 1a be e9 a6 64 be
       0.28183118 0.23395881 -0.15101774 -0.22329296
000380 9a 93 57 3e b9 e2 44 be 41 3f 4c 3b 66 a0 dc 3c
       0.210524 -0.19227113 0.0031165632 0.026931953
000390 4f a3 40 be 17 df 10 be a6 b8 27 be 4b 88 dc bd
       -0.18812297 -0.14147602 -0.16379032 -0.10768183
0003a0 6b 75 a9 3d b5 f1 c7 3d 0f b9 37 bd 3d 5f 75 3e
       0.08274349 0.09762899 -0.04485422 0.23962112
0003b0 b0 26 0c 3d 21 74 f3 3d 0a 7f 39 be 75 04 08 3b
       0.034216583 0.11887384 -0.18114868 0.002075461
0003c0 69 24 54 bd 32 5b d4 bc 3a 9b 5c be 84 10 43 be
       -0.051792536 -0.025922392 -0.21543589 -0.19049269
0003d0 f7 10 04 3d de ae 92 be 6b 73 b2 3e e4 d5 96 bc
       0.03224274 -0.28649038 0.34853682 -0.018412538
0003e0 ae 36 3d bd 8b c3 03 be 4e 40 9f 3d 94 4a 02 be
       -0.046194725 -0.12867562 0.07775937 -0.12723762
0003f0 65 e3 82 be 4b b4 39 be c5 d1 5d 3e d7 f5 f1 bb
       -0.25564113 -0.18135183 0.21662052 -0.0073840427

encoder.cell.W_f.bias f4 [256]
000000 63 a7 9e bc 19 eb 04 be 65 e2 0f bd 03 bb 0a be
       -0.019366926 -0.12980308 -0.035128016 -0.13547902
000010 68 74 05 bd 07 3a 47 3d 04 2b 31 be fd 48 38 be
       -0.032581717 0.048639324 -0.17301565 -0.17996593
000020 63 10 1e be 8a ba 80 3d e4 27 0c be a1 f5 79 bd
       -0.15435939 0.062855795 -0.13687092 -0.061025266
000030 5f 55 02 3e ab cc 38 bd b9 13 be bd 8a a6 59 bc
       0.12727879 -0.04511706 -0.092811055 -0.013284335
000040 4b e3 c4 3d 5f c1 4d 3e f0 6e 5d be 33 19 c3 3c
       0.09613665 0.20093296 -0.2162435 0.023815727
000050 ae 7f 14 3e 0e 3a b6 bc 41 54 12 bd ef 77 a0 3d
       0.14501831 -0.02224448 -0.035724882 0.078353755
000060 30 fe c4 bd af 2b 4d 3e 8e 2a a7 3d ca be b1 bd
       -0.09618795 0.20036195 0.081624135 -0.08678968
000070 2f 17 91 3d ee 28 45 be 51 6f 6e bc 18 f8 6a be
       0.070845 -0.19253895 -0.014552907 -0.22946203
000080 71 15 fd bd c1 08 76 3e 35 b3 56 3e 53 93 30 bd
       -0.12357605 0.24026777 0.209668 -0.04310925
000090 83 5f 59 bd fb b5 42 be 66 14 f9 bd a7 3f d2 3d
       -0.053069603 -0.19014733 -0.12162094 0.10266047
0000a0 25 36 98 3d f8 db e9 bd 07 8a 3c bc 9b 94 76 bd
       0.07432202 -0.11418909 -0.011507518 -0.060200315
0000b0 f6 a3 37 3d 0c 7c ae bb d1 3f 46 be e4 56 29 bd
       0.0448341 -0.005324846 -0.19360282 -0.04134263
0000c0 c2 45 22 be 37 97 0a 3e 0b 9a 4d bb 36 b7 75 3d
       -0.15846923 0.13534246 -0.0031372334 0.059989177
0000d0 20 f4 17 bd be f1 d8 bd 1e 4a cf 3d b6 f1 1f 3e
       -0.03709805 -0.10592984 0.101215586 0.15619549
0000e0 9b eb 99 3d 82 ea c6 bd 28 68 48 bd 59 17 12 3e
       0.07515641 -0.097126976 -0.048927456 0.14266719
0000f0 a2 82 13 be 40 17 04 3e 41 00 33 be 70 be 8f 3c
       -0.14405301 0.12899494 -0.17480566 0.017546862
000100 81 7e 4d be 8d 43 22 3e 89 55 cb 3d 47 d7 49 be
       -0.20067789 0.15846081 0.09928424 -0.19711028
000110 45 3e 2a be bf ea 9c 3b bf a3 7c 3e 8c 33 1d be
       -0.16625316 0.004788726 0.24671839 -0.15351695
000120 2f 8b 0f 3e 96 a1 95 3d 0b cc 96 bd 1e 61 13 3e
       0.14017938 0.07306211 -0.07363137 0.14392516
000130 56 00 e5 bc 3c fe 9d bd 3d 9d ef bd 66 fb d8 3c
       -0.027954262 -0.07714507 -0.11699913 0.026487064
000140 d2 78 00 bd ec fb 95 3d 71 eb 31 3e 85 cd 34 be
       -0.031365223 0.07323441 0.1737497 -0.17656524
000150 58 5d 31 3e 4d 4a 0f 3e d9 6a 46 3e 61 49 8f bd
       0.17320764 0.13993187 0.19376697 -0.06996418
000160 06 3b a3 3d ce c7 95 bd 2a 54 de bd 96 6f 50 3e
       0.07970242 -0.073135 -0.10855897 0.20355067
000170 ae 85 3a be 9e 9f 96 bc 81 73 aa bd 86 b7 85 3d
       -0.18215057 -0.018386658 -0.08322812 0.06529145
000180 dd 8c a4 bd 4c 86 b4 3d dd 9d 98 3d 87 5e 53 be
       -0.0803468 0.088146776 0.07451985 -0.20641528
000190 dc be be bd d5 d1 17 3e 11 07 c0 3b a0 cf c8 3d
       -0.09313747 0.14826138 0.0058602174 0.09805226
0001a0 2f 41 ac 3d 2f 3a 43 be 4c d6 6c 3e a2 a9 c7 3d
       0.0841087 -0.19065164 0.23128623 0.09749152
0001b0 a4 77 ae 3b 34 3b a5 3e b7 4a 4e 3d 8d e4 d6 3d
       0.005324321 0.3227173 0.050364222 0.10492811
0001c0 c1 08 9d 3c 07 93 11 be 01 f4 3f 3b db 93 8f bd
       0.019169213 -0.14216243 0.0029289725 -0.07010623
0001d0 6a bb 87 3d 76 78 83 bc 4e e9 cf bd 43 04 bb bd
       0.06627543 -0.016048651 -0.10151921 -0.09131672
0001e0 f7 06 93 3c 42 e7 0d be 79 6d 00 be 15 80 c3 bd
       0.017947657 -0.13857749 -0.1254176 -0.09545914
0001f0 be 85 39 be ee 67 91 bd 0e ec da 3b bc 3d cd 3d
       -0.18117425 -0.07099901 0.006680972 0.100215405
000200 4a 58 c1 3d 5b 7e 6b 3d 87 fa 39 be f8 91 31 bc
       0.09440668 0.05749355 -0.18161975 -0.010838024
000210 77 6e 44 3d 04 8d a7 bc 79 67 a4 bc 5c 0f cc bc
       0.04795691 -0.020452984 -0.02006887 -0.024909668
000220 1e d1 51 be 63 c7 24 3e 0d 48 67 be 0d ca 2c 3e
       -0.20489928 0.16091685 -0.22586079 0.16873951
000230 2b b1 9b 3c a0 3c e6 3c c1 6d 07 bd 93 49 02 3e
       0.019005379 0.02810508 -0.033063654 0.12723379
000240 5e f4 89 3c 3f f2 35 3e 45 a4 59 bd e0 c1 4a bd
       0.016840156 0.17768191 -0.053135175 -0.0495013
000250 ee 74 80 3c 5c e0 4f be 9b 88 bb 3d d1 7d 2f 3c
       0.015680756 -0.2030043 0.09156915 0.010711149
000260 17 bc 8d 3d b6 b6 5e bd 8c d1 ef 3d a3 4a 3d be
       0.06920641 -0.054373465 0.1170989 -0.18485503
000270 5a 59 1d 3e f0 3a 81 be b0 67 4d 3e 59 99 03 bd
       0.15366116 -0.25240278 0.20059085 -0.032128666
000280 df e1 43 3d f7 0d 60 be 53 1a f3 3b 7e 92 98 3b
       0.04782283 -0.21880327 0.0074189096 0.004656135
000290 49 75 31 3e a8 14 a3 3c fb e2 b0 be 33 5e cf bc
       0.17329897 0.01990731 -0.34548172 -0.025313472
0002a0 06 70 20 bd c7 b3 f6 3d 73 88 db 3d 62 b3 39 be
       -0.039169334 0.120460086 0.10719385 -0.18134835
0002b0 fb df e9 bd dd 32 08 bd 5f 77 32 be de 8e a5 3d
       -0.11419674 -0.033251632 -0.17428349 0.080838904
0002c0 5c 13 1c 3c 7b 80 d8 bd ba 1a ac 3d 58 c7 02 3e
       0.0095261 -0.10571381 0.08403535 0.12771356
0002d0 d1 db 47 3e ad 6a 13 3d 07 eb 39 be d7 74 55 bd
       0.19517447 0.035990406 -0.18156062 -0.05211338
0002e0 43 5f 26 be 02 3f 07 3e a0 fb b4 bd d9 c2 d1 3c
       -0.16247277 0.1320763 -0.08837056 0.025605606
0002f0 5c b9 15 be bf 90 8f bd af 5c d7 bd e3 7a af 3d
       -0.1462149 -0.0701003 -0.10515725 0.08568361
000300 66 45 4a be 00 73 72 3c ab eb 88 3d 32 d7 47 be
       -0.19753036 0.014797926 0.06685575 -0.19515684
000310 4a ef 95 bd d3 ba de 3d 47 2d 89 be 8d 5c 22 3e
       -0.073210314 0.10875478 -0.26792356 0.15855618
000320 9c 00 bc bc c3 d6 f7 3d be d1 57 bd 99 8e 0d be
       -0.02294951 0.121015094 -0.05269026 -0.13823928
000330 ae a2 95 3d c5 56 0b 3e fb 58 04 bd fa 93 e0 bc
       0.07306419 0.13607319 -0.03231142 -0.02741431
000340 9a 58 01 be 35 81 24 be 6a db 20 be 16 81 2c bd
       -0.12631455 -0.16064914 -0.157087 -0.042115293
000350 e4 e6 2f 3d 2a c4 8b 3d 85 3a 84 3c be 55 9d 3d
       0.042944804 0.06824525 0.016141186 0.0768237
000360 96 b1 bf 3c cc c4 78 bd 89 08 05 be e7 f9 cb 3c
       0.02340011 -0.060734555 -0.12991537 0.024899436
000370 1b 86 fc 3d a7 78 f0 3d 1d 57 f3 3b 6b a9 28 be
       0.12330266 0.117417626 0.007426156 -0.16470878
000380 11 21 d0 3d b6 94 53 bd 69 e2 70 3d 63 f1 3c bd
       0.10162557 -0.051655494 0.05880967 -0.04612864
000390 83 02 2a be e3 62 08 3e e7 5f c3 3d 4c 79 6b be
       -0.1660252 0.13318972 0.09539776 -0.2299549
0003a0 87 3f d2 3d 65 59 82 be 61 43 62 be 8f d9 1b 3e
       0.10266023 -0.25458828 -0.22096016 0.15219711
0003b0 da 60 2d bd 2a 7b 9c bd 35 c8 b6 bd 8f 08 8f 3d
       -0.042328693 -0.07640679 -0.08924905 0.06984054
0003c0 b0 32 15 3e 18 c3 f5 3d af 67 b7 3c 88 75 30 bc
       0.14570117 0.12000102 0.022388307 -0.010770209
0003d0 ba 2b 4a 3e 4d 76 27 3e 95 bf f0 bc 14 3d cd 3d
       0.19743243 0.16353722 -0.029388228 0.10021415
0003e0 94 39 95 3d 3f 98 26 be 6e cf e6 3b 0c 47 16 3e
       0.07286373 -0.16269015 0.0070437705 0.1467554
0003f0 08 65 6a 3c 0b 7a a1 bd 14 c8 c5 bd e7 b4 85 3d
       0.014306314 -0.07884606 -0.096573025 0.06528645
