ICTCS_notebooks/models/New_Tree_lstm_with_dropout.pth (torch, 778597 bytes, 12 tensors)

encoder.embedding.weight f4 [108, 32]
000000 00 00 00 00 00 00 00 00 00 00 00 00 00 00 00 00
       0.0 0.0 0.0 0.0
000010 00 00 00 00 00 00 00 00 00 00 00 00 00 00 00 00
       0.0 0.0 0.0 0.0
000020 00 00 00 00 00 00 00 00 00 00 00 00 00 00 00 00
       0.0 0.0 0.0 0.0
000030 00 00 00 00 00 00 00 00 00 00 00 00 00 00 00 00
       0.0 0.0 0.0 0.0
000040 00 00 00 00 00 00 00 00 00 00 00 00 00 00 00 00
       0.0 0.0 0.0 0.0
000050 00 00 00 00 00 00 00 00 00 00 00 00 00 00 00 00
       0.0 0.0 0.0 0.0
000060 00 00 00 00 00 00 00 00 00 00 00 00 00 00 00 00
       0.0 0.0 0.0 0.0
000070 00 00 00 00 00 00 00 00 00 00 00 00 00 00 00 00
       0.0 0.0 0.0 0.0
000080 c9 9d a3 bf 87 1c f1 bd 20 08 d9 bf 27 45 e0 3e
       -1.2782527 -0.11773019 -1.6955605 0.4380276
000090 b3 41 cd 3f 20 6c c3 3d d0 cf d1 be ed 49 a2 be
       1.6035675 0.095421076 -0.4097886 -0.31697026
0000a0 ec df f5 3f 58 ae 85 3e 29 9e cd bf 10 32 58 3e
       1.920896 0.26109576 -1.6063892 0.21112847
0000b0 78 5e 52 3e ac 9b 76 3f 80 af c7 3f 1c 99 fd be
       0.2054385 0.96331286 1.5600433 -0.49530876
0000c0 bf 65 1a 3f 46 17 50 3d b0 88 95 bf 5a 01 86 be
       0.603115 0.050803445 -1.1682339 -0.26172906
0000d0 ce a9 14 bf 69 e0 30 bf 92 c3 31 3e 5f 2d f2 bf
       -0.580716 -0.6909242 0.1735976 -1.8920096
0000e0 4d c7 b2 3f 1b 9f e8 be c7 10 5b bf 05 94 6e 3f
       1.3967072 -0.45433888 -0.85572475 0.9319461
0000f0 dd 69 8a bf 99 27 4d 3f 17 ca a7 3f 29 33 fb bf
       -1.0813557 0.80138546 1.3108548 -1.9624988
000100 7e cf 59 3e 2e 37 69 3e 5d 6d 13 c0 60 bc ae 3f
       0.21270558 0.22774956 -2.30355 1.3651237
000110 3e b6 0f 3f 7f f4 c5 3d 2b c9 4a 3f 1c 7a 6b bf
       0.56137455 0.096657746 0.7921321 -0.919832
000120 a6 89 19 bf e1 fd 28 be 25 2a e5 3e 6e e7 b9 be
       -0.5997566 -0.16503097 0.44758716 -0.3630938
000130 a4 82 8b 3e 5d d0 9e bf d7 42 db 3e dc aa ab 3f
       0.27248108 -1.2407337 0.42824432 1.3411517
000140 11 a1 01 3e bd 53 4f bf e6 22 a9 bf 57 7b 09 40
       0.12659098 -0.8098715 -1.3213775 2.148153
000150 c3 4c 35 3f b9 e3 cc 3e f1 52 11 bf 22 a3 f6 3e
       0.70820254 0.4001749 -0.56767184 0.48171335
000160 06 35 d1 3e 00 b2 2d 3f eb b8 65 bf 89 c8 5c bd
       0.40860766 0.6784973 -0.8973529 -0.053902183
000170 2c 81 13 3f 59 83 2f bf 04 e2 24 3f 3d f9 b2 bf
       0.57618976 -0.68559796 0.6440737 -1.3982311
000180 98 ac a2 bf be 26 99 bf a6 2a 8e be c6 8a 18 bf
       -1.2708921 -1.1964948 -0.27766913 -0.5958675
000190 1b e5 ad bf 33 1a 8f bf bb 64 f3 bf 95 3d 19 40
       -1.3585542 -1.117987 -1.9015115 2.3943837
0001a0 fb 67 29 bf 54 6a 0c 3f 93 96 79 bf bf 7a 61 be
       -0.66174287 0.54849744 -0.97495383 -0.2201948
0001b0 93 66 56 3f a1 93 23 3f 65 89 71 3f c6 7b 9c be
       0.83750266 0.6389714 0.9435027 -0.30563182
0001c0 24 6e 83 bf 29 dd 97 bf 65 fe 56 3f df 84 55 bf
       -1.0267987 -1.1864368 0.83981925 -0.8340587
0001d0 72 8c f9 3e 47 c6 30 3f 0f c4 9e 3e 1e 61 1f 40
       0.48739964 0.6905255 0.31008956 2.4903026
0001e0 27 ed 70 3f 9b 5b 03 3f 86 39 84 3e 3a 7e 10 c0
       0.94111866 0.51311654 0.25825137 -2.2577043
0001f0 57 a6 6e 3f 9b c9 42 bf fe 2a a9 be 50 ef e1 3f
       0.93222564 -0.76088876 -0.33040613 1.7651157
000200 89 09 1b be cc a8 d5 bf 80 ad 29 bf ce c2 35 3f
       -0.15140356 -1.6692138 -0.66280365 0.71000373
000210 a0 98 29 be 86 da 0e c0 cc ec 84 be 2c 20 70 bf
       -0.16562128 -2.2320876 -0.25961912 -0.9379909
000220 38 52 ad 3f 67 67 51 be 33 bd f8 be 35 62 26 bf
       1.3540716 -0.20449601 -0.48581848 -0.649936
000230 ff dd a1 3f d3 48 e5 3e b5 6c 8d 3d 3f 55 47 bf
       1.2645873 0.44782123 0.069055 -0.7786445
000240 70 28 e0 3f d0 4b 1b bf 70 0f 6b bf 82 f4 8a 3f
       1.751234 -0.60662556 -0.9182043 1.0855868
000250 ea 5f 1e bf 15 05 9a 3f 79 cb a2 3e 37 b3 9e 3e
       -0.61865103 1.2032801 0.31795862 0.30996105
000260 b8 d1 f8 3e 27 5d fa bf cd ee 28 40 db 9c 27 bf
       0.48597503 -1.9559678 2.6395752 -0.6547372
000270 60 a1 ae 3f 10 12 08 c0 56 a5 d9 3f 53 43 39 bf
       1.3642998 -2.1261024 1.7003582 -0.72368354
000280 c8 4b 25 3f a1 d1 a5 be ea 67 86 be 5c a8 90 3f
       0.6456876 -0.32386497 -0.26251155 1.1301379
000290 91 07 9f 3f 5c 72 9c bf 2c 61 8d 3f 70 bd 04 c0
       1.2424184 -1.22224 1.104528 -2.0740623
0002a0 2d 2f 28 bf 33 78 c6 bf 58 f7 e5 3f 7d 64 46 40
       -0.65696985 -1.5505432 1.7966108 3.0998833
0002b0 b1 b6 a9 3f a0 04 1c bf 93 19 e5 3f 19 9d 80 3e
       1.3258878 -0.6094456 1.789843 0.25119856
0002c0 06 32 57 bf 4e e6 b7 3e e4 ec 2a be 65 19 80 3f
       -0.84060705 0.35917896 -0.16691929 1.000775
0002d0 b4 b0 08 3f 13 91 88 3e 41 19 26 3d 58 01 28 3f
       0.5339463 0.26673183 0.040551428 0.6562705
0002e0 25 36 cb 3f c8 f9 17 3f 28 0f a7 3f ce ba 2c bf
       1.5875899 0.5936551 1.30515 -0.6747254
0002f0 b2 75 5a bf 43 62 a3 bf 7b 15 18 40 41 08 ee be
       -0.8533584 -1.2764362 2.376311 -0.46490672
000300 48 3c 69 3f 7a f9 9b bf bc 96 ef 3e 1d c1 df 3f
       0.91107607 -1.2185509 0.4679469 1.7480808
000310 5f d1 a9 3f 7a cd d0 be 55 03 82 3e 76 d2 d1 3f
       1.326702 -0.40781766 0.25393167 1.6392353
000320 92 6c 3c be ff cf 96 3f f4 6d cd bf 31 86 40 bd
       -0.18400791 1.1782225 -1.604918 -0.047002975
000330 4e 6b 35 bf b8 3c 0a bf fe 0c 70 3f d5 33 d0 be
       -0.7086686 -0.539989 0.93769825 -0.40664545
000340 81 47 d2 bf f8 e8 02 c0 d4 27 85 3e 30 ea b1 3f
       -1.6428071 -2.0454693 0.2600695 1.3899593
000350 5b b6 89 3f 08 e8 37 3f 1d 14 ea bf 91 87 04 bf
       1.0758775 0.71838427 -1.8287388 -0.5176936
000360 a1 f1 5d 40 13 e4 5c 3f 9a a8 b9 3f b8 fe b8 be
       3.4678729 0.86285514 1.4504578 -0.36131835
000370 4e 8a fc 3e b5 bb 0e bf ac 9a 91 bf 31 d7 4b 3f
       0.49324268 -0.5575517 -1.1375327 0.7962523
000380 5f d7 d3 bf cf 65 d8 be 1b e0 30 3f a5 ca 67 be
       -1.6550101 -0.42265174 0.6909196 -0.22635897
000390 50 5d 26 3f cd da 9c 3f 0e 65 01 40 46 38 f4 3d
       0.64986134 1.2254273 2.021793 0.11924796
0003a0 94 be 0b 3e 42 8d 96 bf 46 fa 62 bf dc e0 c5 bd
       0.13646919 -1.1761858 -0.88663137 -0.09662029
0003b0 d0 45 40 3f ec 69 3d bf 18 95 c4 bf 44 09 88 3f
       0.75106525 -0.7398975 -1.5358 1.0627828
0003c0 d8 4d 37 be a4 ee de bd db b8 67 3e 40 5d c1 3f
       -0.17900789 -0.10885361 0.2262911 1.5106583
0003d0 f8 99 bb 3f 21 76 c6 3f 08 41 94 bf d4 d2 0a bf
       1.4656363 1.55048 -1.1582346 -0.5422795
0003e0 e4 12 94 3f bb fc e3 3e 15 b3 5d 3f bf cd 50 bf
       1.1568265 0.44528756 0.8660138 -0.81563944
0003f0 85 ca 8b 3f 89 39 fc bf 30 af 22 be b8 11 d1 3e
       1.0921179 -1.9705058 -0.15887141 0.4083383

encoder.cell.W_iou.weight f4 [384, 32]
000000 71 36 0f bd 44 9d 49 be ba a9 01 be d2 3f 14 3e
       -0.03496403 -0.19688898 -0.12662402 0.1447747
000010 e3 0a e0 bd cc ff 10 3e 2d 6b f9 bd 7f 3f ec bd
       -0.109395765 0.14160079 -0.12178645 -0.115355484
000020 fa 1f b5 bd e0 1a 9a be 69 db 1d be de f4 5a 3e
       -0.0884399 -0.3009863 -0.1541573 0.21382472
000030 95 55 4e 3e 65 84 bf be 8f 4d 21 bd 75 8a e2 3a
       0.20149834 -0.37405697 -0.039380606 0.0017283695
000040 79 76 04 be a0 56 5f be 90 19 6d 3e 4d 85 18 3e
       -0.12935819 -0.21810389 0.23154283 0.148946
000050 a5 66 ed bd f2 2d 7f 3e 32 f9 5d be d7 80 42 3d
       -0.115918435 0.2491987 -0.21677092 0.047486152
000060 27 7f 56 3e 86 46 ee 3d a8 c2 44 3e 69 08 1a 3e
       0.20946942 0.11634545 0.1921488 0.1504227
000070 7a 1a 3f 3e cd c3 d0 be c8 a3 45 3d f0 52 9a bd
       0.18662444 -0.40774384 0.048251897 -0.0753535
000080 f0 db 36 3e bb 38 c2 3c dd de c4 3e 7c 31 fa 3d
       0.17857337 0.023708692 0.3845128 0.1221647
000090 42 40 37 3d 73 4f a2 bd 4f 82 9a bc 57 27 fc 3d
       0.044739015 -0.0792531 -0.018860964 0.12312191
0000a0 66 cc 9a bd a4 75 91 be 67 ed 0b be f5 5a ca bd
       -0.07558517 -0.28410065 -0.1366478 -0.0988063
0000b0 07 df 62 bd b6 ac 03 be ad 50 2d be 1e 66 f0 3d
       -0.055388477 -0.12858853 -0.16925307 0.11738227
0000c0 a4 28 e3 3d 17 6b 0f 3d ac ac a9 3e dc c1 12 3e
       0.11091736 0.03501424 0.3313955 0.14331764
0000d0 2e 1f 79 bd 24 ca 42 3e 2f 21 94 be 5c 02 cb 3d
       -0.06082075 0.19022423 -0.28931567 0.099125594
0000e0 41 1c a7 bd 5b 3a 72 3d 0d bc a4 3e d7 a0 c8 3e
       -0.08159686 0.059137683 0.3217472 0.3918521
0000f0 36 9f 7f be 9c 4a f1 3d 59 79 60 be 83 a5 91 3e
       -0.24963078 0.11781809 -0.2192129 0.28446588
000100 eb 67 11 3e ff 0b 54 be 23 60 4c 3d 02 54 5c bd
       0.14199798 -0.20707701 0.04989637 -0.053791054
000110 ed 42 f1 bc d9 fc 39 3e ab 68 a7 bd d8 dd 1f 3e
       -0.029450858 0.1816286 -0.08174261 0.1561197
000120 7d 4b 98 3e 6e 0d 9f be 30 4e c9 bc c8 30 ab be
       0.29745093 -0.31064934 -0.024573416 -0.33435655
000130 dd f9 ba 3c 94 d3 8d 3d 17 31 82 bc 86 21 fb 3d
       0.022824222 0.06925121 -0.015892548 0.122622535
000140 72 3a f2 3e 66 58 b7 bd 26 ad 06 be 47 c0 0f be
       0.47310215 -0.089524075 -0.13151988 -0.14038192
000150 6d ba 0f be f2 94 f1 bd df 8a 68 3e 65 b5 b2 be
       -0.1403596 -0.11795987 0.22709225 -0.34904018
000160 3a fc da bd 6b 62 a9 be 0f 46 84 be 6d 37 da 3e
       -0.1069264 -0.330829 -0.258347 0.42620412
000170 63 ca e8 be e2 d1 57 3e a0 25 9d 3d 2a 60 b2 bd
       -0.4546691 0.21076158 0.07673192 -0.08709748
000180 19 75 8f bd 7c 9e 40 3d dd 0e 94 3e b5 7c 6c bd
       -0.070047565 0.047026142 0.2891759 -0.057736117
000190 bc d8 63 bd e6 75 11 3e 84 c1 1f 3d 89 7f 6e 3d
       -0.055626616 0.14205131 0.03900291 0.058227096
0001a0 e3 37 5d 3e 3b ae 70 bd 39 ad 9d bc 45 05 35 be
       0.2160335 -0.05875991 -0.019247638 -0.17677791
0001b0 a1 b2 1b 3e 1d c6 c1 3e 30 e4 6a 3e 0e bb 67 3e
       0.1520486 0.3784646 0.22938609 0.2262995
0001c0 2b b1 84 bd 47 74 c6 be e7 ae 84 3b f5 fb 9f 3d
       -0.064791046 -0.38760588 0.0040491703 0.07811729
0001d0 5b 03 ae 3c 04 7d 81 3e ba 17 54 3e 67 7e 1a 3e
       0.021241834 0.25290692 0.20712176 0.15087281
0001e0 17 76 79 3e a8 56 2d be f3 54 cd 3e fb 29 13 3e
       0.24361454 -0.16927588 0.40103874 0.14371483
0001f0 cc bc 25 3e 7e a7 dc be d5 9c 3f 3e bb ab e2 3c
       0.16185302 -0.43096536 0.1871217 0.027669778
000200 bd 63 93 3d 89 60 77 be 75 22 67 3c 49 d1 bf bd
       0.07196758 -0.24157919 0.014107336 -0.0936609
000210 ed d1 40 3e 33 45 1b bd 06 94 74 3e 48 31 bf 3b
       0.1883008 -0.03790779 0.23884591 0.005834732
000220 79 50 65 3d d8 85 9b 3d 43 a9 09 be 86 fb bc 3c
       0.055984948 0.07593888 -0.13443474 0.023069154
000230 41 9b 0d bd 8b 61 8c bd ad 79 1c 3e c4 e5 84 be
       -0.03457189 -0.06854542 0.1528079 -0.25956547
000240 dd 72 94 3e cb 32 89 3e 7b 29 91 be fe 71 07 be
       0.28993884 0.26796564 -0.2835196 -0.13227078
000250 bf d3 dc 3b 55 56 b1 be 0b f0 7b be 45 e3 21 be
       0.0067391093 -0.3463618 -0.24603288 -0.15809353
000260 93 f2 ac 3e a5 29 e0 3d b7 f9 ba bc 2f bf 99 be
       0.3377882 0.10945443 -0.022824151 -0.30028674
000270 f0 69 86 bd 99 8f 2e 3e 4d 93 52 3e 72 05 39 bd
       -0.06563175 0.17046966 0.20564003 -0.04517121
000280 27 bf 82 3e 2c 11 d4 3b 2b e9 1f 3e 1c c2 ab bd
       0.25536463 0.0064717736 0.1561629 -0.08386633
000290 ec 1d 3c 3d c2 c8 c9 be 60 4b 12 3e 3e 4c 25 3e
       0.045926973 -0.3941098 0.14286566 0.16142365
0002a0 15 4a 7c 3e b0 28 6d 3d 99 f7 16 3e 2b 12 34 3e
       0.24637635 0.05790013 0.14742889 0.17585056
0002b0 84 be fc 3d 93 4f 60 3e 04 80 45 bd 5b 7d 5f bc
       0.123410255 0.21905355 -0.04821779 -0.013640727
0002c0 ea 55 8e be e7 60 35 be bc 69 83 3d b8 21 cf bd
       -0.27799922 -0.17712747 0.064166516 -0.10113853
0002d0 6b d5 ed 3d 28 42 7a 3d 82 65 7f 3c 8a f4 53 3e
       0.11612972 0.061098248 0.015588166 0.20698753
0002e0 65 5a 6d 3e a6 90 a4 3d 57 cc f3 3e 37 a8 c9 be
       0.23179014 0.08035402 0.47616836 -0.3938615
0002f0 30 7b 40 bc 09 07 09 be 2b 88 d0 bd 7d 0f 91 3e
       -0.01174812 -0.1338159 -0.10182222 0.2833213
000300 83 d3 80 3c dd b0 d7 39 8b 2d 04 3d 6e 07 c1 3d
       0.015725857 0.0004113977 0.032269996 0.09425245
000310 95 e9 39 be 72 a1 f6 3e c1 e1 9d 3b ba bd 38 be
       -0.1815551 0.48170048 0.0048181717 -0.18041125
000320 9e 6c 0e be 0f fc 9d be cc b6 00 be c3 39 30 3e
       -0.13908622 -0.30856368 -0.12569731 0.17209534
000330 20 ee 23 3e a4 ab 1f bf 2f cc 88 bd 9a b2 99 3d
       0.16008806 -0.6237128 -0.0667957 0.07504769
000340 af 36 d9 bd 59 64 46 3d 25 9b ad 3d 9a a1 f3 3d
       -0.10606133 0.048435543 0.08476857 0.118960574
000350 78 e5 5f 3d c9 61 c5 3e 6f 6c 49 3b ab 10 b4 3e
       0.054662198 0.38551167 0.0030734797 0.35168967
000360 3b fe be be fe 9b 0e 3e a9 e8 01 3e 39 4b b2 3e
       -0.37303337 0.13926694 0.12686409 0.34823015
000370 64 ff 39 3e 51 60 27 3e 87 51 07 3d b2 eb 34 3e
       0.1816383 0.16345336 0.033036735 0.17668036
000380 e6 91 32 be 3f 3f 3d 3e 39 9b 28 bd 6f 13 7a be
       -0.17438468 0.18481158 -0.041163657 -0.24421476
000390 f0 61 30 bb d7 27 85 bd 81 9c 09 3c 04 49 4f bd
       -0.0026913844 -0.065017395 0.00839913 -0.050606743
0003a0 5f 21 53 3e fd 11 1b 3d ef bf bb bd 9d 9e c3 bc
       0.20618199 0.03785895 -0.09167468 -0.023879344
0003b0 f0 20 4e be 7c 14 c3 3e 6c 14 a0 3c 1a b9 24 be
       -0.20129752 0.38101566 0.019540988 -0.16086236
0003c0 b4 66 b8 3d 56 69 0f be 50 2c 06 3e c1 1d 9d be
       0.09003964 -0.14005026 0.13102841 -0.30686763
0003d0 94 78 01 be 76 da 02 bf 60 3d dd 3d e1 db c9 be
       -0.12643653 -0.51114595 0.10802722 -0.39425567
0003e0 a0 7d a7 3e 81 84 55 3c 85 3d 06 be af 1d 24 bc
       0.32713032 0.01303208 -0.13109405 -0.010016843
0003f0 b0 aa c4 bd 79 07 cf 3c f9 40 d0 3d 3c 88 60 be
       -0.096028686 0.025272118 0.101686426 -0.2192697

encoder.cell.W_iou.bias f4 [384]
000000 a6 bf ac 3d b7 c1 23 bc ed 43 9d 3d 6b 9c 21 be
       0.084349915 -0.009994916 0.076789714 -0.15782325
000010 a9 14 cc 3c 91 55 1e bc b7 bb 47 bd 1a d3 51 be
       0.024912195 -0.009663955 -0.048763003 -0.20490685
000020 90 7b 89 bd 60 67 7c 3d 25 96 ba 3b 1c 12 4c bc
       -0.06713021 0.061622024 0.005694168 -0.0124554895
000030 4c cc 0a be 5b 08 a2 3c 36 3c 8e 3d bc 2a 40 3e
       -0.13554496 0.019779375 0.06945078 0.18766302
000040 ce 30 94 3e 76 13 59 3d 1a f8 84 3d 8b c7 27 3e
       0.28943485 0.052997075 0.06492634 0.16384713
000050 c6 a9 0b be a7 4f d4 bd be db 9f 3d 54 c5 64 be
       -0.13638982 -0.10366755 0.07805584 -0.223409
000060 3e 84 68 be 6f 39 cf 3d 19 53 aa 3d 2c ad 83 3d
       -0.22706696 0.101183765 0.08316631 0.06429514
000070 3f d1 24 3d 86 50 e5 ba 7c 9b 50 be 82 f2 bd 3d
       0.040238615 -0.0017495311 -0.20371813 0.0927477
000080 29 e1 90 bd 17 c2 a5 bd 0f 3b bb 3b 2f 78 bf bc
       -0.07074196 -0.0809366 0.0057138274 -0.023372738
000090 c7 fe 0c be bf 6d 46 3c 96 e6 9d bd 5a 8c 2c bd
       -0.13769065 0.012111126 -0.077099964 -0.042126037
0000a0 da 98 90 bd 16 12 82 be 43 de dd 3d d1 61 7e 3c
       -0.07060404 -0.25404423 0.10833409 0.015526251
0000b0 76 27 22 be 66 42 80 bd 8f d9 23 be a8 bd 7a bd
       -0.15835366 -0.062626645 -0.16000961 -0.061216027
0000c0 07 fd 1f be 19 6d 66 3e 2d ad d9 3c 25 c0 27 be
       -0.15623866 0.22502555 0.026571834 -0.16381891
0000d0 b7 38 24 bd f0 d9 47 3d d4 44 a3 bd 9d 56 b1 bd
       -0.04009315 0.048791826 -0.07972112 -0.08659098
0000e0 58 6f 84 be 1c 07 24 3e 2b 2c 04 bd 0b 46 70 be
       -0.258662 0.16018337 -0.032268684 -0.2346422
0000f0 f2 de 4f 3c 87 01 86 be e9 36 1f 3d 77 ac c2 bd
       0.012687432 -0.2617304 0.038870726 -0.09505551
000100 bc b1 8e 3c 41 ef 99 bd e0 33 8f 3c 88 0e c4 bd
       0.017418735 -0.07516337 0.01748079 -0.09573084
000110 18 5b cd 3d a1 5a 4a be 31 30 35 3d 5a 02 8f be
       0.100271404 -0.19761135 0.044235412 -0.27931482
000120 c5 fc b8 bc 81 bf 57 bd 0c b8 a2 3d 13 98 a8 bd
       -0.022581467 -0.052672867 0.079452604 -0.08232131
000130 b9 6e 57 be 4b 06 90 bd 40 96 2b 3d dd 63 d2 b9
       -0.21038331 -0.0703245 0.041891336 -0.00040128725
000140 e1 b9 17 be 4b af 13 bd e3 6f 9c bd 8c 49 67 bb
       -0.14817001 -0.036055844 -0.07638528 -0.003529164
000150 ac 6e b6 bd 68 e6 09 3d 03 53 c0 bd 17 d1 09 bd
       -0.08907828 0.033667 -0.09390833 -0.03364667
000160 0a 2f 9e bd f5 a6 c5 3c 21 96 97 bc 5b b9 30 3c
       -0.07723816 0.024127463 -0.018504204 0.01078638
000170 08 a2 b8 3d 35 65 9b 3d d6 71 0c 3e 33 98 28 bd
       0.0901528 0.07587663 0.137153 -0.041160773
000180 85 76 02 bc 2f e7 5b bc 13 48 96 bd 50 4b 28 3d
       -0.007962828 -0.013421818 -0.07337966 0.04108745
000190 58 5a 16 3d df 63 59 be 33 d7 17 bb db a4 9e 3d
       0.036707252 -0.21229504 -0.002316904 0.077462874
0001a0 e0 c0 5b 3d 25 f0 d1 bb 52 45 0d 3e 4d 75 00 3d
       0.053650737 -0.0064068013 0.13795975 0.031361867
0001b0 63 3a 83 be 04 50 4f 3e 33 86 64 be de 6b 1a be
       -0.25630483 0.20245367 -0.22316818 -0.1508021
0001c0 ae ff 26 be 3a e9 38 3d 10 42 0d bd c8 7b ec bd
       -0.16308472 0.045144297 -0.03448683 -0.11547047
0001d0 be c2 44 3d 11 c7 69 be 30 df b8 3d e2 fb 1e be
       0.048037283 -0.22829844 0.09026945 -0.15525773
0001e0 ef 8f 26 be d0 f1 a4 ba a6 07 44 be 33 88 ba bd
       -0.16265844 -0.0012584273 -0.19143543 -0.09108009
0001f0 35 be 0c be 3a 4c c6 3d 27 6e d9 bd 32 fc 06 be
       -0.13744433 0.09682508 -0.10616713 -0.13182142
000200 bd 24 a9 3d 13 d1 72 be d6 fc 78 be ce 20 c4 bc
       0.082589604 -0.23712568 -0.243152 -0.023941424
000210 9b d4 2f 3c fa 91 37 3c 6c 1a 1c 3c 61 10 89 3d
       0.010731841 0.011204237 0.009527784 0.06692577
000220 97 31 69 bd b5 db 4f 3d 85 14 ea 3c ba c8 3e 3e
       -0.05693206 0.05074664 0.028574238 0.18631259
000230 29 86 77 bd e7 49 63 ba 72 ea 30 be c2 7e 4b bc
       -0.06043068 -0.0008670375 -0.17276934 -0.012420358
000240 40 21 a4 3d 73 ce 1c be c5 ab 58 3e a4 45 2b bd
       0.080141544 -0.15313129 0.21159275 -0.04181446
000250 3c 65 5d 3d 89 72 18 bd 5e be a6 3d 37 c2 ad 3d
       0.054051623 -0.037218604 0.081417784 0.08484309
000260 b7 57 37 3e 8a a4 c5 bd 7f 5a 45 3e 59 1d 2c be
       0.17904554 -0.09650524 0.19272803 -0.1680807
000270 4f 5c 20 3e b8 40 55 3d cd 72 03 3e 1f ca ac 3d
       0.15660213 0.052063674 0.12836762 0.08436989
000280 7d 86 34 3b 85 f0 e1 bd dc e1 89 bd 57 c9 3b 3e
       0.0027545982 -0.110322036 -0.067325324 0.18338524
000290 e0 56 55 bd cf bf db bd 17 65 b5 3b 30 64 f2 3d
       -0.052084804 -0.10729944 0.0055357325 0.118355155
0002a0 d5 f7 f1 bd f5 ac 1a 3e 9b 46 31 3e 89 76 44 3e
       -0.11814848 0.1510504 0.1731209 0.19185843
0002b0 29 73 bd bd 87 07 5b bd 5d 84 4f 3d 84 1f 89 3e
       -0.09250481 -0.053473976 0.05066334 0.26781857
0002c0 cb 54 03 be 4f 12 ca 3d cd 6b 26 3e 8f bb 8e 3d
       -0.12825315 0.09866773 0.1625206 0.06969368
0002d0 e7 96 13 bc d7 22 31 be 82 39 07 3d 90 9b b1 3d
       -0.009008146 -0.17298447 0.033013828 0.08672249
0002e0 e4 f6 4a be de 3b 4b bc d5 4f f0 bc 1e c7 33 be
       -0.19820744 -0.01240441 -0.029334942 -0.17556426
0002f0 24 b3 33 3d 38 2a 84 bb cf 93 0c 3e c9 38 b2 bb
       0.043872014 -0.004033353 0.1372826 -0.005438898
000300 5b 89 d5 3d c6 1b 33 be 5b db e0 bd ad b1 f3 bd
       0.10426589 -0.17491063 -0.10979339 -0.11899123
000310 b8 d4 35 be 32 21 45 3e 36 65 af bd 5b fc 09 3e
       -0.17756927 0.19250944 -0.08564226 0.13475172
000320 95 c5 ba 39 83 f8 fb bd f4 73 38 be b4 6a bd 3d
       0.00035623895 -0.12303259 -0.18012983 0.09248868
000330 66 88 ed 3d de d2 06 3d f0 77 4f be 4d dd b0 3d
       0.115982816 0.032915942 -0.20260596 0.0863596
000340 d3 4f c7 3d ec f7 8c 3b 4b 0d 74 3e ca 3e 9b 3e
       0.09732022 0.0043020155 0.23833196 0.30321342
000350 32 36 ba 3a 3f 88 76 bd 2e 25 6e 3d ad ee 6d 3e
       0.0014206825 -0.06018853 0.058140926 0.23235579
000360 cc ff d7 bd e5 ae 25 3e 7b aa a8 bd 07 70 31 be
       -0.10546836 0.16179998 -0.082356416 -0.17327891
000370 d9 85 87 3e 73 1f 55 3d f3 05 c4 3c a5 88 4f 3e
       0.26469305 0.052031945 0.023928618 0.2026697
000380 85 be 7f be 46 1c 7f 3b 56 80 92 3d 7a d2 f9 bd
       -0.24975021 0.0038926764 0.071533844 -0.12198348
000390 c8 ad ca 3d 9d d6 84 3e 72 49 1f be 5e 27 52 3e
       0.098964274 0.25944987 -0.15555361 0.2052283
0003a0 cd 09 89 3e fc 1f d5 bd 20 c0 f3 bc 0c b2 f1 bd
       0.2676529 -0.10406491 -0.029754698 -0.11801538
0003b0 6b 2f ab bd 01 9b b4 3d d0 43 1f 3e 15 7c 90 bd
       -0.08358654 0.08818627 0.15553212 -0.07054917
0003c0 e3 59 e0 bb 6c a8 28 3e 2c b0 34 be 61 4f 53 3e
       -0.006846653 0.16470498 -0.17645329 0.2063575
0003d0 5d 4f 8c 3c a0 55 c9 bd 3e ef 19 3d bb 23 03 be
       0.017127687 -0.09830785 0.037581675 -0.12806599
0003e0 66 4d 38 bd f1 67 74 3e 3f 6d 39 3d 4c de e5 3c
       -0.044995688 0.23867775 0.0452702 0.028060101
0003f0 7e 25 2b be f9 a1 ba 3d ad f1 0e be e8 dc 1e 3e
       -0.16713521 0.09112925 -0.1395938 0.15513957

encoder.cell.U_iou.weight f4 [384, 256]
000000 68 1a 99 3d c6 21 8a bc ee a1 0b be e8 df 8d 3d
       0.0747574 -0.016861808 -0.1363599 0.06927472
000010 c4 9e 03 3c a8 5d 61 3d 48 a5 2d 3d 56 04 93 bd
       0.008033458 0.05502096 0.042393953 -0.071785614
000020 6c dc 26 3c 68 66 0c 3c 77 92 cf bd 44 84 1f be
       0.010184389 0.008569337 -0.10135358 -0.15577799
000030 0e 75 71 bd 0b 33 07 bd 9b 03 03 bd e4 9e 24 3e
       -0.058949523 -0.033007663 -0.03198586 0.16076237
000040 f8 98 26 be e6 d1 e7 bd 75 b3 28 3b 46 ee 58 3c
       -0.1626929 -0.11319332 0.002574173 0.013240403
000050 4c 38 1a be 44 6f 18 be 3f ae 56 bd e2 00 7a be
       -0.15060538 -0.14886194 -0.052412268 -0.244144
000060 13 b2 45 bd b0 92 26 bd 1a 93 94 3d 24 3d 2f be
       -0.048265528 -0.040667236 0.0725462 -0.17113167
000070 cd a1 06 bd 8c 41 d5 bd 3f c1 ce 3c 86 47 76 bc
       -0.03286915 -0.10412893 0.025238631 -0.015031701
000080 19 95 de bd 07 1a 09 be e5 52 80 3c f2 b6 1e 3c
       -0.10868282 -0.13388835 0.015664527 0.009687172
000090 94 61 3a be 9e d2 4e 3d a2 fa e8 bd 7f 6d 0e bc
       -0.18201286 0.05049383 -0.113759294 -0.008693098
0000a0 35 3b c8 bd 61 fe c7 bb 8c 62 db 3c dc 76 0e be
       -0.09776918 -0.0061033224 0.02678039 -0.13912529
0000b0 18 6e f0 bd 50 36 a6 be 8a b7 52 bc 89 c3 3b 3c
       -0.11739749 -0.32463312 -0.012861142 0.011460193
0000c0 9c 48 bd bd b9 20 83 be a6 67 37 3e 6e 10 db bd
       -0.09242365 -0.25610903 0.17910632 -0.10696493
0000d0 6e 7e 3d bd 13 e2 c4 3b 0b 81 6f 3d 71 c9 b2 bd
       -0.04626315 0.0060083955 0.058472674 -0.08729828
0000e0 34 ef 7d bd 49 dd 22 bc 77 33 26 be bd 0d 2a be
       -0.0619957 -0.009940454 -0.1623057 -0.16606803
0000f0 bb 46 2b bd 8f fc 1f bd 04 05 f9 3d 15 3d 74 bd
       -0.0418155 -0.039059218 0.1215916 -0.059628565
000100 a1 99 bb 3b 87 02 5a be c5 1a d4 3b 42 49 24 be
       0.005725101 -0.21290027 0.0064729177 -0.1604357
000110 58 17 9a be 3a f9 25 3d 13 d0 b3 3d 4c b3 55 be
       -0.30095935 0.040520884 0.087799214 -0.20869178
000120 f5 bd 3d 3d 81 06 21 3c 40 f6 19 be 85 33 35 be
       0.046323735 0.009828211 -0.15035343 -0.17695434
000130 c1 13 17 be c7 fd 81 3b c4 3e 70 be 27 0e 1e be
       -0.1475363 0.00396702 -0.23461443 -0.15435086
000140 14 92 39 3d 41 45 85 be 92 68 27 be 22 0e 19 bd
       0.045305327 -0.260294 -0.16348484 -0.037366994
000150 c9 e0 3c be b2 f4 ae 3d 6f d4 31 be 7a e7 8b bc
       -0.18445124 0.08542766 -0.17366193 -0.01707815
000160 b3 37 5d be 5c 37 90 3b ad 4b 3e be 11 47 33 be
       -0.21603279 0.0044011306 -0.18583556 -0.17507578
000170 17 68 21 3d a1 c3 2f 3d 92 7f b7 bd e2 47 1d 3d
       0.03940591 0.042911176 -0.08959879 0.03839863
000180 54 35 30 be fd 9e a1 bc 2e ac 20 bd c3 ba b9 bd
       -0.17207843 -0.019729132 -0.039226703 -0.09068825
000190 b2 f7 70 3d 2c f1 c7 bd 2e 23 0e be 41 9c f3 bd
       0.05882997 -0.09762797 -0.13880607 -0.118950374
0001a0 a2 1f 70 be 04 aa fa 3a ae d6 27 bd f2 dd 5a bd
       -0.23449567 0.0019124155 -0.04097622 -0.05343432
0001b0 0d d5 48 bd 62 ce 81 bd df b6 71 bd 34 b8 35 be
       -0.049031306 -0.063381925 -0.05901229 -0.17746049
0001c0 05 d6 dc 3d cf 78 61 3d 83 57 50 be be e6 2d bd
       0.107830085 0.055046853 -0.20345883 -0.04245638
0001d0 ad f8 60 be 9a 16 7c be fc 53 8d 3d 0c 59 b6 bc
       -0.21969862 -0.24617997 0.069007844 -0.022259258
0001e0 f6 af d1 bd 3f 55 ed bb 94 60 50 bd ee 03 03 bb
       -0.1023864 -0.007242828 -0.050873354 -0.0019991356
0001f0 a7 c6 20 be 04 4b 63 3c d5 ea 7d be 50 43 90 3d
       -0.1570078 0.013872866 -0.24796613 0.07044089
000200 02 09 ed 3d 4a b4 83 3c e1 19 27 be ef f9 f6 bc
       0.11573984 0.01607718 -0.16318466 -0.030148474
000210 45 90 ac bd 36 b5 e5 bd cb b4 c5 3c ef 94 9a bd
       -0.08425955 -0.11216204 0.02413406 -0.07547938
000220 8d 00 83 bd 19 18 0f bd 45 9c 29 bd c0 57 0d bb
       -0.063965894 -0.03493509 -0.041408796 -0.0021567196
000230 74 e5 4f bd e5 de 8c bd 7b 1f dc 3c 70 7b b7 3d
       -0.050755933 -0.06878451 0.02687048 0.08959091
000240 c5 e4 02 3d 2f 79 23 be c4 6b 45 bd 14 ee 0e 3d
       0.031956453 -0.15964197 -0.048198476 0.034895018
000250 ee 74 3c be 70 8b d1 3d 1e d6 3d be 96 ef 1c bd
       -0.1840398 0.10231674 -0.1853871 -0.038314424
000260 48 f0 c3 bc 3f 2d 08 be 32 38 18 be 90 2a 58 be
       -0.023918286 -0.1329851 -0.14865187 -0.21109986
000270 66 2a 7a 3b 36 ff 1d bd fa 72 c5 3c 14 8a db 3d
       0.0038172244 -0.038573466 0.024102677 0.10719696
000280 a2 a0 57 bd 9b af 4b be bd cc 42 be fa f2 6c 3e
       -0.052643426 -0.19891207 -0.19023414 0.23139563
000290 67 ad 14 be da 8f c1 bc 55 4a 80 3e 59 2b 2b 3e
       -0.14519273 -0.023628164 0.2505671 0.16715755
0002a0 18 c9 38 be 34 a9 4b bc 9f f8 1e be 69 5a 8d 3d
       -0.18045461 -0.012430478 -0.15524529 0.0690201
0002b0 e5 10 ca bd 9c d7 27 3e 61 c0 f6 3d e6 b2 9f 3d
       -0.098665036 0.16390842 0.12048412 0.07797794
0002c0 7f f3 6d be 0a 4b 88 bd ed f8 12 bd 10 3d 35 3d
       -0.23237418 -0.066549376 -0.035881925 0.044247687
0002d0 3e ee f8 3d 89 36 6c bd 70 88 10 3d 49 08 02 bd
       0.12154816 -0.057669196 0.035286367 -0.031746183
0002e0 a8 1f b6 bd 7e 96 f1 3d 30 5e 62 bd e2 34 52 be
       -0.08892757 0.11796282 -0.055265605 -0.20527986
0002f0 b4 34 7a bd 42 63 9e 3d df 7f 51 bd b7 d1 f7 bd
       -0.061085418 0.07733776 -0.051147338 -0.12100547
000300 eb 57 b4 bd 3a eb 76 bd af 3a c7 3d af b7 8f be
       -0.088058315 -0.060282923 0.0972799 -0.28069827
000310 95 49 a8 bd d1 e7 e6 bd 63 f0 20 bd d9 d7 19 3e
       -0.0821716 -0.11274684 -0.03929175 0.15023746
000320 c9 2f 9b bd f6 64 5e 3d 5d 73 70 be b4 dd 21 be
       -0.07577474 0.054295503 -0.23481508 -0.1580723
000330 69 43 d2 3d 29 c0 01 be c8 72 db bd a8 e3 b5 3d
       0.10266764 -0.1267096 -0.10715252 0.088813126
000340 f8 f3 cf 3d a2 67 54 3e 0a 8f da 3b 80 6c f7 3d
       0.10153955 0.20742658 0.0066698836 0.120812416
000350 f0 19 a4 bc 16 88 dd bd dd 68 63 3d 9d d0 6e be
       -0.0200319 -0.10816972 0.055519927 -0.23321767
000360 67 9b 73 be 29 9a 3d be f2 33 18 be a3 b5 21 be
       -0.2378975 -0.18515839 -0.14863566 -0.15791945
000370 3b 86 97 bd 80 31 49 bd 69 b5 40 3e 84 5f 4a 3d
       -0.07398649 -0.049119473 0.18819202 0.049407497
000380 17 43 36 3d 62 7f 03 be 6b 6f 17 bd 59 be 2f bd
       0.044497576 -0.12841561 -0.03697149 -0.04290614
000390 ac 40 61 3d 2a 89 e0 3d 0d e1 84 be de bf 98 3c
       0.054993317 0.10963662 -0.2595295 0.018646177
0003a0 ea af 4e 3e b4 ef ec 3d e3 3a 0e 3e b2 85 2f be
       0.20184293 0.11569157 0.13889651 -0.17140844
0003b0 ca 7a 27 be b5 40 ae bc b6 b5 08 be 31 ed 96 3d
       -0.16355434 -0.02127109 -0.13350567 0.073694594
0003c0 b2 05 0a bc a1 ea dc 3c 60 c7 3a be 57 7d 0c be
       -0.008424209 0.026967349 -0.18240118 -0.13719688
0003d0 b6 3b 9b 3c ee f8 cc bd 20 ad 90 bc 8b 1b ac bd
       0.01894937 -0.10008417 -0.017660677 -0.08403691
0003e0 84 ce 83 3e fc 23 c6 3d e8 9e 19 bd d0 9f dd bc
       0.25743496 0.09674832 -0.03750506 -0.027053744
0003f0 df d6 96 bd 14 6a 65 3c 52 05 28 be 69 08 0f bd
       -0.07365202 0.014002342 -0.1640828 -0.03492013

encoder.cell.U_iou.bias f4 [384]
000000 b5 3d 0a 3e c9 bb 91 bc f1 db 0d be 63 c5 5f bd
       0.13500102 -0.017789738 -0.13853432 -0.054631602
000010 cd 9b 35 3d 28 f7 4b bc 64 b8 d5 3d d7 c3 60 bd
       0.044338036 -0.012449063 0.1043556 -0.054874267
000020 0e 89 3b bd a3 7d a9 3d 6d 68 cc 3d 08 f3 27 be
       -0.045785002 0.082759164 0.09980855 -0.16401303
000030 6d f0 0c be 46 85 94 bd 62 5f 14 bd 4c 5e 84 3b
       -0.1376359 -0.072519824 -0.036223777 0.0040395614
000040 12 3d 17 3e 19 89 2d bd 3b 2c 80 3c 41 6e ee 3d
       0.1476939 -0.042367075 0.01564609 0.11642123
000050 44 1e 25 3b 0a 05 2e 3c bc 98 c3 bd 31 5b 79 bd
       0.0025195042 0.010621319 -0.09550616 -0.060877983
000060 92 cb 3b be e3 04 ee bc 95 4b 90 3d bd 3c af bd
       -0.18339375 -0.029055065 0.07045666 -0.08556507
000070 da 3b 04 3d b2 8b ca bd da ad b2 bd 38 cf 65 3d
       0.03228364 -0.09889926 -0.08724566 0.056105822
000080 b7 4a 84 3c 5a 4f 22 be d4 f5 9e bd 98 73 3e 3d
       0.016148908 -0.15850583 -0.07761732 0.046496958
000090 65 3a ba bd 5a 38 0c 3d 91 f6 d7 bd 80 ab 27 3c
       -0.09093169 0.03423343 -0.10545076 0.01023376
0000a0 a4 ad 2d be 4c 01 dc bd 20 10 77 3d 7d 8a f3 bd
       -0.1696077 -0.10742435 0.060318112 -0.11891649
0000b0 37 6b ac bd 8a a8 99 bd d5 46 54 bc bf 7e 19 bd
       -0.08418887 -0.075028494 -0.012956341 -0.03747439
0000c0 47 42 ec bd 30 1f 2b 3e d3 5d c7 3c 69 82 56 bd
       -0.11536079 0.16711116 0.024336731 -0.052370463
0000d0 30 49 0c 3d 65 4b 12 3d 4a 78 c9 bc 9a a0 67 bd
       0.034249485 0.035716433 -0.024593491 -0.056549646
0000e0 d2 e2 1e be d3 1f f1 3c cf 74 1b be 35 95 cc bd
       -0.15516213 0.02943412 -0.15181278 -0.099893965
0000f0 bb 42 18 be 9a 99 9e bd 72 1a 66 bd 29 55 72 3b
       -0.14869206 -0.07744141 -0.056177564 0.003697703
000100 6c 7b 2d bc 35 4e 92 bd af d1 20 bd 3c 9a b5 bd
       -0.010588508 -0.07143823 -0.03926247 -0.088673085
000110 54 97 09 bc 8e cf 9a bd 1e e9 9a 3d aa a8 24 be
       -0.008397896 -0.07559119 0.07563995 -0.16079965
000120 e5 2c b0 bd ce b9 03 3d dc e3 bb bd 51 17 ed bd
       -0.08602313 0.03215962 -0.0917432 -0.11576713
000130 93 f5 c4 bd 6b f5 d7 bd 99 6f 80 bd 95 0e 19 3d
       -0.09617152 -0.10544857 -0.062712856 0.037367422
000140 af 9f 17 bd bd db f1 bd f1 73 a9 3d f7 e7 d2 bc
       -0.03701752 -0.1180949 0.08274067 -0.025745375
000150 c2 46 0e bd 60 6d e5 bd 95 ef 02 bd db fb 79 3b
       -0.03473545 -0.11202502 -0.031966764 0.0038144502
000160 56 9f ec bd bc 83 de bd 30 e4 a4 bd 2a 66 e0 bd
       -0.115538284 -0.1086497 -0.08051336 -0.10956986
000170 c4 9c ef bd 9f 9b 83 3d a1 89 94 bd dd ab 4d bd
       -0.116998225 0.06426167 -0.07252813 -0.05021273
000180 9a ea 88 bb 05 c3 88 3c ea af 10 be 58 7c 82 bd
       -0.0041783573 0.016694555 -0.14129606 -0.06371373
000190 66 bf 8d bd 73 e6 39 be 2a 51 c3 bd c8 f0 1a 3e
       -0.06921272 -0.18154316 -0.09536965 0.15130913
0001a0 12 f1 1c 3e 05 d1 07 bd f1 5c 16 3c af 31 b5 bd
       0.15326336 -0.03315832 0.009177432 -0.08847367
0001b0 fc ae 2b be 74 fd 54 3e 1e 4a f5 bd 20 5d 8f bc
       -0.1676597 0.2079981 -0.11977027 -0.01750046
0001c0 c6 07 be 3c 71 e6 84 3c 30 a5 74 bd 91 cd f3 bd
       0.023197066 0.016223164 -0.059727848 -0.11904443
0001d0 ca df 9a bd 83 2f a0 bd 02 5a 64 3c 81 cb cc bd
       -0.075622156 -0.07821562 0.013937475 -0.09999753
0001e0 ed d8 db 3a 5b 7a db bc fa 99 36 be 62 3f b0 3d
       0.0016773023 -0.026791742 -0.17832175 0.08605839
0001f0 3c c1 a4 bc e1 b9 69 3d c0 42 d3 bd da 5b c9 bd
       -0.020111673 0.057062034 -0.10315466 -0.098319724
000200 8b 3e bc 3d bc 1b 2e bd 48 22 99 bd 62 49 a3 bd
       0.091916166 -0.04250692 -0.07477242 -0.07972981
000210 1c 93 24 3d eb df 8f 3d 98 a3 35 3d ca fd a5 bc
       0.040179357 0.07025131 0.04434547 -0.020262618
000220 18 ff 98 bd 41 b6 89 3d dc d5 10 3e 73 84 a3 3d
       -0.0747053 0.06724215 0.14144081 0.07984247
000230 2f 0e 91 3d 27 7c 25 bd 0a c2 67 bd d4 b4 d4 bc
       0.070827834 -0.040401604 -0.056581534 -0.025965132
000240 83 b3 e6 3d 3e 5c 4d bb 52 9b 08 3e dc 8e 2c bd
       0.11264708 -0.0031335498 0.133405 -0.04212843
000250 ff 2e 88 3d ca ac 7f bd 2d 32 0c 3c 99 5e 44 3d
       0.06649589 -0.062420644 0.008556885 0.047941778
000260 2c 39 76 3d 3c 31 94 3d 24 13 15 3d ab 0f 64 bd
       0.060113117 0.07235953 0.036395207 -0.055679005
000270 c8 85 34 3d ac bc 45 bd e8 54 c3 3c 8e 88 de 3d
       0.044072896 -0.048275635 0.023844197 0.108658895
000280 43 c9 14 3b 89 f7 84 3d 1d d5 52 bc 6c 87 08 3e
       0.002270297 0.06492526 -0.012868193 0.1333291
000290 9d 9f d3 bc e0 54 48 bd b5 65 ad 3d 6c 5a 28 3e
       -0.025832945 -0.048909068 0.08466665 0.16440743
0002a0 16 6c 44 bc 74 18 20 3c 11 26 8b 3d c2 bd 39 3e
       -0.01198866 0.009771455 0.0679437 0.18138793
0002b0 56 de 6c 3d cc e3 88 bc ae b1 13 3e 43 b4 4c 3e
       0.057829224 -0.016710185 0.14423248 0.1999064
0002c0 f0 f4 fa bb c6 e4 c7 3d bb 96 1d 3e 2c 41 04 be
       -0.0076585934 0.09760432 0.1538953 -0.12915486
0002d0 58 82 30 3e ef f4 75 bd 9e d3 11 3d ad 60 09 bd
       0.17237222 -0.06004804 0.035602205 -0.033539463
0002e0 82 c1 3b bd ea 7f 07 3d 66 9e c1 38 1b d6 12 bd
       -0.04583884 0.033080973 9.232461e-05 -0.035848718
0002f0 23 07 aa bd e9 bd 99 bd 16 67 26 3d 13 a6 b4 3d
       -0.083021425 -0.075069256 0.040625654 0.08820739
000300 19 65 97 bd 63 14 ee bd b4 d6 f0 ba 24 88 5e bd
       -0.0739233 -0.11624982 -0.0018374533 -0.054329053
000310 31 cc 0f 3c e3 31 fa bc b0 f8 1c 3d 07 3c 19 3e
       0.00877671 -0.030541366 0.038323104 0.14964305
000320 be a3 1d be b7 bd 6c bb 91 e6 22 bd c1 57 c5 bd
       -0.15394494 -0.003612382 -0.039770667 -0.09635878
000330 f2 d5 ef 3c 14 4a a7 bc ff 00 e4 3c e0 e7 5e bc
       0.029276822 -0.020421065 0.027832506 -0.013605088
000340 44 14 b9 bc e5 6d 98 3d d0 51 12 3e d9 c7 30 3e
       -0.022592671 0.07442836 0.14289021 0.17263736
000350 d2 45 da bc e6 36 5e 3c 7d 9a 21 3c 45 6c eb 3d
       -0.026644621 0.0135628935 0.009863493 0.1149526
000360 2f 3a 80 bd 55 48 6a bd 98 87 30 3c 77 6d f2 bc
       -0.06261098 -0.057197887 0.010774516 -0.029593213
000370 9d 4a 0e 3e c2 1c 07 3d 9b 7a 84 3c aa 01 ea 3d
       0.1389565 0.03298641 0.016171744 0.11426099
000380 fd f0 d0 bd fe dd e2 3c 47 45 3f bc ad 32 c0 bd
       -0.10202215 0.027693745 -0.011674232 -0.09384666
000390 d7 5d a7 bd b6 17 55 3e 30 ad 64 bd 30 e5 92 3e
       -0.081721954 0.20809826 -0.055829227 0.2869048
0003a0 ad 9e 05 3e d9 97 3b 3d dc c3 09 3d 88 14 e7 3c
       0.13048811 0.04579911 0.03363405 0.028208032
0003b0 c3 cd 69 3d 23 14 e2 3d 6d 60 88 3d d7 ee 97 bd
       0.057080995 0.11038997 0.06659017 -0.07418602
0003c0 90 24 20 3d cf a7 cc 3d 83 5a 31 bd 3d 25 07 3d
       0.03909737 0.099929444 -0.04329921 0.032994498
0003d0 e9 57 85 bd fa f6 c9 3c ee 5e ca 3d d7 2e 16 be
       -0.06510908 0.0246539 0.09881388 -0.14666305
0003e0 b2 92 84 bc 0e dd 4d 3d 3f bc 9f 3d 31 02 ce bb
       -0.016183231 0.050259642 0.07799577 -0.0062868823
0003f0 e7 1d 32 bd fd 76 87 bc d8 f0 b9 bc 65 d5 5a bd
       -0.04348555 -0.01653623 -0.022697851 -0.053426165

encoder.cell.W_f.weight f4 [256, 32]
000000 6a ac fa bc e0 f0 56 3d 71 07 9c 3c cc d8 da bc
       -0.030599792 0.05247581 0.019046517 -0.026714705
000010 c9 78 09 be ee 30 41 3e 69 25 85 3c 11 70 17 be
       -0.13424982 0.18866321 0.01625319 -0.14788844
000020 43 3d fd bd 51 fc ea 3d d2 d5 8d 3d bb 38 e4 bd
       -0.123652 0.11473907 0.069255486 -0.11143633
000030 2e e1 1b be 3a b2 76 be 0d e9 2c bd a8 84 e5 bd
       -0.15222618 -0.24091426 -0.042214442 -0.11206943
000040 07 2d 92 3d 36 1b aa bd fc 60 94 3e 60 00 b4 3d
       0.071374945 -0.08305971 0.28980243 0.08789134
000050 0e 93 92 3d a8 2a c5 3e e8 bc 0b 3e 3d 17 bc bd
       0.07156955 0.38509107 0.13646281 -0.0918412
000060 69 bd f4 bd fa 10 89 3e ab 2e 93 bd 7d 33 6b 3e
       -0.119501896 0.26770765 -0.071866356 0.2296886
000070 c6 bb 4d 3e d6 2a 4e bd 10 6d bd 3d 4a da d3 bd
       0.20091161 -0.05033382 0.09249318 -0.1034437
000080 9a c4 77 3c e3 54 03 3e 22 fd fe bd fb e3 26 3e
       0.015122557 0.1282535 -0.12450625 0.16297905
000090 c9 cb 14 3e de e4 03 3e d8 f5 79 be 4a c4 bf 3d
       0.14530863 0.12880275 -0.24410188 0.09363611
0000a0 44 7c c5 bd b4 bd 54 be 39 bc a0 bd 4e 74 e8 bd
       -0.096428424 -0.20775491 -0.078484006 -0.11350308
0000b0 63 d6 68 3e 12 49 b6 bd b4 a8 8e 3d bd a6 4a 3e
       0.22738032 -0.08900656 0.06965771 0.19790168
0000c0 ac c2 40 3c 04 66 18 3d 6a 8f f7 bb c8 b9 2f 3e
       0.011765163 0.037206665 -0.007554938 0.17160714
0000d0 2b 5c 2f bd b2 db 86 3e 2a de 4f bd e7 48 c1 3d
       -0.042812508 0.2633949 -0.05074898 0.09437733
0000e0 67 78 f6 3d d8 19 42 be 31 5a b0 3e 8c aa 95 3c
       0.12034684 -0.18955171 0.3444381 0.0182698
0000f0 13 46 6e 3c 9e d6 ab bd 7f 0c a3 3c 3d 43 ea bd
       0.014543074 -0.08390544 0.01990342 -0.11438606
000100 26 f9 c2 3d 93 81 8f bd 6f b6 a7 bd 9f 16 7b be
       0.095201775 -0.07007136 -0.08189093 -0.24520348
000110 41 f2 99 bd 8f c2 6a bd 47 61 07 bc 17 3d b3 3c
       -0.075169094 -0.05731445 -0.008262939 0.021879716
000120 98 9c 83 3d b4 cc c9 3e f5 4c 87 bb 9f b7 bc 3d
       0.06426352 0.3941399 -0.004129047 0.092147104
000130 35 66 a3 bc a5 55 f7 bc a3 ce 3f be ba 0a 9f be
       -0.019946197 -0.030192206 -0.1873117 -0.3106287
000140 3f e6 58 3d 0b c3 43 3e b5 3f ec ba e4 12 c4 3d
       0.052953955 0.19117372 -0.0018024357 0.095739156
000150 ea fd 53 3b ad ab f3 bd e5 2c 93 bd 70 c8 4d be
       0.003234739 -0.11897979 -0.07186297 -0.20095992
000160 b7 84 43 bd a9 b5 96 3e a5 37 ff be 47 c8 a8 be
       -0.04773399 0.2943547 -0.4984714 -0.329653
000170 2e 58 e4 3d 0d 72 df 3e f5 80 b6 be 46 5a a1 3d
       0.111496314 0.436417 -0.3564526 0.078785464
000180 47 71 89 bd a2 70 33 3d 12 63 53 bd 5c 41 f9 3d
       -0.06711059 0.043808587 -0.051608153 0.121706694
000190 5e 80 90 bd ac ee c5 be 65 60 65 be 82 64 6d bd
       -0.07055734 -0.38658655 -0.22400053 -0.05795718
0001a0 9a db 55 3e f0 84 03 bb 6f 38 fd 3d 45 9c d8 bd
       0.20884553 -0.002006825 0.123642795 -0.10576681
0001b0 27 96 6d 3d 51 80 bd 3e 85 26 54 3e d1 36 94 3e
       0.058004525 0.3701196 0.20717819 0.28948072
0001c0 2b 71 57 be 48 a7 1d 3d e5 8c 68 bd e7 04 29 be
       -0.21039264 0.03848961 -0.056774992 -0.16505776
0001d0 6b a1 b8 3d e5 6a 10 be 86 e8 b4 3e 02 21 8b 3d
       0.09015163 -0.14103277 0.3533365 0.06793405
0001e0 57 41 02 bd 21 0d 64 3e 36 35 3d 3e d6 fa 34 be
       -0.031800594 0.22270633 0.1847733 -0.17673811
0001f0 84 b8 40 be c7 f0 89 be 16 5a bb bd 9b e8 31 3c
       -0.18820387 -0.2694151 -0.09148042 0.01085868
000200 f4 9b b8 3e 5f bd af 3c 5f cd 96 bd a4 45 33 3d
       0.36056483 0.021452604 -0.0736339 0.043767586
000210 f0 b4 d9 3d 89 f2 a0 be 7c 81 6c 3e ee ee a0 3d
       0.10630214 -0.3143504 0.2309627 0.07858072
000220 fa d1 34 3e 36 c1 39 be 91 0a 16 be e2 e9 98 3d
       0.17658225 -0.1814011 -0.14652468 0.074664846
000230 2d 4b 28 be 06 9d 40 3e a8 c6 8a 3e 8b e3 c2 3e
       -0.16434927 0.188099 0.27104688 0.38064227
000240 97 ed 4b 3e b8 21 8b bd 73 46 ad be 06 b0 18 bd
       0.19914852 -0.06793541 -0.3384281 -0.037277244
000250 ef 13 d7 3c f2 1b 9a 3c 01 e1 57 3d 37 1c 98 bd
       0.026254622 0.018812153 0.052704815 -0.074272566
000260 9c e1 a9 3e c1 c3 64 be 7e ed c8 bc 0b d8 8a bc
       0.3317994 -0.22340299 -0.024527308 -0.01694872
000270 ad c6 dd be 85 e7 d5 bd 19 11 85 3d 3f cf 84 3d
       -0.4331564 -0.104445495 0.06497402 0.064848416
000280 70 96 5f be d2 1b f8 3d b5 4e db bc 9a e7 30 3e
       -0.21834731 0.12114681 -0.026770929 0.17275849
000290 70 e6 1e 3e 5e 96 31 3e 3f 00 81 3d fa dc 71 bd
       0.15517592 0.17342517 0.06298875 -0.05904863
0002a0 13 91 02 bd be 8e 99 be aa 3f 0e bd bd 6c ab bd
       -0.031876635 -0.29991716 -0.034728684 -0.083703496
0002b0 d7 19 7b bd c3 c6 32 be ae f1 b8 3d f8 f3 39 bd
       -0.06130394 -0.17458634 0.09030472 -0.045398682
0002c0 9c 28 5a 3e 5e d6 39 be 08 00 ca bc 40 0a 48 3d
       0.21304554 -0.18148181 -0.024658218 0.0488379
0002d0 1c e7 09 be 5c a5 2f 3e 0f dd 6b bd 69 40 02 3e
       -0.13467067 0.17152923 -0.057583865 0.12719883
0002e0 53 6a 5b be 86 41 02 3d d3 83 b8 3d 1d de 6e 3d
       -0.21427278 0.03180077 0.090095185 0.058317292
0002f0 8b 6a 2c 3e 32 66 a3 bd fc c2 35 3e b8 c6 81 be
       0.16837518 -0.079784766 0.17750162 -0.25346923
000300 17 c4 7c be 03 89 2c 3c 4b 02 16 3d af a7 ba bd
       -0.24684177 0.010530713 0.03662328 -0.09114014
000310 5c 18 db 39 0f 68 92 3e 78 e0 8d bd 1e d1 d4 be
       0.00041789084 0.28595015 -0.0692758 -0.41565794
000320 53 eb 6f be 0c 78 3e 3e 28 98 6d 3e 63 41 15 bd
       -0.23429613 0.18600482 0.23202574 -0.03643931
000330 30 32 28 3d ef 92 41 be c1 d1 c2 be 56 4a 39 be
       0.041063488 -0.18903707 -0.38050655 -0.18094763
000340 74 39 80 3d c2 63 e7 3d 3d 83 95 3e 97 93 aa be
       0.06260958 0.11298324 0.2920169 -0.33315727
000350 aa 53 83 3d ce 4c 8f 3e e4 50 87 3d ac 5c 99 3d
       0.06412442 0.27988285 0.066072255 0.07488379
000360 07 51 fe be ec 3b e3 3d c2 fd c2 3d 30 d1 4f 3c
       -0.49671194 0.110954136 0.09521057 0.0126841515
000370 3e 81 f7 3e 2f 0a 73 3e 90 5a dc bd 45 90 6a be
       0.4834079 0.23734353 -0.10759461 -0.22906597
000380 71 3c 35 3d 2c d9 41 bd 0b c4 dc bd 0b f7 37 3d
       0.044247095 -0.047326252 -0.1077958 0.044913333
000390 fe db 16 3d d1 09 8b 3d de ee b3 3d 99 e9 99 3c
       0.036830895 0.06788982 0.08785795 0.018788146
0003a0 50 e7 d5 3d 6b 8c 17 be ff 1f ea 3d 0c 6e f9 3d
       0.1044451 -0.14799659 0.11431884 0.12179193
0003b0 19 3e 20 3e 8d c5 7c 3b e8 39 f3 3d 34 21 7a 3e
       0.15648688 0.0038569898 0.11876279 0.24426728
0003c0 d7 ae 96 bd 3c 6c 10 be 3c 2f 56 bd c4 80 fe bd
       -0.07357567 -0.14103788 -0.05229114 -0.12426904
0003d0 b9 0c 00 3e 65 d6 9d b9 d5 3d fc bd 41 74 e0 3c
       0.12504853 -0.0003010511 -0.12316481 0.027399184
0003e0 cc f0 3b bd 2f 4e 9e bd c9 6e 58 3e da df 26 3e
       -0.04588394 -0.07729756 0.21136011 0.1629633
0003f0 3f 67 c9 bd f6 ba 70 be f4 b1 f9 3d 9e 05 23 be
       -0.09834146 -0.2350882 0.12192145 -0.15920112

encoder.cell.W_f.bias f4 [256]
000000 fa 03 6f bd ed 46 68 3d e8 5f d2 bd 73 72 9d bd
       -0.0583534 0.056708265 -0.10272199 -0.07687845
000010 2a 32 25 bb 39 7c ac 3d 42 08 86 bd f1 bb ac bd
       -0.0025206902 0.08422131 -0.06544544 -0.084342845
000020 51 73 f8 3c fd 29 0b 3e 40 eb 73 bd ed e0 34 be
       0.030328425 0.13590236 -0.059550524 -0.17663927
000030 91 1f 2f 3e b5 c2 b7 3d c5 45 4f 3e 9e 06 e4 bd
       0.17101885 0.08972684 0.20241459 -0.11134075
000040 a3 b2 46 be f6 f7 27 3e 81 0d 3e 3d fc b8 ac 3d
       -0.19404082 0.16403183 0.046399597 0.084337205
000050 24 89 56 3e c0 93 35 bc a5 07 38 be 10 70 65 bc
       0.20950752 -0.01108259 -0.17971666 -0.014003769
000060 8a 09 52 be 46 af 4f be 5c da d0 bc 4a 48 09 be
       -0.20511451 -0.20281705 -0.025494747 -0.13406482
000070 53 72 af bd aa 59 bc 3c ab db a9 bd 73 2e 39 bd
       -0.085667275 0.022991974 -0.082938515 -0.045210313
000080 ad 87 ad 3d 77 bf ca bd 38 02 73 3e 37 f7 d2 bd
       0.08473144 -0.098998 0.23731315 -0.10301059
000090 28 2e 09 bd fd 0a ef 3d 7a a6 33 be f7 9d 3d bd
       -0.033491284 0.11672018 -0.17543975 -0.046293225
0000a0 ca 49 03 be aa 8a b7 3d ac a6 98 bd bf 5d 67 bc
       -0.12821117 0.08961995 -0.07453665 -0.014121472
0000b0 3c 32 7e bd c7 3c 21 be b7 3d 81 3d 92 f2 2e bd
       -0.062059626 -0.15745841 0.06310599 -0.0427118
0000c0 22 2b 00 bc 22 67 de bd 0b c4 04 3c 34 f2 c6 3d
       -0.007822784 -0.10859515 0.008103381 0.09714165
0000d0 a0 74 83 3d 02 64 01 3e aa 58 9e 3b 01 68 08 be
       0.06418729 0.12635806 0.004832347 -0.13320924
0000e0 b5 69 8f bc 5e 7d 8a 3e 6d 0f e6 bd 4f 0e 49 3c
       -0.01750646 0.27048773 -0.11233411 0.012271478
0000f0 84 29 96 3d c8 8c b5 3d 7f 0e bd bd fe 29 31 3e
       0.07332137 0.088647425 -0.092312805 0.17301175
000100 7d 5b 00 3e a4 34 c4 3d 6c 3e 65 be c9 95 bc bd
       0.125349 0.09580353 -0.22387093 -0.09208257
000110 6a 54 37 3e 2a de 30 3c 7c a3 62 bd ce 1f 01 be
       0.17903295 0.010795156 -0.055331692 -0.12609789
000120 cf 92 07 be 09 19 13 bd 22 d1 08 3e 6b 34 75 3e
       -0.13239597 -0.035912547 0.13361028 0.23945777
000130 ae 48 46 be e1 5b 08 3e 82 b9 a9 bd 6e f5 d2 3d
       -0.19363663 0.13316299 -0.08287336 0.10300718
000140 c7 11 2c be 3e 96 ea bd 2b a9 29 be f9 ba ca bd
       -0.16803657 -0.11454438 -0.16568439 -0.098989435
000150 95 d9 84 3d c8 a1 3a 3c e9 43 8b bb 04 5c c2 3d
       0.06486813 0.011391111 -0.004250039 0.09490207
000160 af e7 33 bd bc 7b 1f bd 89 6e 20 be af b6 80 3c
       -0.043922123 -0.03893636 -0.15667166 0.01571211
000170 31 16 4b 3c 9e 84 ee 3d cf a6 f3 bb 6b d4 11 3e
       0.012395428 0.116463885 -0.0074356566 0.14241187
000180 26 96 af bd db 8f 42 3d 99 98 50 bc 11 f6 d1 3d
       -0.085735604 0.047500473 -0.012731695 0.102520116
000190 e6 71 47 bd a3 7b e3 3c f4 97 9a 3c 74 e3 eb bd
       -0.048692606 0.027768916 0.018871285 -0.115179926
0001a0 65 92 1e be eb 3e 38 3e 71 54 10 3e cd 7c 23 be
       -0.15485533 0.17992751 0.14094712 -0.15965576
0001b0 64 f0 19 3e 48 df 88 3c e1 eb 63 3d 27 c2 d8 3d
       0.15033108 0.016708031 0.055644874 0.105839066
0001c0 7d 9c 27 3e 56 b5 e5 3c c6 b0 75 3e 65 ea 0e 3e
       0.1636829 0.02804057 0.23993215 0.13956602
0001d0 dc b5 ef 3d 47 e9 c2 bc 8b 97 5a 3e d5 28 8d 3d
       0.11704609 -0.023792876 0.21346872 0.06892554
0001e0 88 87 88 3c 27 cc 22 3e 53 2e b8 3d d9 8f e8 3d
       0.016666189 0.1589819 0.08993211 0.11355562
0001f0 3f 37 33 3e 17 96 c4 3d 73 03 17 3d d6 67 bd bd
       0.17501543 0.0959894 0.036868524 -0.09248321
000200 35 97 c4 3c 80 13 4d 3d 45 2b 12 3e 8e 92 42 be
       0.023997882 0.050067425 0.14274319 -0.19001219
000210 7c 35 86 bc 01 49 c6 3c 8b f3 b8 3d 68 f4 16 be
       -0.016382925 0.024204733 0.09030827 -0.14741671
000220 fe 67 8b bc 1f e7 3d be 2e 41 ab 3d 18 d6 97 3d
       -0.01701736 -0.18545197 0.083620414 0.07413882
000230 a6 71 f2 3d 37 07 19 3d 0c 59 fa bc 37 bf dc 3c
       0.11838083 0.037360396 -0.030560039 0.026946647
000240 ea 8f 10 be bc 08 78 be 77 43 35 be 6d 99 66 3e
       -0.14117399 -0.24222082 -0.17701517 0.22519465
000250 79 a4 38 3e e2 67 a5 3d cd db 99 3d 47 90 a7 bd
       0.18031491 0.08076455 0.07512627 -0.081818156
000260 c4 af e1 3b c4 0b 52 be 23 6b a9 bd f9 7e 44 3c
       0.006887408 -0.205123 -0.08272388 0.011993163
000270 79 14 17 3c e7 9d 26 be 13 43 d9 3d 33 09 81 3d
       0.00922119 -0.16271172 0.106084965 0.06300583
000280 b3 2f 57 be 23 a9 30 3e 3a 50 9b 3d e1 88 89 bd
       -0.2101429 0.1725202 0.075836614 -0.06715561
000290 5f 17 09 bd 58 0b a0 ba 04 47 b1 3d ed b2 d2 bd
       -0.033469554 -0.0012210412 0.08656123 -0.10288034
0002a0 10 4b b6 3d 79 4e a0 bd ce 96 2b bd 00 20 cb bd
       0.08901036 -0.078274675 -0.041891865 -0.09918213
0002b0 06 5f 2a 3e 73 6d b2 3c 3a 5a 2e 3e 4b c0 46 3e
       0.16637811 0.021780705 0.17026606 0.19409291
0002c0 f3 1d 23 be dc 73 a2 bd cc 9a 48 be 54 e8 24 3e
       -0.15929393 -0.07932255 -0.195903 0.16104251
0002d0 57 3d d1 3d 3a f8 35 3e 07 eb 8a 3d 17 ae 3f 3e
       0.10216778 0.17770472 0.06783109 0.18718754
0002e0 d5 de bf bd af 14 06 be f6 ab 4a be 8b e0 10 be
       -0.09368674 -0.13093828 -0.1979216 -0.14148156
0002f0 d7 89 cd bd 46 20 02 3e 02 6c 5f 3e 90 81 ce bd
       -0.100360565 0.12707624 0.21818545 -0.10083306
000300 ea 79 98 bd 85 1e 17 3e 51 3b d3 bd 76 a9 2f bd
       -0.07445128 0.14757736 -0.10314048 -0.04288622
000310 b7 ec 3f 3e 6e c4 f8 3d 4a 52 fb bb af 59 80 3c
       0.18742643 0.12146841 -0.0076697217 0.015667764
000320 14 7a 1b be ce ec 12 3c 9f 7f 64 3a d3 2e 5b be
       -0.15183288 0.008967591 0.0008716527 -0.21404581
000330 27 4b 71 be c5 97 a5 3d 20 bb 02 be 0b 81 c3 3c
       -0.23563825 0.08085588 -0.12766695 0.023865243
000340 f3 52 c3 bd 86 19 07 3e 62 a2 4f be 8f 13 0e 3d
       -0.09537306 0.1319333 -0.20276788 0.03468662
000350 c7 b6 00 3d c5 f6 b9 3c 42 a6 0c 3e 61 14 81 bc
       0.03142431 0.022700677 0.13735297 -0.015756788
000360 90 41 06 be 3b 5f 4e bd a9 0d 00 3e a2 cf 28 bd
       -0.13110948 -0.050383788 0.12505211 -0.04121364
000370 52 93 bf 3d 8a 43 2c bd 39 68 d7 3d f0 88 d6 bd
       0.09354271 -0.042056598 0.10517926 -0.104753375
000380 0c 3e 0d be 2e b1 5d be 03 0f 9e 3d fd 41 b0 3c
       -0.137932 -0.2164962 0.07717707 0.02151584
000390 48 1e 4f bd 21 0f 81 bd b8 07 c4 38 2a ce 3b 3d
       -0.050565988 -0.06301714 9.347446e-05 0.04585091
0003a0 39 f3 03 bd 0d 40 33 be 14 f6 29 bc 63 dd 2d bd
       -0.032214377 -0.17504902 -0.010373611 -0.04244746
0003b0 d9 6c 7a 3b 87 b4 26 3d 43 fc 81 3d 9c 49 a3 bd
       0.003821185 0.040699508 0.06346943 -0.07973024
0003c0 ea 73 8f bd 65 93 05 bc 02 5e 1e be e4 f5 cc 3d
       -0.07004531 -0.008152817 -0.15465549 0.100078374
0003d0 f5 67 82 bd 4e d4 44 be 39 ac e7 bd 8d ea 1c bd
       -0.063674845 -0.19221613 -0.11312146 -0.038309623
0003e0 2a 50 62 3e d3 fc 0c be fb e4 04 be 14 66 12 be
       0.22100893 -0.1376832 -0.12977974 -0.14296752
0003f0 5d c0 9f bd cc 11 04 3e 85 88 04 be 00 f7 d9 3b
       -0.07800362 0.12897414 -0.12942703 0.006651759
