ICTCS_notebooks/models/New_Tree_lstm_without_dropout.pth (torch, 778654 bytes, 12 tensors)

encoder.embedding.weight f4 [108, 32]
00000000: 0000 0000 0000 0000 0000 0000 0000 0000
00000010: 0000 0000 0000 0000 0000 0000 0000 0000
00000020: 0000 0000 0000 0000 0000 0000 0000 0000
00000030: 0000 0000 0000 0000 0000 0000 0000 0000
00000040: 0000 0000 0000 0000 0000 0000 0000 0000
00000050: 0000 0000 0000 0000 0000 0000 0000 0000
00000060: 0000 0000 0000 0000 0000 0000 0000 0000
00000070: 0000 0000 0000 0000 0000 0000 0000 0000
00000080: 6e62 6dbf e037 493f 75bf 763f f7a2 efbb
00000090: 3a9b 87bf 9c1d 77bf 8e29 26c0 e25f 61bf
000000a0: d3c2 b93e 6c2c a9bd 8777 63bf 6721 283f
000000b0: e8ad 973e 7e00 323e 5d5d 9bbf 2431 58bf
000000c0: 1753 17bd 3051 383d 0528 8f3d 0240 383e
000000d0: e6bd abbf 475d 90bf fa05 4a3f a31b 9b3f
000000e0: fa6d cf3f 995b 573f c9d9 16bf 2455 b2be
000000f0: ad25 9a3f 62c7 77bf b39b 69bf 3451 babf
00000100: 8646 913f 1a6a 143f 5bb1 20bf 1628 d93e
00000110: e33d ebbf aa60 9abe 34e9 21be 10bd 993f
00000120: 17cb aebe 997e e9bf 294f afbe 8c10 87bf
00000130: 0ae0 d8be 08e7 b9bf 0933 ff3e 660c 193e
00000140: eccc babe 4b4a 5bbf eea2 903f 1ab5 643f
00000150: 3c0e d03f a0b1 00bf a14f 723e 470b f93f
00000160: 6c17 c0bd 0374 7c3f ec37 c83e 5a00 123f
00000170: dd1e e73e 369e 8b3f 79f0 32bf cbcf 43be
00000180: 4413 f5be 8281 cd3e 6649 0fbe fdd9 a13d
00000190: 189d 53be b1da 713f 8002 1c3f e86c a3be
000001a0: 97dd a03f d429 db3c 2789 71be ce6b 043f
000001b0: e9fb 333f 5227 50bf 30a6 5f3d 8f3e c9bf
000001c0: fc03 143f 23fb 4b3f 0614 af3f b43d 833f
000001d0: 9fb1 28bf 0310 c03f c7e6 0ebf e2f1 99bf
000001e0: e23b 0abf d50d 87bf d90b aabf fbb9 173f
000001f0: dcdd ab3e 66a5 9cbe 7a43 c3bf d67a 983f
00000200: 7f69 153f 77f4 9e3f 1fc7 35be d416 8a3f
00000210: e985 803f 9608 c43f 6311 06be 6b71 a93f
00000220: 41ca 113f 07b7 3dbe 56db bfbf bc54 01bf
00000230: a81c 643f efd7 1740 f5e0 1b3f 939f 783f
00000240: f4a6 81bf 69e8 fa3f 3d77 6d3f af24 a23e
00000250: 8ea4 e3be 59e1 97bd 7ab8 d03d 7453 0abf
00000260: 6359 b43f 7db9 05c0 ea68 dbbe d3de 0640
00000270: b9f5 213f be89 a6bf 3c6b 623f c4f0 96bf
00000280: 3b78 333d e3c5 3fbf f21b 0cbf 4902 913f
00000290: a052 833f c9c7 18bf 9ddf aebf 4cec d73d
000002a0: 63b2 11be c6ef f3bf 1cb3 3d3d 60bb 73bf
000002b0: 3742 65bf 3b15 32bf 752e b7be 71e5 9e3e
000002c0: e8dc 79bf 5960 193e 9ea3 f13f 4255 d83e
000002d0: 1e83 b3bf b1c6 3dbf 9f51 b1bf cc42 62c0
000002e0: c644 eabf 6450 debe 3348 c03f f1fd ac3e
000002f0: 207a 0a3f f0cc 833f 116b 793e 3bf6 e63e
00000300: 170a 1d40 e026 34bf 5f87 863d ba82 6f3f
00000310: 5852 273f 1017 bdbe 3e88 9a3f ae9a 363f
00000320: 375f 68be c816 14bf 7a5d aabd 44a9 1d3f
00000330: 077c c93f 61f0 fc3e 6ba9 03bf 3c80 633f
00000340: 562a 833f 1510 aabe 737f da3e 1083 c9be
00000350: 9230 87bf 794d 2f3f d3b7 a93f 7eae 6f3f
00000360: 2f74 163f 6d0f 9dbe dac8 8f3f 0a81 09bf
00000370: 4494 e9bf f72d 9abf e05d debf d613 2f3d
00000380: 7790 f53f 684f 643f 9e99 f23f da9e 0f3e
00000390: 3a90 ee3e 96bc 1a3f 934d 803f eae7 3d3f
000003a0: 30f8 e9be d856 83be c1b2 e1bf 6616 2bbf
000003b0: 8b0f 59bf b50c 69be f36e e5bf 8457 40bf
000003c0: c9e0 ec3d 2ce2 953f 6b32 75be f612 22bf
000003d0: da9e 9cbf e792 28bf 396c 1540 aa55 06c0
000003e0: 8ce1 02c0 5a19 0d40 4ee9 c23f 9fc9 46be
000003f0: 7ae2 69bf 303d 863e fc79 14c0 81fb 2a3f
0.0 0.0 0.0 0.0 0.0 0.0 0.0 0.0
0.0 0.0 0.0 0.0 0.0 0.0 0.0 0.0
0.0 0.0 0.0 0.0 0.0 0.0 0.0 0.0
0.0 0.0 0.0 0.0 0.0 0.0 0.0 0.0
-0.92728317 0.78600883 0.9638589 -0.007313128 -1.0594246 -0.96529555 -2.5962863 -0.8803693
0.36281452 -0.08260426 -0.8885426 0.6567597 0.29624867 0.17383 -1.2137867 -0.8444998
-0.036944475 0.0449993 0.06990055 0.17993167 -1.3417327 -1.1278466 0.7891537 1.2117809
1.6205437 0.8412414 -0.58926064 -0.34830582 1.2042748 -0.9678861 -0.91253203 -1.4556031
1.1349647 0.579744 -0.6277062 0.42413396 -1.8378261 -0.30151874 -0.15811616 1.2010822
-0.3413932 -1.824176 -0.34240082 -1.0551925 -0.42358428 -1.452363 0.49843624 0.14946136
-0.36484468 -0.8566024 1.1299722 0.8933884 1.6254344 -0.50271034 0.23663189 1.9456567
-0.09379467 0.9861452 0.39105165 0.57031786 0.45140734 1.0907657 -0.6989818 -0.19122235
-0.4786626 0.4013787 -0.13992843 0.07902906 -0.20665395 0.9447432 0.60941315 -0.31919026
1.2567624 0.026753344 -0.23587476 0.51726997 0.7030626 -0.8131 0.054601848 -1.5722216
0.5781858 0.7968008 1.3677986 1.0253205 -0.6589603 1.5004886 -0.5582089 -1.2026942
-0.53997624 -1.0551096 -1.3284866 0.5926816 0.33567703 -0.3059494 -1.5254967 1.1912487
0.583641 1.2418355 -0.1775174 1.0788217 1.0040866 1.531512 -0.1309257 1.3237737
0.5694924 -0.1852685 -1.4988811 -0.5051992 0.89106226 2.3725545 0.6089013 0.9711849
-1.0129075 1.9602176 0.9276007 0.31668612 -0.44461483 -0.074160285 0.10191436 -0.5403359
1.4089779 -2.0894463 -0.4285348 2.10735 0.6326557 -1.3010786 0.88444877 -1.1792226
0.043815833 -0.74911326 -0.5473014 1.1328822 1.025959 -0.5967985 -1.3661991 0.10543117
-0.14228205 -1.9057548 0.04631339 -0.95207787 -0.8955416 -0.69563645 -0.3577763 0.31034425
-0.976027 0.1497816 1.8878057 0.42252547 -1.4024389 -0.74131304 -1.3853034 -3.535327
-1.8302238 -0.43420708 1.5022033 0.33787492 0.540926 1.0296917 0.24357249 0.45109734
2.4537408 -0.7037182 0.06568789 0.9355885 0.6536002 -0.36931658 1.2072828 0.7132977
-0.22692572 -0.5784726 -0.083186105 0.61586404 1.5740975 0.49402145 -0.51430386 0.88867545
1.0247295 -0.33215395 0.4267536 -0.39357805 -1.0561697 0.6847759 1.3259224 0.9362563
0.5877103 -0.3067583 1.123317 -0.53712523 -1.8248372 -1.2045277 -1.7372398 0.042743526
1.9184712 0.89183664 1.895313 0.14025441 0.4659441 0.6044401 1.0023674 0.74182
-0.45697165 -0.25652194 -1.7632676 -0.6683105 -0.8478934 -0.22758754 -1.7924484 -0.7513354
0.11566312 1.1709647 -0.23945014 -0.6331018 -1.2235978 -0.65849155 2.3347304 -2.0989785
-2.0450163 2.2046723 1.5227449 -0.1941285 -0.913612 0.26218557 -2.3199453 0.66790015

encoder.cell.W_iou.weight f4 [384, 32]
00000000: 480d c1be d0b8 36be bcc3 e73d 05d0 93bd
00000010: c764 d73d 4620 c6bd bae2 d9bc 35f2 a5be
00000020: 5ba1 633e 3de5 5c3e a7ce 15bd d6d8 153e
00000030: cae8 45be 52bd f9bc f828 a3bd 0637 a8bd
00000040: d3c2 613e d5da 2bbe 0f55 91be 5bc1 35be
00000050: 7fcc d9bd ee4e 99be 1abf b2bd e235 b33e
00000060: e9d5 873e 26b1 31b7 1360 89be ef19 10bd
00000070: 5517 ffbc c654 49be 11ee 283e 6b58 54bd
00000080: 241a c9bd c406 c1bd efd5 853e 1d31 5bbd
00000090: ac05 563e 5445 5dbe 987a a73e 1158 603e
000000a0: e797 8fbc bb6b 933e 37b6 71be b793 5dbd
000000b0: c01f 55be 04cb 1ebe 7df7 9e3d 3439 ccbd
000000c0: d086 cb3d a77c 1bbe e5c6 09be da90 efbd
000000d0: acaa 503e fae4 cfbd 848d 9ebe 061b bbbd
000000e0: 3f7b 8ebe 4dd5 0b3e 24ef 9cbb d838 e13c
000000f0: 2688 b6be 6d21 92be 75e0 34be 1a66 e63d
00000100: 8f5a 86be 2f96 04bf da0f b93e 0f73 84bd
00000110: 57e9 46bc 4e4c 89bd 190f 7a3e 4ce3 e33d
00000120: ba5a 4e3d 60dd 7a3e d0c1 8c3e 5034 303e
00000130: acc5 10bc ed9f 3e3e 4619 ed3d 89cc 8a3d
00000140: 2b7e 9b3e 5d10 b1be 0b6b a0be f9c9 8bbe
00000150: 35e7 cd3e 6533 973e 8446 c6be 2de7 61be
00000160: 8102 553c 1151 4e3e 15e9 f03d 931c 84bd
00000170: 0883 9fbd 2293 72bd f2e0 963e f5b5 323e
00000180: 7201 efbd 9636 923d b528 a93e b61e 77be
00000190: effc 01bd bbdc 5abe 1ad3 853e 351b 14bd
000001a0: 8c1c 7b3e 816f 2a3e d2ae e23d 7678 b5bc
000001b0: 76fc 9abe 7819 8cbe 7d5f 953e 2141 68b9
000001c0: e6be 273e a095 7abe 04a3 cc3c 1168 eb3c
000001d0: 3def 7f3d 0629 d53d 1444 fcbd df21 b13d
000001e0: ed3d edbb 65eb a6bc 450a 37bd bf28 15bd
000001f0: b30b 62be 73bc 50be 27dc d13c fd0e 76bd
00000200: d7e7 6bbd 483e 17bc fcb0 80bb 81da 7d3e
00000210: 2477 7ebd af8f b93e 3faa b13d bc32 cdbd
00000220: 5891 223d fcc4 28be 724b 55be 1c12 0f3d
00000230: 0ec0 fb3d 6a90 933d 8608 2a3e 2fbd cbbd
00000240: 087a f03c 2fbb ea3e 5ca4 78be 6adb 01be
00000250: 2704 8abd a667 b13c 1b0d aabd f8f6 9dbe
00000260: 999f 84bd 9880 05be 3d9e efbd aa90 823a
00000270: 1230 febb cd8e 403e 9b9a d33d 7a82 d23e
00000280: 246b 0dbe aa0a 993d 65ed 433e 5cc5 9fbe
00000290: ddec 8c3e c122 76be ccee b53d dbc6 27be
000002a0: df32 c83e 6fa9 b93e e968 5e3e 5282 603d
000002b0: 142b 51be fd71 33bd 2108 8f3e 50ac 16be
000002c0: 5d2b 303e 138b 85be 60c7 113c daf8 00be
000002d0: 10db ca3e 9d4d 9c3e 3e50 67bd 8146 37be
000002e0: c103 c7be 19d3 79be a85c 4d3c 3827 3bbe
000002f0: fd20 2cbe eb3a 79be a88b 683e 7591 7abd
00000300: 520a c0be 8f42 a4bc 06ec 4a3e b8c8 10be
00000310: 9c06 e3bd 8e75 e6be f212 eabd c7d5 38be
00000320: 6a3f 803c 8265 a93d 3d1e e7bc dd80 a03e
00000330: 5798 86be fbb5 933d 8193 1bbe 3610 08bd
00000340: 2ad2 b43e 8e23 c2bd f234 8cbe 89ff 85bd
00000350: e655 a93d 30fb c0be 48a0 0ebe bd30 8f3e
00000360: 2cb5 d5bd 9de6 d93e c855 1bbe ad81 f0bd
00000370: 0323 8fbc c8e9 aebd 1185 493e 23a5 7abe
00000380: 23c5 a6be 5d8a c93a 983b c13e 0cef c3bd
00000390: df90 0d3e 00bd 77be 9d6e 393d 90a0 c3be
000003a0: d644 8a3e e0c2 8a3e 272f 773d b997 cf3d
000003b0: 99f3 aabe d817 493d da79 dd3d d2c0 e9bd
000003c0: 4535 693e d85d c4bd fb48 87be 9cec 18bd
000003d0: 0274 9dbd dca2 83bd 3908 8fbe a93b 0a3e
000003e0: 370b 793e 5728 8a3e 88ab 4fbe d936 73bd
000003f0: 5c97 3f3e a685 7bbe b95c 4e3e 5de7 1cbe
-0.37705445 -0.17843938 0.1131663 -0.07217411 0.10517269 -0.096741244 -0.02659737 -0.32411352
0.22229521 0.21571822 -0.036574032 0.14633498 -0.19327083 -0.030485783 -0.079667985 -0.0821362
0.22046976 -0.16782697 -0.28385207 -0.1774954 -0.10634708 -0.2994303 -0.08727856 0.35002047
0.26530388 -1.0591268e-05 -0.2683111 -0.035180982 -0.031139055 -0.19661245 0.16497065 -0.051842134
-0.09819439 -0.094251186 0.2613978 -0.053513635 0.20900601 -0.21608478 0.3271072 0.21908595
-0.017528487 0.2879313 -0.23604666 -0.05409595 -0.20812893 -0.15507132 0.077620484 -0.09971848
0.09937823 -0.1518427 -0.13454778 -0.1169755 0.20377606 -0.10151096 -0.30967343 -0.09136014
-0.27828404 0.13655587 -0.00478925 0.027492926 -0.35650748 -0.28541127 -0.17663749 0.11249943
-0.26240966 -0.5179166 0.36144906 -0.06467258 -0.0121405935 -0.06704007 0.24419822 0.11127338
0.050379492 0.2449851 0.27491617 0.17207456 -0.008836191 0.18615694 0.11577086 0.06777293
0.30369696 -0.34582797 -0.31331667 -0.2730253 0.4021546 0.29531398 -0.38725674 -0.22060843
0.013001085 0.20148112 0.11763207 -0.064507626 -0.07788664 -0.059222348 0.29468495 0.17452224
-0.116701975 0.07139318 0.3303887 -0.24132809 -0.031735357 -0.21373264 0.2613762 -0.03615876
0.24522609 0.16644098 0.110685006 -0.022152167 -0.30270737 -0.2736318 0.29174414 -0.00022149507
0.16381416 -0.2447114 0.024980076 0.028736146 0.062484015 0.10408215 -0.12317672 0.086490385
-0.007240048 -0.020375917 -0.04468753 -0.03641581 -0.22074775 -0.20384388 0.025617672 -0.060072888
-0.057594147 -0.009231158 -0.003927348 0.24790384 -0.06212534 0.36242434 0.0867505 -0.100194424
0.03968939 -0.16481394 -0.20829561 0.03492938 0.12292491 0.07205279 0.16604814 -0.09948193
0.029355064 0.45845935 -0.24281448 -0.12681356 -0.06739073 0.021655869 -0.08303281 -0.30852485
-0.06475753 -0.13037336 -0.117001034 0.0009961326 -0.0077571953 0.18804474 0.10332223 0.4111517
-0.13810402 0.07472737 0.19133528 -0.3120526 0.27524462 -0.24036695 0.088834375 -0.16384451
0.39101312 0.3626208 0.21719708 0.054811783 -0.20426589 -0.04380988 0.2793589 -0.1471417
0.17204042 -0.26082668 0.008897632 -0.1259493 0.39620256 0.30527964 -0.05647301 -0.17897989
-0.38870052 -0.24396934 0.012534298 -0.1827668 -0.16809459 -0.24338882 0.22709525 -0.061173875
-0.37507874 -0.020051269 0.19816598 -0.14139068 -0.11085245 -0.45011562 -0.11429395 -0.180503
0.015655238 0.08271314 -0.02821266 0.31348315 -0.262881 0.072124444 -0.15192987 -0.033218585
0.35316592 -0.09479438 -0.27384144 -0.0654288 0.08268337 -0.3769164 -0.1392833 0.27966872
-0.104349464 0.42558756 -0.15169442 -0.11743484 -0.01747275 -0.08540684 0.19679667 -0.24477057
-0.32572278 0.0015376318 0.3774078 -0.09567079 0.13824795 -0.24193192 0.045271505 -0.38208437
0.27005643 0.27101803 0.060347702 0.10136361 -0.33388975 0.049095005 0.10814257 -0.11413731
0.22774227 -0.09588212 -0.26422867 -0.037335023 -0.07688142 -0.06427547 -0.2793596 0.13499321
0.24320684 0.26983902 -0.20280278 -0.05937848 0.18710083 -0.24562702 0.20152558 -0.15322633

encoder.cell.W_iou.bias f4 [384]
00000000: a80a 09be aedb 883d 5dec 86bd 500b 2cbe
00000010: 705b 8839 e130 7dbe 8c2f 9ebd d36b 83bc
00000020: c232 acbd 310f 8fbd 9431 5d3e 8620 10bd
00000030: 33d1 383d aae3 a63d 8642 d9bd bdd6 c7bd
00000040: abb1 653e 3cb2 6f3e 325e 263e 2ba3 093d
00000050: 2de4 1cbe e000 0e3d 52c8 9fbe 707c 0bbe
00000060: a805 01be bbf0 8a3d 66e4 37bd bada e9ba
00000070: 73e5 58be f92c 863d 9331 5e3e 5799 053e
00000080: de24 8ebc 3b18 6bbd 0ee6 0a3c 5459 21be
00000090: 442e eabd 43d1 6dbe b279 9bbc 32ba 0fbe
000000a0: 3144 1bbd fe63 16bd 728e 5bbd d507 f03c
000000b0: 565d e6bd 8ed7 313c 0cf7 7fbe 9aef 28be
000000c0: dc84 4dbc 0805 69bc 1f76 0bbe 14c5 e2bd
000000d0: 1312 9a3d b9a6 9fbd 8349 07be 3a5c 23be
000000e0: e819 c6bd 0e2c ae3d 174f 06be 7e1a 14be
000000f0: d4f6 8bbd 2eda 8d3b 221a be3d 85e5 e83d
00000100: c40b 5c3e 6edf 59be 3125 5bbd a874 cf3d
00000110: 0935 4d3e 39f2 1cbe 1efb d1bd 57df 22bc
00000120: 2e51 9ebd 65d1 1cbd 5769 99bd 608d 93be
00000130: 2d33 0c3e 7c74 01bd 6388 30bd 8997 b93b
00000140: 271b 0b3c 2de3 27bc 33bf b6be 7607 6cbe
00000150: 0736 143e f123 b2bd cee6 5bbd b874 ab3c
00000160: 9a10 1d3d 3fb4 923d 5156 c4bd f4b0 33be
00000170: 0e27 283d 18d3 b63c 3554 98be 7955 4d3d
00000180: 32e3 b53c ea9e 1fbe 0ea0 94be 0984 8fbe
00000190: 89f2 a5bb c77a 7dbd 1b6a e0bd e6b6 eb3a
000001a0: 0d91 13bd 5363 9a3c 95cf 06be 4ef8 37be
000001b0: 3567 59bd 18c4 0a3e 36dc 333e 5a2d 10bd
000001c0: 510d de3d c9b2 c33d 2fbe b8bd 387d 173e
000001d0: 9757 0dbd 51b4 efbd c79b 083e 464c e93d
000001e0: bcaf 27bd f2f0 453e 587e 8dbd 0972 eb3d
000001f0: 9188 1fbe dbc7 01be b34f 0b3e 3f7c 26be
00000200: 0f7a e0ba 71df 29be dcc4 983d 5922 ecbd
00000210: 17ea cfbd 8585 c8bc 665b 2d3d be53 7ebd
00000220: f955 893e 51a8 99bd 6bc1 9b3e a158 9bbd
00000230: f069 553d 5717 a43d c903 9a3c 1ad8 9dbc
00000240: 42a1 b1bd b114 3c3e 290e 3a3e 4ec4 fabc
00000250: 8018 c33c e260 4a3d d1b2 823d 6be0 14bd
00000260: ad30 cebd d331 133e 99d4 a8bd c5b4 a7bc
00000270: 743b 9bbd 08d2 643d c2e2 123e 62bb d4bb
00000280: 9cc0 ce3d 4d38 cb3d 5390 e43b 432e a4ba
00000290: 4b87 82bd 1c4e 31bb f080 b63d 944c f0bd
000002a0: 917e d43d 7fcd c2bd af2f 823d c813 8fbd
000002b0: afde 65bd 14f4 4d3e 186d bd3a fcfc 81bd
000002c0: 8028 c8bd 5fa7 92bd 3b88 10be d424 1abe
000002d0: 7512 173e 6b09 f4bd b9fb 853d b15c 09be
000002e0: 2c30 163e b7ed 86bd 951b a13d de75 dabd
000002f0: 6083 1e3e 4807 843e fd68 203e f089 6f3e
00000300: 081f 073e fab4 3ebe 5805 82bd 4539 b83d
00000310: a32a 40be a668 74be 5896 143d e5b6 0c3e
00000320: 339f 003d fd2b 103e f628 413e 160e e93d
00000330: 543c be3d 80a9 40be a7c1 b33d 712c 7a3d
00000340: a9c5 ba3e 69a8 33be 6ca7 cc3c 7c7d 45bc
00000350: 1f85 3d3e 5dae 443e 6e35 5e3e af0b b3bd
00000360: 85a5 b53e f1c8 e63c ef6a 923d 2271 c2bc
00000370: 524c b2bc 9973 dc3c cfaa 693e 4ea3 563e
00000380: f1fe 0dbe 1f4b bc3e e3ff 22be aa87 f9bc
00000390: 8a20 afbd 7bab 973e ce79 c33d 2289 cf3d
000003a0: 39e6 ca3c 1894 11be 19a1 2b3e c33d ebbd
000003b0: 1134 3fbd 4d0b a83c 1fc2 7f3d f187 ddbc
000003c0: 6476 7f3e 5a24 003e 9f40 b83d 5f90 1b3d
000003d0: 2ced 0fbe 5ef3 663e 9c69 b23c 9352 783e
000003e0: a855 4f3d 4519 753d f612 7c3b b48a 41bc
000003f0: 8a9c 9b3d 2b9b 46bc 113c 4f3e 3f10 93bb
-0.13382971 0.066825256 -0.065880515 -0.1680119 0.00026008068 -0.24725677 -0.077239126 -0.016042626
-0.08408119 -0.069853194 0.21600944 -0.035187267 0.045121383 0.08148892 -0.106083915 -0.09757755
0.22431056 0.23407835 0.1624687 0.033602875 -0.15321417 0.034668803 -0.3120752 -0.13621688
-0.12599814 0.06784197 -0.044895552 -0.0017841675 -0.21181278 0.065515466 0.21698599 0.13046776
-0.017351564 -0.057396155 0.008477701 -0.15756732 -0.11434606 -0.23224358 -0.018978927 -0.14035872
-0.03790683 -0.036716454 -0.053602643 0.02930061 -0.11248271 0.010854615 -0.24996585 -0.1649765
-0.012543883 -0.014222391 -0.13619278 -0.11072746 0.07522979 -0.07795472 -0.13211636 -0.1595315
-0.0967291 0.085044965 -0.13116108 -0.14463231 -0.06834188 0.0043289876 0.09282328 0.113719024
0.21488863 -0.21276638 -0.053502265 0.10129672 0.20039763 -0.15326776 -0.10252975 -0.009940944
-0.077303275 -0.03828563 -0.07490795 -0.28818798 0.13691397 -0.03160523 -0.04309882 0.0056638164
0.00849036 -0.010247034 -0.35692748 -0.23049721 0.14473735 -0.086982615 -0.05368691 0.02092968
0.03834591 0.071632855 -0.09586776 -0.17547971 0.04105287 0.022317454 -0.29751745 0.05013034
0.022203062 -0.15587965 -0.29028362 -0.28030422 -0.005064313 -0.061884668 -0.10957738 0.0017983585
-0.036027003 0.01884619 -0.13165124 -0.17965814 -0.05307694 0.13551366 0.17564473 -0.0351995
0.10842384 0.09555585 -0.0902065 0.14793861 -0.03450736 -0.117043145 0.13340674 0.11391501
-0.040939078 0.19330195 -0.06908864 0.1149636 -0.1557944 -0.12673895 0.13604622 -0.16258334
-0.001712622 -0.16589142 0.07459423 -0.11529989 -0.10152071 -0.02447773 0.042323492 -0.06209158
0.26823404 -0.07502807 0.30421004 -0.07585264 0.052102983 0.08012264 0.018800633 -0.019268084
-0.086733356 0.18367268 0.18169464 -0.030611183 0.023815393 0.0494088 0.06381763 -0.036346834
-0.10067878 0.14374475 -0.08243675 -0.02047194 -0.07579699 0.055864364 0.14344314 -0.0064920643
0.10095331 0.09922848 0.0069752126 -0.0012525994 -0.06373461 -0.0027054613 0.089113116 -0.11733356
0.10375703 -0.095118515 0.06356751 -0.06986195 -0.05612057 0.2011264 0.0014452068 -0.06347081
-0.0977335 -0.0716083 -0.14114468 -0.15053111 0.14753135 -0.11915859 0.06542153 -0.13414265
0.14666814 -0.06588309 0.07866589 -0.10667013 0.15479803 0.25786805 0.1566505 0.23392463
0.13195431 -0.18623725 -0.063486755 0.08995298 -0.18766265 -0.23868045 0.03627619 0.13741644
0.031401824 0.1407928 0.18863282 0.1137964 0.092888504 -0.18814659 0.08777171 0.06107754
0.36478928 -0.17544712 0.024982177 -0.012053844 0.18507813 0.1920714 0.2170007 -0.08742463
0.35477844 0.028171988 0.07149302 -0.023735587 -0.021764908 0.02691059 0.22819065 0.20960733
-0.13866784 0.36776063 -0.15917926 -0.030460197 -0.08551128 0.29623017 0.09544717 0.10133578
0.024767982 -0.1421665 0.16760673 -0.114863895 -0.046680514 0.020513201 0.062440988 -0.027042361
0.24947506 0.12513867 0.089967005 0.03797948 -0.14055318 0.22553775 0.021778874 0.2425025
0.050618798 0.059838552 0.003846345 -0.011812855 0.07598217 -0.012121956 0.20237757 -0.0044880207

encoder.cell.U_iou.weight f4 [384, 256]
00000000: 3f87 dcbd 6235 98bd e81f 83bd 5912 d4bd
00000010: 25ab 4d3d 6bba efbd bc05 2ebe 61dc 09be
00000020: 46ac b6bd bca0 92bd 0282 33be 508c e5bd
00000030: 3dd1 2cbe 874a f1bd 5e6a 2fbe 4c4e 8c3b
00000040: 6455 16bd a7d8 bbbd c028 2bbe 0fea 7cbd
00000050: b788 d6bc 53d8 13be 1cad d9bd 933f 89bd
00000060: 237c f0bd ee20 85bd c9c9 92bd 62cc 04be
00000070: 8be5 2bbe 500f b4bd fadc e1bd 99e3 fabd
00000080: 6cc9 0ebe 737a 37be 99d8 85bd df14 23be
00000090: cf79 f7bd f1ec f0bd 56d1 19be 976b 21be
000000a0: 5e58 e6bd 103c 12be 43eb c5bd 9dba 94bd
000000b0: 6700 99bd f9d4 eebd 6fbb 03be 3658 fdbd
000000c0: 4dca 69bd 76de a7bd ad27 05be 554b b8bc
000000d0: 29ef d83c 5817 c0bd 1f15 b6bd 1663 febd
000000e0: 9a7f e5bd 60e9 03be ec73 98bd 9eeb a8bd
000000f0: f8c3 3bbe 7186 9eb9 2bbf 02bd 614b e0bd
00000100: 7764 64bb f416 3cbe b326 97bd f7f5 bdbd
00000110: e287 2cbe d059 23be e6ea 3b3c 769f f0bd
00000120: 187e 16bd ae7a b3bd 6239 94bd 166b 2fbe
00000130: e3dd 1cbe a361 a3bd 4141 58bd ab53 32be
00000140: 17f1 d7bd 03eb 10be 9649 fbbd e16f 0bbe
00000150: 91fb 34be bf0a f1bd 347e 0fbe c039 b8bd
00000160: bb59 2abe dfcc e1bd cc81 fbbd cc0a 1bbe
00000170: ab27 d1bd 1363 32be edf1 13be da3d 2dbe
00000180: 944e c1bd a568 23be 9a5b 3fbe 5c28 75bd
00000190: e4fe bfbd 2d99 3bbe d971 17be 0278 09be
000001a0: 5fc4 20bd 73e0 1dbe 400e adbd fde3 e8bd
000001b0: 0de9 0dbe f1c7 1fbd 9df6 0ebd cfe2 3fbd
000001c0: f72a bfbd 9dca 01bd c63d 0dbe d0c6 00be
000001d0: ac43 47be 1ed2 05be 1269 88bd 97df 3cbe
000001e0: fc7f 56bd 22e7 d9bd 0724 48be e1ee e3bd
000001f0: 1507 9ebd ecda 01be cc1b a5bc 71d4 50bd
00000200: f4a2 fc3d 20cb d0bd dc9a 24be db48 20bd
00000210: 1282 b7bd 176b 1f3c d4a1 953c 005a 8f3d
00000220: 2dcc 4abe 12b5 2abd 95e8 61be 63b6 01be
00000230: 8636 6dbd a642 9abd ede9 933c bf62 05be
00000240: 8c81 17be 58b7 3abd df16 02be 6457 aabd
00000250: b062 0cbd aa9d ebbd 9ffa ba3b 7a8f f3bd
00000260: 97ba 0a3e 7d4b 92bd aa06 56bd 07cd 30bd
00000270: 011c e8bd 1191 8dbc 1c5f 22bd a224 31be
00000280: 12e6 73bd f243 283d 2819 0abe 6fe2 6abc
00000290: 4844 87bd fa77 bc3c f6c3 f2bd b2c7 91bd
000002a0: ee59 40be d660 593b 52b8 a83c b14f 1ebe
000002b0: 8ef6 d53d 4dc3 05be 3710 cb3d 7914 22be
000002c0: 2013 0dbe eaf3 69bd 7771 0ebe 52e4 31be
000002d0: ff22 1ebe 3ca1 8e3c 0593 7e3d 0eab f0bd
000002e0: 55ae 0ebe f4b7 0e3e 9169 453e d95b 0abc
000002f0: c01d 03be 38e6 28be e801 55bd 1acf 50be
00000300: bf09 25be b4e5 f9bd 6ee0 f4bd 0c9c 1bbe
00000310: d555 4bbd 1d14 9fbd 7d71 cfbd e257 5cbd
00000320: e435 b9bc fd21 58be 7f89 b3bd 46ea ebbd
00000330: d067 fdbd b530 39be cc5f 003e f182 69bd
00000340: 9b17 3ebe 83a1 bcbd 3efe 8abd de86 6fbd
00000350: bef0 d4bc 1597 13bd 8b5b 2ebe c257 34bd
00000360: d2f8 84bd 846b 26be 3c33 a2bd 8d0d aebd
00000370: 731f 48be 5a0f 0abe d79d c4bd 01fc 1fbe
00000380: 03dc fabc 5dbd 4cbe 0ce6 f83d da81 fcbd
00000390: 27de 0bbe f713 e9bd 39e9 f3bd 85b6 d2bd
000003a0: c7b2 1cbe 9c29 63bd 4e40 093e 65e7 cb3c
000003b0: 7870 7cbd 16aa 9fbd 46ef 11be 95d6 093e
000003c0: 6eba a4bd 18c0 dbbb c16c e0bd b5f1 2ebe
000003d0: 2c3e babd a1f9 99bd 6724 25bd b425 dbbd
000003e0: a1bb e8bd dad1 4fbe be6b efbd 88ab edbd
000003f0: 0a17 2bbe 75a9 26bd 0d0d 41be 9df4 633d
-0.10767984 -0.07432057 -0.0640257 -0.10355062 0.050212044 -0.11705478 -0.16994375 -0.13462974
-0.08919577 -0.07159564 -0.17530063 -0.11208403 -0.16876693 -0.11781793 -0.1713042 0.0042817947
-0.03670253 -0.091721825 -0.16714764 -0.061746653 -0.026188238 -0.1443799 -0.10628721 -0.06701579
-0.11742427 -0.065004215 -0.07167394 -0.12968591 -0.16786782 -0.08791983 -0.11028476 -0.12250442
-0.13944024 -0.17917804 -0.06535453 -0.1592593 -0.1208378 -0.11763943 -0.15021262 -0.15763699
-0.112473235 -0.14280725 -0.09664013 -0.07262156 -0.0747078 -0.11661715 -0.12864469 -0.123703405
-0.057077695 -0.08196728 -0.13003416 -0.022496859 0.026481228 -0.093794525 -0.08890747 -0.12421243
-0.11205979 -0.12881994 -0.07443985 -0.082480654 -0.18336475 -0.00030236275 -0.031920593 -0.109518774
-0.003484992 -0.18368131 -0.07380428 -0.0927543 -0.1684871 -0.1595223 0.011469578 -0.11749165
-0.036741346 -0.08763634 -0.072375074 -0.17130694 -0.15319018 -0.07977607 -0.052796606 -0.1741473
-0.10544031 -0.1415215 -0.12269895 -0.13616897 -0.1767409 -0.11769628 -0.14012986 -0.0899539
-0.16635792 -0.11025404 -0.12280616 -0.15140837 -0.10212644 -0.17420606 -0.14447756 -0.16918126
-0.09438816 -0.15957887 -0.18687287 -0.059852943 -0.093747884 -0.1832015 -0.14789523 -0.13424686
-0.039249774 -0.15417652 -0.084499836 -0.1137161 -0.13858433 -0.03900904 -0.034903158 -0.04684716
-0.09334367 -0.031687368 -0.13793096 -0.12575841 -0.19459409 -0.13068435 -0.066606656 -0.18444668
-0.05236815 -0.10639788 -0.19544993 -0.11129547 -0.077161945 -0.12681168 -0.020154856 -0.05098385
0.12335768 -0.10194993 -0.16074699 -0.03913198 -0.08960356 0.009730122 0.018265642 0.06999588
-0.1980445 -0.04167659 -0.22061379 -0.12667231 -0.057913326 -0.075322434 0.01805588 -0.1302595
-0.14795512 -0.045585006 -0.12704037 -0.0831745 -0.034273803 -0.115046814 0.005706146 -0.118926
0.13547741 -0.071433045 -0.05225245 -0.04316428 -0.11333466 -0.017281087 -0.039641485 -0.1729913
-0.059545584 0.041080423 -0.13486159 -0.014336213 -0.066048205 0.023006428 -0.11853783 -0.07118167
-0.18784305 0.003316929 0.020595703 -0.15460087 0.10447417 -0.13062783 0.09915202 -0.15828122
-0.13776827 -0.05711738 -0.13910471 -0.17372254 -0.15443037 0.017410867 0.062151928 -0.11751376
-0.1393369 0.1393736 0.19278552 -0.00844475 -0.12804317 -0.16494071 -0.05200377 -0.20391503
-0.16116999 -0.122020155 -0.11956869 -0.15196246 -0.049642403 -0.07767508 -0.10129068 -0.05379475
-0.022608705 -0.21106716 -0.0876646 -0.115192935 -0.12373316 -0.18084987 0.12536544 -0.05700964
-0.18563692 -0.092104934 -0.06786774 -0.05847823 -0.025993701 -0.036032755 -0.17027108 -0.044029005
-0.06492771 -0.16251951 -0.079199284 -0.08498678 -0.19543247 -0.13482419 -0.09600418 -0.15623476
-0.030622488 -0.19994111 0.12153253 -0.12329455 -0.13658963 -0.11380761 -0.11909718 -0.10288719
-0.15302573 -0.055459604 0.13403437 0.024890611 -0.061630696 -0.07796113 -0.14251432 0.13460763
-0.08043371 -0.006706249 -0.10958243 -0.17084391 -0.090938896 -0.07518316 -0.04031792 -0.10700551
-0.113639124 -0.20294896 -0.11690472 -0.116049826 -0.16708007 -0.04068895 -0.18852635 0.055653203

encoder.cell.U_iou.bias f4 [384]
00000000: 6048 b2bc 9584 70bd 317e 9cbd 1e95 debd
00000010: 8558 eb3d 6362 e9bd 313c 34be be52 edbd
00000020: 239c 1cbc 63d7 903c 0b1d 893d b54d 82bd
00000030: 46dc 1cbe f2cc e93a 7940 35be dd47 14bb
00000040: db6a 933d 7fad 393d 7e03 373d 7608 1abe
00000050: 4210 79be e3a8 00be 35c6 43be 39df 46be
00000060: bb8c cdbd 1188 2f3b 42fa d4bd 3d37 d0bc
00000070: 6bac c6bd b8ea a4bd 7591 f43d 8e75 b13d
00000080: 78ba 8bbc aaef a2bd dbcd 12be 9abd 06be
00000090: c3f3 36be 96b0 21bd b560 92bc c3a9 0bbe
000000a0: ea40 79bd 668e 41be 24ff 1dbe 9be0 8fbb
000000b0: 0f77 1ebe e63c fb3d 4287 f9bd 7e7d cabd
000000c0: d773 edbc 8df8 18bd cd13 bebd 7b31 80bd
000000d0: 5b40 df3d a765 58bd 7c93 bebd 9fda 00be
000000e0: 9d2e 31be 96a1 10bd ef0c 47bd 80c1 d6bd
000000f0: 55f7 b23d 839d 023e 43fc 523e 7feb 45bc
00000100: c708 8b3d 6110 04be 8624 673b 6966 e93c
00000110: 6e2d 253c bbbc 24be 725a 1ebe 3276 2e3d
00000120: 7ab6 0abe 3407 eabc e9d0 cebd dc1c 0fbe
00000130: 6502 9f3d ee1b 09be 46eb 33bd 2c3f cdbd
00000140: 7882 a9bd 6c03 04be 1e8b 9bbe 977c 35be
00000150: 4dea 35bc 04f0 44bd 73ff 573d 415b ebbd
00000160: b4a2 113e a794 c43d c77d 45bd b0aa 88bd
00000170: 4eae 3b3c 561b 89bd 47ed 33be ed65 203d
00000180: ec5a 4cbe ee92 9abd cb9c 43be c9d6 04be
00000190: f7ea 923d aa69 9fbb 1612 cbbd 5c66 1fbd
000001a0: 35dd 413d eeea 05be a1be d7bd 8473 23be
000001b0: 3c62 5d3c 1cd1 1d3e 3c6f 873d 30dd a3bd
000001c0: 24be 133e e2a1 27bd 9e9d debb 0974 e83d
000001d0: 066b 29be ca27 31be d5d0 8b3d be87 913d
000001e0: eb1d 803b 2464 b23c fc42 cfbd 19bf 353d
000001f0: b488 81bd f02d 96bd 105b 443d 22e6 80bd
00000200: 653a a7bb 21f3 183b d6c6 363e 2006 0fbd
00000210: 9f6b 9d3c ff37 d4bd c8a4 90bd 2c69 46bd
00000220: f1b7 243e 31dc 083d 486d 343e c013 793d
00000230: 8aa9 07bd d637 67bc f2db b83b c601 953d
00000240: 9bb9 fe3d 0b30 103e bc2b b43d 88ff 733d
00000250: b2b8 9d3d b24f af3d 8aec 37bd 5501 aa3b
00000260: 2b9c 263d 65a0 f73d e5d3 debd 7847 5c3c
00000270: 4de3 6f3c e154 bc3c f67f fc3c 101b 1f3e
00000280: d6ae 9f3d 3247 0d3e f243 fe3c ff2a 0bbe
00000290: 2ede 38bd 477c d8bd 3acf a13d 8462 133d
000002a0: 411c dc3d 0bc7 4f3d 0d2e 15bc a411 bcbc
000002b0: fae4 4fbd 9e6d ad3d 651f 89bb a0ec a4bd
000002c0: c3d7 48bc 3064 2dbc 2416 82bc 9972 04bc
000002d0: 36ab cb3d c4f6 e3bd 2134 8fbb d459 d43c
000002e0: 044d 603c e035 5d3c 9b35 a23c fed9 aabc
000002f0: f7b5 033c 7c80 873d e7ed f33d af0b 9f3e
00000300: 3d8c 143e b5cc 89bd a0a5 433d 2c09 863d
00000310: 63bd b73c 2641 91bd 8650 a5ba 92e8 27bd
00000320: 8519 5d3c c431 183e 370f c6bc abca 93bc
00000330: 7de6 8c3d e3b8 54bd d1ad 87bd f9d8 533e
00000340: 9925 823e 4a07 e6bd bdf3 083d bdeb 083d
00000350: 1fe8 b3bb 638d 9d3d eefc 833d 24f4 7c3d
00000360: 29de 463e bc61 a03d fbdd 73bd 4efd 03be
00000370: 358c 013d 39b9 893b 7835 313b 4f70 ce3d
00000380: 4cab 5c3c 9b9e 233e 81f1 003d 5150 14be
00000390: 5f62 723d 836f 873d d2c3 2e3d af7b 383d
000003a0: a01a db3c 4280 25bd 1691 fdbc f0dc e7bc
000003b0: ca30 263d 475d fc3d ccc2 2d3e 7d62 01be
000003c0: 9a81 543e 0485 b3bd d34b c53d bdec 153d
000003d0: 9928 a1bc e80b 533d 6a46 ec3d 7fc4 eb3d
000003e0: 3234 fb3d 4b4c 1f3d c726 a6bd f89c b93d
000003f0: ea19 163e e876 8a3d 603c bd3d c8df 2fbd
-0.021763027 -0.05872019 -0.076412566 -0.108682856 0.11491493 -0.11395719 -0.17601086 -0.115880474
-0.00955871 0.01768083 0.06694993 -0.06362478 -0.15318403 0.0017837568 -0.17700376 -0.0022625842
0.071981154 0.045331474 0.044681065 -0.1504229 -0.24322608 -0.12564425 -0.19118579 -0.1942109
-0.10036608 0.0026783983 -0.103992954 -0.025416965 -0.09700855 -0.080525815 0.11941806 0.08665
-0.017056689 -0.079558685 -0.1433634 -0.13158265 -0.17866425 -0.039475046 -0.01786838 -0.13638978
-0.060852922 -0.18901977 -0.1542936 -0.0043907887 -0.15475105 0.12267475 -0.121840015 -0.09887217
-0.0289859 -0.03734641 -0.092811204 -0.06259438 0.10900947 -0.05283132 -0.09305474 -0.12583397
-0.17302938 -0.03531035 -0.04859632 -0.10486126 0.08738581 0.12755398 0.20604043 -0.012080072
0.067887835 -0.12896873 0.0035269572 0.028491216 0.010081632 -0.1608762 -0.1546419 0.04259319
-0.13546172 -0.028567888 -0.1009844 -0.13975853 0.077641286 -0.1338956 -0.043925546 -0.10021815
-0.08276838 -0.1289193 -0.30379575 -0.17723309 -0.011103225 -0.04808046 0.05273385 -0.11492015
0.14222223 0.09598666 -0.048215654 -0.06673181 0.011455132 -0.06694667 -0.17570983 0.039159704
-0.19956559 -0.07547556 -0.1910278 -0.12972559 0.07173722 -0.004864891 -0.09915559 -0.038915977
0.0473301 -0.130779 -0.105344065 -0.15962034 0.01351219 0.154118 0.06613013 -0.080011725
0.14428002 -0.040925868 -0.006793692 0.11350257 -0.16544732 -0.17300335 0.06826941 0.07105969
0.0039098165 0.021776266 -0.10120198 0.044371698 -0.06324902 -0.07332981 0.047938406 -0.06293894
-0.0051033967 0.0023338275 0.17849287 -0.03491795 0.019216357 -0.10362243 -0.070626795 -0.048440143
0.16085793 0.033413116 0.17619812 0.06080985 -0.03312067 -0.014112433 0.005641454 0.07275729
0.12437745 0.14080827 0.08797404 0.059569865 0.077012435 0.085601225 -0.044903316 0.005188147
0.040676277 0.1209114 -0.108802594 0.013444774 0.014641595 0.022989692 0.030822735 0.15537667
0.07797019 0.1379669 0.031038258 -0.1359062 -0.045133762 -0.10570579 0.079008535 0.035982624
0.107475765 0.05072693 -0.009105218 -0.02295763 -0.05075548 0.084681734 -0.0041846507 -0.08052945
-0.012258473 -0.010582969 -0.015879698 -0.008083963 0.09944765 -0.11131051 -0.004370228 0.02592174
0.013690237 0.013501614 0.019800952 -0.0208559 0.008038989 0.06616303 0.11910611 0.310636
0.14506622 -0.06728498 0.047765374 0.06544718 0.022429174 -0.07092504 -0.0012612499 -0.04099328
0.013494854 0.14862734 -0.024177177 -0.018040976 0.068799 -0.051934134 -0.0662495 0.20688237
0.2541931 -0.11231859 0.033435572 0.033427943 -0.0054903175 0.07692983 0.06444727 0.06175627
0.19420685 0.07831141 -0.05953787 -0.12889597 0.031627852 0.0042029885 0.0027039926 0.10080015
0.013468575 0.15978472 0.031480316 -0.14483763 0.059175845 0.06613066 0.042667218 0.04503983
0.026746094 -0.04040552 -0.030952971 -0.028303593 0.040573873 0.12322479 0.1696884 -0.12635227
0.20752564 -0.08765605 0.09633603 0.036602724 -0.019672679 0.051525027 0.11536868 0.11512088
0.12265815 0.038891118 -0.08112865 0.090631425 0.14658323 0.06760961 0.09240031 -0.042938024

encoder.cell.W_f.weight f4 [256, 32]
00000000: b50b 0e3e 975d 75bd c1ec 5cbd 6708 263c
00000010: a67b 0c3d 629e 123e 39f5 d3bd 6bed abbd
00000020: 6212 923d 1682 80be 8e64 f8be 851a 42be
00000030: f064 7bbe 1708 16be 72b2 473e b275 463e
00000040: f6b8 5e3d bea6 073e 9c96 d5bd ed23 5b3d
00000050: b2c8 2ebe 2677 90be df8f bfbc 6a51 a63e
00000060: 4e01 cf3d bd54 3a3e 4b1b 223d 7389 45bd
00000070: 894d b53d 10e3 343e db33 b2be 81fd b73d
00000080: 242b 853d d478 523e 1762 cd3c ed34 6f3d
00000090: 5f11 003e 224e 57bd 8aab 283b 0f06 093e
000000a0: 1c8b 07be 0e2f f9bd 2aa6 50be b000 b4be
000000b0: 6445 f23b a451 38be de53 7dbd 7773 e7bc
000000c0: fc2f b6be 1ffc 5a3e 87ce d73d cbc7 263e
000000d0: 9f50 1abe 3b5b 7cbe 6ada 0fbe f85a 91bc
000000e0: d869 3b3c 5597 bbbc 1178 e63c 1e23 573e
000000f0: 5333 abbe 482a 0cbe c50e 7bbe efb3 15bc
00000100: 0e2b f13d bbcc d53d 1463 aa3c aa80 c4bc
00000110: 0244 09bf 9be9 83bb 2120 b63c 6f09 c3be
00000120: 8225 fc3d 6275 e8be dd89 a7be 1484 bcbe
00000130: c33f 2cbe 32a6 9bbe ccdf f9bd 2e12 9f3e
00000140: 8322 273e fd17 ac3d 7825 61be fc1f ebbe
00000150: 566e b73e 273e a1bd 97fb 04be 265b ae3e
00000160: 2e41 34be c90a 5f3c 5045 8bbd 3e5a abbe
00000170: f5d9 5bbe f6d3 b03e 50c6 f3be 5876 0f3f
00000180: a72f 603d 842c 583e b8b6 483e a704 1b3c
00000190: f83a 17be ba79 0fbe 5d36 83bd d0d7 203c
000001a0: 8daf ba3c 9364 8b3d 46f3 043e 49d3 7a3c
000001b0: 1d7c 74bd fb55 bfbd 9bfe 423e 6824 e4bd
000001c0: ae5b 87bc 8635 2ebd 04da 903d 9956 42bd
000001d0: 4253 933e bb02 133e bf39 39bd 0ecb e93d
000001e0: 029e 60be c37b 90bd 1cfa ca3d eff7 b7bd
000001f0: 135d c9bd 5a4b 953d f26b 9abd 5b4f 173e
00000200: 5622 fabd c705 ecbd 7bb6 4fbe c661 dbbd
00000210: c53f a0be a31c df3d 002c 2ebe 6904 f8be
00000220: 2e28 e23c 3f19 12be 0065 343d 2435 8dbd
00000230: b379 243e 5e64 19be 54b8 3cbe 94b9 453e
00000240: 563d 803e 58cd 3dbe dfc9 8dbe 659e b5be
00000250: 3c95 913c ad55 03bc b953 f33b dabd 023e
00000260: 4ab3 273d a006 11be 736e f0bc aad3 b8be
00000270: 5971 e33d 3913 8a3e bb15 38be 0d7a e13e
00000280: 0478 463e 8672 133d 1a52 b23d 4d64 57be
00000290: caba aebd b7d1 0ebe 50a0 f03c 4428 ad3d
000002a0: 1db5 243e 56c3 093d 4cf5 b73c 8cbd 533d
000002b0: 7d95 a5bc b1f9 79bd b224 15be 28c4 343d
000002c0: 1d1f f9bd 68da bebd 08d5 0b3c 1e89 22bd
000002d0: 667a 8f3d b6a2 85bd 0172 513e 40bd b2bc
000002e0: 9f2a 45bd 1147 bdbd 0740 0cbc 1d7e 9f3b
000002f0: 73f5 cc3d 4a32 50be 07ba 3e3e 691d 40bd
00000300: 67da 663e e357 ee3d cb95 42bd 749d 4dbe
00000310: 8d2f 143d ea18 fa3d 9a87 8f3d a710 923d
00000320: a3a1 963d 6bcb a23c 130d a73d 8e79 1dbe
00000330: 3e4c ac3d 6838 0abc d4d4 bdbd 8f11 71bd
00000340: 95e3 12be 0b53 6e3d 5ae3 bd3d b5c8 18bd
00000350: f599 1d3d a506 9cbd 24ba 023e e982 2d3e
00000360: 1e9b 2cbe 76f8 0cbe 69cd 583d be92 d8bd
00000370: 60e8 87bd f43d 203e 7ec3 283e c6b8 14be
00000380: d938 d5bd 15ce b63c 3df0 86bd 7300 363d
00000390: 6902 b13d 9bde 773e 4a39 a5bd 182f 0bbd
000003a0: ed0c 2fbe cb7d 39bd 0601 0ebe ac46 043e
000003b0: 3098 4bbe 6854 563e f0fa 4fbd 9364 0d3e
000003c0: 265b aa3d 6101 063e c7f0 09be 4fc6 80be
000003d0: ffd3 4cbe 1f1b 7abe da11 92bb 59e0 553e
000003e0: 8ff2 e53d ad1b 373e df1c 823c 74b1 20bc
000003f0: dd33 db3d 2a22 a6bd a86a 48be 6a06 313e
0.13871653 -0.059903707 -0.053936724 0.010133839 0.034297608 0.14318231 -0.10349507 -0.08394893
0.071324125 -0.25099248 -0.48514217 -0.18955429 -0.24550223 -0.14651524 0.19501665 0.19380835
0.05437561 0.13247201 -0.10429117 0.05350106 -0.17068747 -0.28215903 -0.023384033 0.3248399
0.10107671 0.18196388 0.03957681 -0.048226785 0.08852679 0.17664742 -0.34805188 0.08983899
0.06502369 0.20553905 0.025071187 0.058400083 0.12506627 -0.052564748 0.002573701 0.13381217
-0.1323666 -0.12167178 -0.20375887 -0.35156775 0.007393526 -0.17999893 -0.06184756 -0.0282533
-0.35583484 0.21385239 0.10537439 0.16287152 -0.15069817 -0.24644177 -0.14048162 -0.017743573
0.011438809 -0.02289931 0.028133424 0.2100949 -0.33437595 -0.13688004 -0.24517353 -0.009137138
0.1177579 0.1043944 0.020799197 -0.023987133 -0.53619397 -0.0040256507 0.022232117 -0.38093135
0.123118415 -0.45402056 -0.3272237 -0.36819518 -0.16821198 -0.30400234 -0.12200889 0.31068558
0.16321759 0.08403013 -0.2198695 -0.4592284 0.35826367 -0.07873183 -0.12986599 0.34053916
-0.17602989 0.013613411 -0.0680033 -0.33467287 -0.21469863 0.34536713 -0.47612238 0.56039953
0.054732945 0.21110731 0.19600952 0.009461558 -0.14768589 -0.14011279 -0.06406853 0.009817079
0.022788787 0.068062924 0.12983426 0.015309163 -0.059688676 -0.09342571 0.19042437 -0.111397564
-0.016523208 -0.042531513 0.07072833 -0.047445867 0.28774458 0.1435651 -0.045221087 0.11415683
-0.21935275 -0.07054856 0.09910986 -0.089828365 -0.098322056 0.07289763 -0.0754012 0.14776365
-0.1221358 -0.115245394 -0.20284455 -0.10712008 -0.31298652 0.10894134 -0.17008972 -0.48440865
0.02760705 -0.14267443 0.044041634 -0.068949014 0.1606205 -0.14979693 -0.1842969 0.19309074
0.25046796 -0.18535364 -0.27693078 -0.35472408 0.017771356 -0.008016032 0.007425752 0.12767735
0.040942468 -0.14162683 -0.029349541 -0.36098987 0.11105604 0.2696779 -0.1797704 0.4403843
0.1938172 0.03599789 0.08707066 -0.21034355 -0.08531721 -0.13947187 0.029373318 0.08454946
0.16084714 0.033633552 0.022455834 0.051694438 -0.020212883 -0.06102914 -0.1456478 0.04413238
-0.121641375 -0.093190014 0.008534677 -0.039681546 0.070057675 -0.06525175 0.20453645 -0.021818757
-0.04813635 -0.092420705 -0.008560187 0.004867329 0.10007753 -0.20331684 0.18625651 -0.046903048
0.22544251 0.11637857 -0.047506135 -0.20079595 0.03617816 0.12211783 0.07008286 0.071320824
0.073550485 0.019872388 0.081567906 -0.153784 0.084129795 -0.0084363 -0.09269109 -0.058854636
-0.14344628 0.058184665 0.092718795 -0.037300784 0.038476903 -0.07618455 0.1276632 0.1694447
-0.16856048 -0.13766655 0.05293027 -0.10574864 -0.06636119 0.15648633 0.16480824 -0.1452361
-0.104112335 0.022315064 -0.065887906 0.044434022 0.08643038 0.24206011 -0.08067568 -0.03398046
-0.17094775 -0.04528598 -0.13867578 0.12917584 -0.19882274 0.20930636 -0.050776422 0.13807897
0.083181664 0.13086464 -0.13470756 -0.25151297 -0.20002745 -0.24424408 -0.0044576945 0.20886363
0.11227905 0.17881651 0.015882907 -0.009807933 0.107032515 -0.08111985 -0.19571936 0.17287603

encoder.cell.W_f.bias f4 [256]
00000000: dff3 133e 9213 883d bb93 253c 8e49 9c3b
00000010: ef92 a1bc 9151 6cbd b338 03bc 7cce d13d
00000020: 2155 013d 144e c2bd 51cf 21be 0fff d6bd
00000030: 4fbf 183e 05a9 1f3e 72e3 ab3c 4104 383e
00000040: fcce 9e3e 3379 28be cc8f 01be 889d 4e3d
00000050: af54 e43d e521 c5bd 291f 093e 64c6 2e3e
00000060: e0ae 7b3e c691 f9bd 5761 cf3d 9d8e eebd
00000070: 661a 153d aae3 063d c225 843d be5e 0ebd
00000080: d531 b33d f593 e43d ff29 18be ee85 02be
00000090: cf57 4c3e e965 2bbc e7a7 e9bd eb63 98bd
000000a0: aac9 f73d 208d 07be f0e0 1c3e 33b2 72be
000000b0: 0af8 8ebc 5cdb fbbd 5d9a 0dbe f34f 273e
000000c0: ef84 c83d ae1f 0f3c ee18 0f3e 82ff 6fbd
000000d0: bc32 dcbc efc7 e03c a127 c53d c8f1 063d
000000e0: 5dc0 6cbc ca01 b4bd a952 08be 859b b1bd
000000f0: dcf9 d83b 2712 963c bdc7 61be 5cc8 edbd
00000100: 9cd1 31bd 8690 f1bd 4997 943d 84b7 173e
00000110: a83c 92bc c7d2 f1bd e05b 67bd 1733 07be
00000120: 6ec4 f8bd 79af e13d d298 123e 050f 4c3d
00000130: 1d52 4a3d 13d2 433d 7a4a 503c d68d 96bd
00000140: 4550 d53d 9682 4b3d 4d4c 183d 3534 09be
00000150: 45f0 443e 50e0 95bd 6ddc 0a3e 0b69 913d
00000160: f52a 3eba 1d8f b23d 164b 19be 2e48 643e
00000170: b72b 83bb 54de 4a3d 5140 b73c b411 a0bd
00000180: 2bc8 b23c aa69 9c3c 9f69 03be bc4e 21be
00000190: a406 4fbc c4c1 9ebd 038b 48bc d9d7 0f3d
000001a0: d884 b53d b3ca 0cbe 1c56 18be 8a15 a83d
000001b0: bf07 39bd 1220 1dbe 0a19 4bbe a827 7c3d
000001c0: 06db b33d 5e44 0ebe 3205 49bd c1d5 45bd
000001d0: f26e 13be c468 0abd 7039 553e d267 2c3e
000001e0: 300b 55be 6035 84bb fd3b e03d 870d 91bc
000001f0: 0257 1ebe 827a 39bd bac8 87bb e857 153e
00000200: e5b7 2b3d 7755 ef3d f3cb dfbd f2fd bd3d
00000210: 5327 08bc c585 193d 163b b73d d69c 0abe
00000220: c2ed fdbd e3bc 0fbe e940 9d3d 6bd4 71bc
00000230: 0973 01be 930f 503d bf3a eb3c fba0 12be
00000240: 8206 21bc e88e 7fbe e20e 9b3d b3e2 94bd
00000250: 30de 22be 73af 1abe 028c bbbd 56a8 a53d
00000260: 77e5 ba3d 526c 1ebd 82b9 113e 952f a53d
00000270: 2ae5 10be fdda 10be 5d79 0bbe b04f 1e3e
00000280: 4bf2 4a3e 38a7 fc3d d67b d0bc dd16 fe3d
00000290: e659 3c3d ee70 89bd 10bf c43c 5f10 223e
000002a0: e83f f53d 0460 1bbe 9f02 4c3e 355f 123e
000002b0: f249 e9bd 5d75 f93d 8201 39be b5b0 b03d
000002c0: a649 16bd c54e ea3c 031b ff3d 0bc6 39be
000002d0: 6caf b93d b800 4d3e d2dd 2cbc 530b c73d
000002e0: d336 a43d 5b0f c6bd ffbe a63c fe0e 26be
000002f0: f0de 123e 4bd6 5d3c b02c babd 097a a53d
00000300: bc66 243c 7ce4 fa3d 65f4 323d 79b3 9a3c
00000310: 2342 d6bc b088 d4bd 0053 3abe 1bae 9d3d
00000320: cc5d 38bd 78ab a6bd a68b 18bd c5a0 61be
00000330: 4d76 c5bd 73df f83d 538d f6bd e908 483c
00000340: cba3 babd 46ab 033e 04a5 90bd a4a5 f53d
00000350: 737f e73d 4dfb 5dbc f771 5d3e cef2 dabb
00000360: 0564 2ebe 1c02 c4bd a209 9abd 9789 e0bd
00000370: c179 95bd 8b19 c73d 6a73 07bd bc3d 7fbc
00000380: dc7c 563d c1d6 623d 580d 12be 2d7f 113e
00000390: d490 3fbd 812d 143b d903 8b3d 5167 afbd
000003a0: 563d a0bd f219 58bd d087 d33c e407 a53d
000003b0: 335c afbd 3963 2ebd 8d15 2dbd 36ff 283e
000003c0: ce77 a03c 7093 e5bc 472f cb3d b9e0 ebbc
000003d0: c454 46bd 94cb 093e 5981 273e 8759 dabc
000003e0: 1671 26bd a6d6 213e 59a2 c33d 2ed6 47bb
000003f0: 5e4c e3bc a7f5 02be 7bb5 42bd 4472 703d
0.14448498 0.06644358 0.0101060225 0.0047695106 -0.019723384 -0.057694975 -0.008009124 0.10244462
0.031575326 -0.094875485 -0.15801741 -0.10497867 0.14916728 0.1559182 0.020982478 0.17970373
0.31017292 -0.16452484 -0.1265251 0.050443202 0.111489646 -0.096256055 0.13390793 0.17067868
0.24578428 -0.12186007 0.10125988 -0.11648295 0.03640213 0.03293196 0.06452514 -0.034758322
0.08749739 0.11161033 -0.1485977 -0.12746403 0.19955371 -0.010461309 -0.11408978 -0.07440933
0.12099011 -0.13237429 0.15320182 -0.2370079 -0.017452259 -0.12297699 -0.13828416 0.16339092
0.0979098 0.00873558 0.13974354 -0.05859328 -0.02687966 0.027439086 0.09626699 0.032945424
-0.01445016 -0.08789404 -0.13312782 -0.08672241 0.0066215824 0.018319203 -0.2204885 -0.11610481
-0.04341279 -0.11795144 0.07255418 0.148161 -0.017851189 -0.11807781 -0.056484103 -0.13203083
-0.12146841 0.11019797 0.14316109 0.04981901 0.049394716 0.047807764 0.012713069 -0.07351272
0.10415701 0.049685083 0.03718214 -0.13398822 0.1923228 -0.07318175 0.13560648 0.071001135
-0.0007254326 0.08718703 -0.1497005 0.2229316 -0.004003014 0.049528435 0.022369536 -0.078158766
0.021823963 0.019093353 -0.1283326 -0.15752691 -0.012635861 -0.077518016 -0.012240174 0.035117958
0.088632286 -0.13749199 -0.14876598 0.08207233 -0.045173403 -0.15344265 -0.1983377 0.061561257
0.0878201 -0.13893268 -0.04907722 -0.048299555 -0.14397791 -0.03379132 0.20822692 0.1683648
-0.20805049 -0.004034683 0.10948942 -0.017706646 -0.15462878 -0.04528285 -0.0041438015 0.14584315
0.041923422 0.11686223 -0.10927572 0.09276952 -0.008310157 0.03748109 0.089468166 -0.1353639
-0.12398864 -0.14036898 0.07678396 -0.014760117 -0.12641539 0.050796103 0.028714536 -0.14319222
-0.009828212 -0.24956858 0.07571198 -0.07269802 -0.1590507 -0.15105991 -0.09157564 0.08088748
0.09125798 -0.03867752 0.14230922 0.08065716 -0.14149919 -0.14146037 -0.13620515 0.15460086
0.1981899 0.12336582 -0.025449675 0.124067046 0.04598417 -0.06710993 0.024016887 0.15826558
0.1197508 -0.15173346 0.19922875 0.14294131 -0.11391057 0.121805884 -0.18066981 0.08627454
-0.03669133 0.028602013 0.12456324 -0.18141954 0.09066662 0.20019805 -0.010550933 0.09718957
0.080182694 -0.096708976 0.020354746 -0.16216657 0.14342856 0.013539861 -0.09090555 0.08079917
0.010034259 0.12250611 0.043690104 0.018884407 -0.026154583 -0.103776336 -0.18195724 0.076992236
-0.045011327 -0.08138174 -0.037242554 -0.22033985 -0.09641705 0.121519946 -0.12038674 0.012209156
-0.09113272 0.12858304 -0.07062724 0.11994484 0.11303606 -0.013548684 0.21625505 -0.0066817766
-0.17030342 -0.09570715 -0.075213686 -0.10963743 -0.07298613 0.09721669 -0.03306905 -0.0155786835
0.05236517 0.055380587 -0.14262903 0.1420867 -0.04676898 0.002261013 0.06787843 -0.08564628
-0.07824199 -0.05275912 0.025821596 0.08058146 -0.085625075 -0.042575095 -0.04225688 0.16503605
0.019588377 -0.028024405 0.09921127 -0.02879368 -0.048420683 0.13456565 0.16357936 -0.026654018
-0.04063519 0.15804538 0.0955245 -0.0030492651 -0.027746376 -0.12789021 -0.047536355 0.058702722

encoder.cell.U_f.weight f4 [256, 256]
00000000: db50 9dbd 9a8a 1b3e ad75 1d3e a654 1b3e
00000010: f35f 3c3d 1c90 32be f575 08bd 578e 02be
00000020: db65 eb3d 84be 113e d062 543e 5d01 3a3d
00000030: 5aff 9dbd 752a a33d af2c ffbd 67cc 9fbd
00000040: 53c4 57be 2fef 583e 062b d63d 7c8b 7d3d
00000050: 1100 c43d f8c5 b23d 8e43 2e3d 91c2 fd3d
00000060: bf5c bdbc 895a 963e 16be 44bc 573a f23d
00000070: 7e4b c53d 4cd3 0c3d 3dc5 11be f619 2d3e
00000080: aac9 1fbd 7594 64bc 10d8 c53b 5208 ea3c
00000090: 9463 f3bb e345 d0bc 044b 4bbd 0b50 033e
000000a0: 5209 50be a185 4b3d 1339 2abd 42a4 4e3e
000000b0: 9f2c ffbd e540 6c3c 00fe 87bd f73c 203d
000000c0: fa2f 17bd 15a7 013c a8ca 4a3d bc95 d53c
000000d0: 8144 603e 5ff7 0cbe 635c 29be e1b5 8c3c
000000e0: e353 f13c 2f42 553c 357c 5ebc d08d b2bc
000000f0: 1a87 7cbd 4a4f ac3d fce7 523e 1345 653e
00000100: acc6 323e 5775 d23c b0f4 bf3d 57c5 31be
00000110: 4ec3 10bc 5d84 e43d c5ee 84ba 575e 52bd
00000120: a986 193e a44c 603e f9de d93d 7f2a 153d
00000130: ccdc b2bc c9dc 6a3d 138b 0cbd fa1f 85bd
00000140: 3716 7f3e be65 bebc 4df4 1d3e cd39 d53d
00000150: 903b a1be d55d 113e 40d3 8d3e 3428 403d
00000160: 7014 cb3d b295 83bc 940d 263e 61fd 163e
00000170: 8869 113d c551 9ebb 00af 173e 28d8 9b3d
00000180: be2e e63d 056b 253e 515a 6ebe 7d46 423d
00000190: 72f1 1e3e 7f2c 043e 2a99 073e 464f 9e3a
000001a0: 0236 84bd 237f c53d f0d3 66bb ce19 a2bd
000001b0: ad79 913d d1b7 f83d 45cd 803e 340e abbd
000001c0: 1973 8f3e 1090 813e 9070 443d c298 3c3e
000001d0: 352d 973d 8404 383d e195 81be 702b fe3c
000001e0: 515a bb3e d9ce 2f3e 8c63 923c 0eff 323d
000001f0: a700 123e de5f 923d 3334 5d3e 6eb7 50bd
00000200: 4ee8 9cbd e4ad 163d 9ad2 853c a8c5 843d
00000210: f36c 1bbd 65c7 8c3c 1c09 6f3d 77fa 52bd
00000220: 30b6 993d 2765 973c 89cf 683d 7bc4 733d
00000230: 348c aabd 6f19 a73d 23d2 ae3d 6abb be3b
00000240: a4fe 8739 7bc2 8c3d fe20 b23d 4bed ed3c
00000250: 121f 153d 70e2 b2bd 30f8 d3bc b104 2f3d
00000260: a219 2c3d 16a7 153e 08ce 483d 4763 c23c
00000270: b531 aabc 189b 973d 9eb7 b53c 39f7 4b3d
00000280: ea68 a73c 3943 853d ceb6 8c3c 0b94 f6bd
00000290: d524 a3bd 5dac d3bc c719 59bd af5c c93a
000002a0: d116 0abd d5b6 163d 3b43 afbd 937a fd3d
000002b0: 66d9 fabd 6d71 8e3d 0169 b53c 5c81 643b
000002c0: 74b8 a73c c334 a83d f3dc 063e a3c5 b53d
000002d0: 4518 973d a702 8dbd f658 04be d2e5 f3bc
000002e0: 8d6c 913d b462 653d ce3b c6bd fa04 d1bd
000002f0: ef6e f5bc 4242 55bd 6bb9 3e3e 1ef7 373e
00000300: 454d 9f3c 100e 3b3c 10cc 813d de21 ba3c
00000310: f993 e5bb 43d6 953d 2baf 8bbd a319 ef3d
00000320: aa50 f33c a2ce 283e 435f 163d 0b31 26bd
00000330: 14c1 4fbd 5313 bf3d 7638 3fbd 71f8 4d3e
00000340: 0985 a83d cb36 a3bc 9c3d 263d 109a e83c
00000350: 026a 473d 24a6 d23c d8d1 b63d c099 223d
00000360: 73b5 223e 7fa8 0f3e 5d0f dd3c 8139 713d
00000370: a764 9a3d 4ed3 833b 7344 9fbb e5e2 d5bd
00000380: bd51 253c 6c35 1e3e ce6e 05be 698f 05bd
00000390: 4cf1 8d3d 43d1 603e 5ed2 293e be67 aebc
000003a0: 3633 e8bc e136 f2bc 65b5 92b9 035c 8a3d
000003b0: bb8b 44bd 3844 ee3d 6383 033e 2765 f8bd
000003c0: c666 593d 1e4f a63d a017 a13c 8e7f b23d
000003d0: 6be7 023d b475 adbd 472d adbc 9a86 413d
000003e0: e49c fe3d f6e0 803c 11ad 4b3d 7886 3d3d
000003f0: a823 5e3c 61e4 77bd 9ee1 153e 0cae e5bd
-0.076814376 0.15189591 0.15376921 0.1516901 0.04598994 -0.17437786 -0.033315618 -0.12749611
0.11494037 0.14232832 0.20740819 0.045411456 -0.0771472 0.079670824 -0.124596946 -0.078026585
-0.21070985 0.21184991 0.10457425 0.0619006 0.09570325 0.08729166 0.042544894 0.12390626
-0.023115514 0.29365948 -0.012008211 0.11827534 0.096335396 0.034381196 -0.14235397 0.16904435
-0.03901068 -0.013951411 0.0060377195 0.02856842 -0.007427642 -0.02542395 -0.049632087 0.12823503
-0.20316055 0.049687985 -0.041558336 0.20179847 -0.12459683 0.014419769 -0.066402435 0.03912064
-0.03691099 0.007913371 0.049509674 0.026072375 0.21901132 -0.1376624 -0.16539149 0.01717657
0.029458946 0.013016268 -0.013579418 -0.021796137 -0.06165228 0.08413561 0.20596308 0.22389631
0.174586 0.025690718 0.09372842 -0.17360435 -0.008835627 0.11158059 -0.001014196 -0.0513595
0.14992775 0.21904236 0.10638232 0.03641748 -0.0218338 0.057339463 -0.03431232 -0.0650024
0.24910818 -0.023241874 0.15425225 0.10411415 -0.31490755 0.1419595 0.27700233 0.04691334
0.099160075 -0.016062591 0.16216117 0.14745094 0.035501033 -0.004831525 0.14812851 0.07609588
0.11239384 0.16154106 -0.2327664 0.047430504 0.15521792 0.12907599 0.13242021 0.0012078069
-0.06455614 0.0964339 -0.003522154 -0.07915078 0.07103286 0.12144435 0.25156608 -0.083523184
0.280175 0.25305223 0.04795891 0.18417647 0.073816694 0.04492618 -0.2530966 0.031026572
0.36592343 0.1716875 0.017869733 0.04370027 0.14258061 0.071471915 0.21601944 -0.050956182
-0.07661496 0.03678693 0.016335774 0.064830124 -0.0379457 0.017184922 0.058358297 -0.051508393
0.07505453 0.01848085 0.056838546 0.05951355 -0.08327523 0.08159148 0.08536174 0.0058206813
0.0002593893 0.06873032 0.08697699 0.029043814 0.036406584 -0.08734596 -0.025875181 0.042729083
0.042016633 0.1461452 0.04902461 0.02372898 -0.020775655 0.07402629 0.022182282 0.049796317
0.02043577 0.06506962 0.017177012 -0.12039956 -0.079660095 -0.025839025 -0.0530031 0.0015362705
-0.033713166 0.036795456 -0.08557745 0.12376895 -0.12248497 0.06955228 0.022144796 0.0034867143
0.020473696 0.082131885 0.13170223 0.08875587 0.07377676 -0.068852715 -0.12924561 -0.029772673
0.071007825 0.056002334 -0.096793756 -0.10206027 -0.029960124 -0.05206514 0.18625419 0.17965361
0.019446025 0.011416927 0.0633775 0.022721227 -0.007006165 0.07316258 -0.0682052 0.11674812
0.02970155 0.16485074 0.036711942 -0.040574115 -0.050721243 0.09329858 -0.046684705 0.20114304
0.082284994 -0.019923588 0.0405861 0.028393775 0.04868508 0.025713988 0.08926743 0.03969741
0.1588953 0.1402912 0.026984865 0.05889273 0.07538729 0.004022992 -0.0048604547 -0.10443667
0.010090289 0.15450066 -0.1303055 -0.03260747 0.06930789 0.21954827 0.16584155 -0.021289703
-0.028344732 -0.029567184 -0.0002798244 0.06755831 -0.04798482 0.116341054 0.12843089 -0.12128668
0.053076528 0.08120559 0.019664586 0.087157354 0.03195898 -0.08469716 -0.021139754 0.047247507
0.12432268 0.01573227 0.049725596 0.046270818 0.013558306 -0.060520533 0.14636847 -0.112148374
