ICTCS_notebooks/models/Tree_lstm_with_dropout.pth (torch, 778521 bytes, 12 tensors)

encoder.embedding.weight f4 [108, 32]
00000000: 0000 0000 0000 0000 0000 0000 0000 0000
00000010: 0000 0000 0000 0000 0000 0000 0000 0000
00000020: 0000 0000 0000 0000 0000 0000 0000 0000
00000030: 0000 0000 0000 0000 0000 0000 0000 0000
00000040: 0000 0000 0000 0000 0000 0000 0000 0000
00000050: 0000 0000 0000 0000 0000 0000 0000 0000
00000060: 0000 0000 0000 0000 0000 0000 0000 0000
00000070: 0000 0000 0000 0000 0000 0000 0000 0000
00000080: b3b8 52bf 226b a13f b209 ba3e 0e5a 143e
00000090: 18db d4be 6a4a b7be 8a43 1e40 4a87 6abe
000000a0: 4b93 71be 7d02 0640 8b25 82bf 368c 15bd
000000b0: 32e2 083f b9ea 863f 89a3 393f 8746 903f
000000c0: 739e bfbf 25ca 16bf 4cd4 14be 7b7d 6c3f
000000d0: 388f 803e e7e1 b1be 808b 5a3f e768 e23f
000000e0: 1a96 f03e fa9c ce3f adf8 e2be ac52 1d3f
000000f0: 3cc6 4abf 6480 4c3f 6c76 83be f985 3040
00000100: d712 963e 1dae aebf db00 333f a53e 8ebf
00000110: 394c a03f 72b3 0740 3a73 bcbf 3837 4dbf
00000120: d4a1 85be 9d92 87bf 7a3f 023f 09dc edbe
00000130: 36d2 75bf c471 7f3e 7ada 023e 5431 a83e
00000140: d3b1 91be 8b56 35bf d4cf 7f3e 1814 3040
00000150: a86d 8c3e 0e99 0e3f 9541 8c3e 1398 a63f
00000160: 9e5c 3cbf f3bc 633f 73a5 723d 8929 92be
00000170: 33e4 f03e 32c0 2fc0 1b59 c8bd f63a b63c
00000180: bbdb c63e b139 723f df86 153f b74f bf3f
00000190: 12b9 2b40 24b1 4cbf f4a9 5f3f e46e 94bf
000001a0: 0d96 2f3f ae49 2ebd 32ab c13e 0a05 32c0
000001b0: 845b 863e 88c6 473f fd47 99bf 6e2a 0dc0
000001c0: e4d2 b8bc 0d1f 78be 6654 d43e 7744 6c3d
000001d0: c3b3 a0be 8329 a13e e136 23bd f6f6 d83e
000001e0: 7770 3dbf dff5 ba3f e285 823f b0c2 8d3f
000001f0: 5e87 dfbe 93f0 d2bf 0f2c e23e 0320 b2be
00000200: baf1 16bf 0c22 4dbe b6f0 a63e 70c9 0a40
00000210: ca1f 45bf 1d15 97be c6b3 bdbf afc6 45bf
00000220: 144a 993e a2ea c1bf 0e6a 7f3e 3283 d3be
00000230: c75e 92bf 4330 0e40 7813 a4be 7d36 f0bf
00000240: c39b ccbf 729b db3f e6a9 cbbf 1122 693f
00000250: 526d b6be 9c47 993f 96e5 b0bf d115 f73f
00000260: 5a68 143f b2fc 9fbf 69d7 01bf e4a3 09bf
00000270: 4a48 5f3f 8f6f 91be 4ace f13d 5646 843e
00000280: f66e cf3f 4d7e 883f a714 f9bf df42 c9bd
00000290: fafa 1ebf 28c8 013f 9bff d83e 65cd b73e
000002a0: fd7c 93be 6d6c f63e 1ba7 d7bd c0cb 61bf
000002b0: e49d 773e a3f9 933f 90e5 24c0 0c59 3f3f
000002c0: 388a d0be 59ee 7abe f3b8 b6be 54ba 00bf
000002d0: c08e 2ebf 103d 7f3f 7a13 3a3f 3df4 d73f
000002e0: d5c4 7dbf 8d90 72be c913 873e 01b4 9c3d
000002f0: 2396 af3e 8dbb 433e c015 0b40 84c0 0bc0
00000300: 9cf4 f63d 9bc6 723f 7f13 e9be 11ca e43f
00000310: 6b0e 01bf 9c5d ddbe e370 d0bf d3cd 6cbf
00000320: b193 3abf c05b afbf 0fc4 e2be 9851 b8bf
00000330: 3cd8 1d40 2e7f 273f 3edb 03bf f431 b93d
00000340: f572 443d cb53 a5bf 4726 8ebd 7a53 243f
00000350: b5a2 f9bf d8a1 84be fd39 1d3f 71d5 b1bf
00000360: f432 debe c6b3 903f c438 b53d 739c 91bf
00000370: 4e93 5f3f 2186 fabe 6c47 2d3e c2c6 c4bf
00000380: d159 a5bf 3c95 913f f9c9 8ebf 9900 8bbe
00000390: b211 853e 2a20 503f 4dfd 05bf 406e a93d
000003a0: bf78 1e3f ba3a debf 4757 09c0 e3b9 a1be
000003b0: 10c2 a33e 248b 573e 3476 af3f 1553 2fbf
000003c0: b1a5 39bf 268d 973f 73d2 6fbf 2034 c83f
000003d0: 0b39 4e3d 93bc 14c0 a68c c73e ee29 f5bd
000003e0: 94b4 483f 40bf 1c3f 7f96 193f a390 f1bd
000003f0: 4290 7ebf 5ad8 59bf be8d 5140 853f 9dbf
0.0 0.0 0.0 0.0 0.0 0.0 0.0 0.0
0.0 0.0 0.0 0.0 0.0 0.0 0.0 0.0
0.0 0.0 0.0 0.0 0.0 0.0 0.0 0.0
0.0 0.0 0.0 0.0 0.0 0.0 0.0 0.0
-0.8231308 1.2610819 0.36335522 0.14487478 -0.41573405 -0.3579896 2.4728723 -0.22903171
-0.23591344 2.0939019 -1.0167707 -0.03651067 0.53470147 1.0540382 0.7251516 1.1271523
-1.497023 -0.589022 -0.1453411 0.9237897 0.25109267 -0.34742662 0.8536911 1.7688264
0.46989518 1.6141655 -0.4433035 0.6145427 -0.7920873 0.7988341 -0.25676286 2.758177
0.2931125 -1.3646885 0.6992318 -1.1112868 1.2523261 2.1203275 -1.4722664 -0.8016238
-0.26100028 -1.0591618 0.5087811 -0.46456936 -0.9602388 0.24945742 0.12778655 0.32850134
-0.28455982 -0.7083518 0.24981624 2.7512264 0.2742741 0.5570229 0.27393785 1.3015159
-0.7357882 0.8896019 0.059239816 -0.28547314 0.47049102 -2.7461057 -0.097826205 0.022244912
0.38839516 0.9461928 0.5840892 1.4946202 2.6831708 -0.79957795 0.873687 -1.1596341
0.68588334 -0.042550735 0.37825924 -2.7815576 0.26241696 0.7803731 -1.1975094 -2.2057147
-0.022561498 -0.24230595 0.4147064 0.05768248 -0.31387147 0.31476983 -0.03984726 0.42375916
-0.7399973 1.4606284 1.0197108 1.1075039 -0.43657964 -1.6479667 0.4417424 -0.34790048
-0.58962595 -0.20032519 0.32605523 2.1685448 -0.7700163 -0.29508296 -1.4820487 -0.7725629
0.2993933 -1.5149729 0.249428 -0.41311032 -1.1435174 2.2216957 -0.32046103 -1.8766629
-1.5985035 1.7156813 -1.5911224 0.91067606 -0.3563028 1.1974978 -1.3820064 1.9303533
0.5797173 -1.2498991 -0.50719315 -0.537657 0.8721968 -0.28405425 0.11806925 0.25834912
1.6205738 1.0663544 -1.9459428 -0.09827208 -0.6210171 0.5069604 0.42382511 0.3589889
-0.28806296 0.48129597 -0.1052992 -0.8820152 0.24181324 1.1560558 -2.5765114 0.7474525
-0.40730453 -0.24504985 -0.3568798 -0.50284314 -0.6818657 0.9970255 0.7268597 1.6871411
-0.99128467 -0.23687954 0.26382282 0.076515205 0.34294233 0.19114514 2.1732025 -2.1836252
0.12058374 0.948343 -0.45522687 1.7874166 -0.50412625 -0.4323548 -1.628445 -0.9250156
-0.7288161 -1.3699875 -0.44290206 -1.43999 2.466323 0.65428436 -0.5150641 0.09042731
0.047961194 -1.2916197 -0.069408946 0.64189875 -1.9502779 -0.25904727 0.6141661 -1.3893262
-0.4339825 1.1304862 0.08848718 -1.137587 0.87334144 -0.48930457 0.16921777 -1.5373156
-1.2918035 1.1373668 -1.1155387 -0.27148893 0.25990063 0.8129908 -0.5233963 0.08272982
0.61902994 -1.7361672 -2.145952 -0.31587133 0.31983995 0.21049172 1.3707948 -0.6848615
-0.7251845 1.183995 -0.93680495 1.5640907 0.05034737 -2.3240097 0.38974494 -0.11970888
0.7840054 0.61229324 0.59995264 -0.117951654 -0.9943887 -0.8509575 3.2742763 -1.228501

encoder.cell.W_iou.weight f4 [384, 32]
00000000: ee0d 233e 9a3a c5bd ff8a dabc a4bf 63be
00000010: cce2 20be 4f40 cabd 261a 153e b90b 063e
00000020: 6c65 443a 245a 97bd 1617 24be ded5 c4bd
00000030: e63b eebc b4f9 2a3d c4b5 64be 3dfc 8bbd
00000040: 7030 e83d dc7e e73c 72a5 00be 4544 283e
00000050: 7622 dfbd 0fa1 edbd 0e98 873d 1948 383c
00000060: dfd6 9bbe a3f9 9ebc 3570 483e d89d 283d
00000070: 20f2 0bbe acb3 283e 1d16 1a3d 4be6 7fbe
00000080: 1e0f 013e 1f80 883b 85e9 793d 4ad0 333e
00000090: 0397 e03e e84f 76bd 271b d23d 2e03 8fbe
000000a0: 85c7 b83c 9d73 7cbd b453 bd3e e080 abbc
000000b0: 05e4 503d 5010 3abe ef66 1fbd 6beb 903d
000000c0: ef72 3c3e f9bb 10bd 3a06 b83e ae8a 0e3e
000000d0: ad0b 343e f07b 2abc 7e40 c8bd 9856 153e
000000e0: 1af4 893d c432 023d 7493 54be d9d6 20be
000000f0: 42bc e23d b235 9dbd 9d39 a5bd a85f babd
00000100: eb3b 1fbd 7625 9b3d caed 853e 6f5e 0c3e
00000110: de73 f23d 8c3e 07bd 0c62 b7be 2b9c adbe
00000120: 1501 68be e2f3 8fbe 6103 123e 7e59 dbbe
00000130: 58a8 113e 7489 d73d 8061 163e 54b0 06be
00000140: 8958 893d 0531 78be c98f 40be 3948 27be
00000150: e564 333d 4dac 84bd 965d 4ebd c047 44be
00000160: 6e68 37be e502 7bbd 74ed 3abe 0fdf 193e
00000170: 4b0a 703d 1218 a63b 0015 953d 1eaa 0f3d
00000180: 1a2a 1ebe fac6 f73d a33d 973c fcc0 8cbe
00000190: b8cb 3bbe 72b8 20bd f6db 793e 443a a23d
000001a0: 76eb f13c aa01 083f 1aa4 cabb 5f0d 433e
000001b0: f6f1 953d 9efa bc3d 7834 383d 42ab 863e
000001c0: 4ff9 f0bd e7c3 adbc 88e0 513e 4525 2dbe
000001d0: bad5 b13e 5e27 4cbd 2d57 1fbd aa61 79bd
000001e0: 16be a63d 9e02 3d3e b939 7dbe 011a ecbd
000001f0: f546 13be 3674 a93e ed5a b2be 4598 cf3e
00000200: 76c7 d13d ae0a bf3d ee59 dbbd ae9c dd3c
00000210: 2c07 e33d 8f12 573e 096e 92be 23e1 bebe
00000220: 35ce 413e 199d 93be 1c7a e53b f5a3 4dbe
00000230: cbe6 82bd 6863 a93d 4040 e9bc aca5 84be
00000240: c9f5 3abe 09f9 86bc b656 b1be bdb5 1b3e
00000250: ca0f a7bd 4b7b ad3c f3b0 3f3d c837 b43d
00000260: ceb7 ddbc 20fa 63bc 4a51 44bd 07eb 08be
00000270: deec 5c3e 5b22 333e 166a 923e 6970 d2be
00000280: 680c 6f3e 4f25 f8bd af25 47bb f1ea 5c3e
00000290: 7a29 173e 8bb1 543d f85a 98be a4c1 223c
000002a0: 20fd 46bc 488c 2abe 44c0 553e 5f13 783d
000002b0: ceea 83bd 737c 9ebb 9f5d 87bd baa6 a2bd
000002c0: 850b 003e ee66 7d3e d697 193e be25 383d
000002d0: 3e8c 2b3e e872 4f3e 08e4 03be 7999 233e
000002e0: 2813 e83d 5096 5fbe a76b 95bd 7ab8 96be
000002f0: 1554 313c 8bda 42be 69e0 d5be a378 c9bd
00000300: 6391 51be e5db 303e 370f 3ebd 4e12 283d
00000310: 411d 9b3e 2dce 133d 50a3 f73d d43b 8fbb
00000320: 5f4f 563d 32d6 303e 40fd 16bc 6241 b33d
00000330: b072 823c 9b88 cebd 8fc0 1b3e 9a27 e13d
00000340: 47ba cf3d d219 a0bd 3944 68bc 14f2 63bd
00000350: e7de 343e b392 65bb 46aa 8cbd fcb5 a83d
00000360: ac20 823e 8d7d 9b3d f817 a1bd 4df8 e5bc
00000370: 10a1 c2be 77a8 dcbc d1b3 83be 37d5 363e
00000380: 4b4e be3d 7888 1bbe 2390 1d3e a931 903d
00000390: 85a6 b63d e3cf fbbd a812 f0bd ca73 cf3e
000003a0: 372a babd 6e74 933e c55b a33d 5afb 883e
000003b0: ffad 63be 4d7a 95be 41ed 063e f87e d5bd
000003c0: e5d9 1d3e a1a6 7cbe c841 a7bd 384b c2be
000003d0: 4f94 943d 5d93 51be ff56 b6bd 7a4a 6fbd
000003e0: 6a67 7ebe 1a39 1ebe e714 893e 99d4 6b3d
000003f0: 874b cd3d 1229 063d f7cd 53be d7a2 0dbe
0.15923283 -0.09630318 -0.026677607 -0.22241074 -0.15711516 -0.09875547 0.14560756 0.1309041
0.00074919197 -0.0739024 -0.16024432 -0.096111044 -0.029081296 0.04174204 -0.22334963 -0.0683522
0.11337364 0.028258733 -0.12563112 0.16432293 -0.10895245 -0.11602985 0.06620799 0.011247658
-0.3043737 -0.019406145 0.19574054 0.041166157 -0.13666582 0.1647479 0.037618745 -0.24990194
0.12603423 0.004165664 0.061013717 0.17559925 0.43865213 -0.0601348 0.10259085 -0.27932113
0.022556076 -0.061633695 0.36977923 -0.020935476 0.050998706 -0.18170285 -0.038916524 0.070761524
0.18403219 -0.035335515 0.3594225 0.1392009 0.17582579 -0.010405526 -0.09777926 0.14583814
0.06736012 0.031786695 -0.20759374 -0.15706958 0.110710636 -0.07676257 -0.080676295 -0.09100276
-0.0388755 0.075755045 0.2615798 0.13707899 0.11838506 -0.033018634 -0.3581699 -0.3390821
-0.22656663 -0.28115755 0.14259101 -0.42841715 0.14224374 0.10524264 0.14685631 -0.13153201
0.0670634 -0.2423745 -0.1880485 -0.16336145 0.043797392 -0.06478176 -0.05038222 -0.19167995
-0.1791093 -0.061282057 -0.18254644 0.15026496 0.058603566 0.0050687874 0.07279396 0.035074346
-0.15445748 0.12098499 0.018462008 -0.27490985 -0.18339431 -0.0392384 0.24400315 0.079212695
0.029531222 0.5312754 -0.006184113 0.1904807 0.07321541 0.09227489 0.044971913 0.26302534
-0.11766302 -0.021211578 0.20495808 -0.16908748 0.34733373 -0.04984223 -0.038901497 -0.060884155
0.08141725 0.1845803 -0.2472905 -0.11528397 -0.14382537 0.33096474 -0.34834996 0.4054586
0.10243122 0.09328209 -0.10710512 0.02705225 0.11085352 0.21003173 -0.28599575 -0.3728114
0.18926318 -0.28830793 0.007003082 -0.20082076 -0.063916765 0.08270913 -0.02847302 -0.25907648
-0.18257822 -0.016476171 -0.34636468 0.15206046 -0.081573084 0.021176955 0.04679961 0.08799702
-0.027065184 -0.013914615 -0.047929086 -0.13370906 0.21574733 0.17493574 0.28596562 -0.41101387
0.23344576 -0.12116491 -0.0030387451 0.21573998 0.14761916 0.05192713 -0.29756904 0.009933863
-0.012145311 -0.16655076 0.20874125 0.06056535 -0.0644127 -0.004836613 -0.06609654 -0.07941957
0.12504394 0.24746296 0.14999327 0.04495787 0.16752717 0.20258677 -0.12879956 0.15976514
0.11331779 -0.21834683 -0.07295924 -0.2943762 0.010823269 -0.1902868 -0.41772774 -0.09837463
-0.20465617 0.17271383 -0.04640123 0.04103308 0.30295756 0.036085296 0.12091696 -0.0043711457
0.052321788 0.17269209 -0.009215653 0.08752705 0.015923828 -0.10084649 0.15210174 0.109938815
0.101429515 -0.07817425 -0.014176422 -0.055650786 0.17663155 -0.0035030067 -0.068684146 0.08237836
0.25415552 0.07592306 -0.078659 -0.0280725 -0.38013506 -0.026935799 -0.25723127 0.17854773
0.09292277 -0.15188777 0.15387015 0.07040722 0.0891848 -0.122955106 -0.117223084 0.40518028
-0.09090083 0.28799766 0.07976488 0.26754266 -0.22234343 -0.2919487 0.13176443 -0.10424608
0.15415151 -0.24672939 -0.08166844 -0.37948012 0.0725485 -0.20466371 -0.08903312 -0.058420636
-0.24844137 -0.1545147 0.2677376 0.057575796 0.10024171 0.03275401 -0.20684038 -0.1383165

encoder.cell.W_iou.bias f4 [384]
00000000: 8101 753e 449a 87bd 684f dc3d 63ab 99be
00000010: 965d 483d 8bb1 d6bd 5487 5fbe 3852 4cbe
00000020: 8ba3 ffbb 3dff 93bd 4e1e 5b3e b5c5 8dbd
00000030: edf9 08be a1b7 2e3d 5d05 9bbe 1f18 b23d
00000040: 2bde 043d b868 8dbe c0f8 a13d 2ef9 fdbd
00000050: a970 53bd 517e a23c 38d7 4abe 526d d1bd
00000060: 45a0 813d 4e9a d93c 9613 42be 395e 00be
00000070: 7799 7e3d 9855 86be 1ed6 ebbd 2ea3 9f3c
00000080: e5ec abbd a2d0 5f3d 7ba0 413c eb2b 2bbd
00000090: 47d5 4dbd 0208 58be 54f7 d33d b237 23be
000000a0: 8a79 00be b7ad c43c 3632 663d 77e4 873e
000000b0: 017b 3cbd 6474 a13d 974e 653d 8050 0dbe
000000c0: 8aa9 1c3e a95d 803e 10ca 113e 0bc6 033e
000000d0: e372 67bd 6ac4 13bd dcba 8fbd 9549 2e3d
000000e0: c22b 06bd 0349 0f3e a245 f4bd edc3 2dbe
000000f0: 11d0 0abe 208d 87bc 22e1 bbbd b925 89be
00000100: a834 2ebe 1fa6 623d 5532 16be a40f 2cbe
00000110: 16fb f6bd 1ec9 78bb 904a 04be 65ac c9bc
00000120: 27a1 6c3e 5a81 4c3e 091a 87be cf28 953c
00000130: d95e 1bbd 1e6a 6abe 0cb8 6dbc 4bf8 b8bd
00000140: 00ef eb3a 059d 95bd c411 1e3d 5db2 6dbe
00000150: 9f25 dcbd 34c6 e9bd a0a8 61be 3b8c 233d
00000160: b698 abbc 2346 563d ef14 883d 8736 2fbd
00000170: 7ec7 94bc c3ed 2ebe e2c4 b2bc 01bd 2a3d
00000180: 7c04 123d 5e39 a23c c798 2dbe 5571 e0bd
00000190: d4dc 09be 32cd 2e3d 8376 3cbd 83a3 223d
000001a0: e2d9 17be 9972 033e c9d1 51be 2e1b 81be
000001b0: f9dd 4abe 00b6 aebd df9f bbbd 32b8 2bbe
000001c0: d8f6 b23d 4130 bdbd 5a26 4b3d f9c8 1bbe
000001d0: 3167 ccbc 5793 183e 88d6 1a3d 2e97 323d
000001e0: a24f 353d 9ce9 ca3d 63e8 593d 84e7 edbd
000001f0: 06ef b5be 0b3d f3bd 3f01 a6bd 3882 16be
00000200: a7e3 16be 7680 c3bc 606c 523e 6aee e5bc
00000210: 4ecd 663e 8439 82bd f00e 603b 8659 a93d
00000220: 9712 933d f852 5f3e 3f94 c53d 086a 9e3d
00000230: 9ba8 e83c 4bca e6bc 8cf0 443e 30ed f73d
00000240: 7bcc 4bbd 9a84 a73c 4eda fd3d 1e1c 0dbe
00000250: 7051 69bd 2a13 0abd 3e17 10bd 55c4 16bd
00000260: 1983 08be a1bb 3c3e 8958 5bbd b982 28be
00000270: ff30 7b3e f90b 67be 382a c03c de22 eebd
00000280: 4a9e 1dbd 5e32 bebd 1a36 a6bd c0be 803e
00000290: 6fba 3a3e 3784 19bd e9ec 4ebd a61a 4cbc
000002a0: cac6 eb3d dedc 873e 293e 603e eb60 953e
000002b0: ed2d 3ebe aaa5 003e 4a34 78bd 6410 583e
000002c0: ed5b a43d 958c adbd 1c21 19be af25 f23d
000002d0: c6fc 3c3d f641 2d3c 8703 9cbd 6680 eabd
000002e0: ac89 293e c31a 033c 4832 f0bd d3d0 aebd
000002f0: 6033 22bc c315 bfbc b0a3 d53e ceb5 003f
00000300: cc8a 20be 6753 e53d e9eb 1a3e b53b e33c
00000310: 65a5 f1bc 1b73 923d a940 3bbe 6335 1f3e
00000320: 37f4 173c 5fbb 173e 8924 01be bd4b 51bd
00000330: 1671 0fbd 758a 2fbe 541b fe3c a586 90bb
00000340: c4fe 903d 148f 06be 97c4 c7bd 3c16 193e
00000350: 0ca6 6ebe 0d65 76bd 8261 efbd c4a8 41bd
00000360: 0229 ca3d d376 1abe 0118 8fbd 6d39 c7bd
00000370: 276e 203e 12de 1fbe 2020 553e 049f 0abd
00000380: 532b b13c 9c9d 7abd d258 293d 5813 3f3c
00000390: 9c3c 8bbd a87d 013d 102b a23d 8f8a f8bd
000003a0: 2f8e 5dbe 5a0c 2a3e 3460 dcbd be9e 61bb
000003b0: a31d 033e 06ac 573e 5352 253d b77f 6a3c
000003c0: ee0b d43d 5d84 213e 2393 ca3c fa19 1dbd
000003d0: 15cf 9ebd ecd3 09bd fe39 21be 91b3 713d
000003e0: e55c 26bd 59fb d43c 39c5 1f3d 187b c73d
000003f0: 7956 be3d ddd4 d4bc ba1c f43d 8111 3c3e
0.23926355 -0.06621221 0.10757333 -0.3001357 0.048917376 -0.104830824 -0.21828967 -0.19953239
-0.0078014783 -0.07226417 0.21398279 -0.06922475 -0.13376589 0.04265559 -0.3027753 0.08696007
0.03243844 -0.27618957 0.079087734 -0.12401043 -0.051621113 0.019835623 -0.19808662 -0.10225929
0.06329397 0.026562836 -0.18952784 -0.12535943 0.062158074 -0.26237178 -0.11515449 0.01948699
-0.083947934 0.054642327 0.011818047 -0.04178993 -0.050252225 -0.21096805 0.103499085 -0.15939215
-0.12546363 0.024008615 0.05620023 0.26541492 -0.046015743 0.07883528 0.055983152 -0.1380024
0.15299049 0.25071457 0.14237237 0.12868516 -0.05650605 -0.036075987 -0.070180625 0.042550642
-0.032756574 0.13992696 -0.11927344 -0.16969271 -0.13555934 -0.016546786 -0.091738 -0.26786593
-0.17012274 0.055334207 -0.14667638 -0.16802841 -0.120596096 -0.0037961672 -0.12919068 -0.024618337
0.2310835 0.19971219 -0.2638705 0.018207936 -0.03793225 -0.22892043 -0.014509212 -0.09031733
0.0018000305 -0.0730534 0.03859116 -0.23212571 -0.10749363 -0.11414757 -0.22036982 0.039928656
-0.020946842 0.05231298 0.06644618 -0.04277661 -0.018161532 -0.17082886 -0.021822397 0.041684154
0.035648808 0.019802745 -0.16952811 -0.10959116 -0.13463145 0.04267616 -0.04601146 0.03970672
-0.1482921 0.12836684 -0.20490183 -0.2521605 -0.19811238 -0.085308075 -0.09161352 -0.16769484
0.08738488 -0.09237719 0.04959712 -0.15213384 -0.02495155 0.14899956 0.03780225 0.043601207
0.044265397 0.09907839 0.053200137 -0.11616424 -0.35533923 -0.118768774 -0.081057064 -0.14698112
-0.1473528 -0.023864966 0.20549154 -0.028067786 0.22539255 -0.063586265 0.003418859 0.08269028
0.0718128 0.21808994 0.09647416 0.077350676 0.02840071 -0.028172633 0.19232386 0.12105787
-0.049755555 0.020448972 0.12395154 -0.13780257 -0.05696243 -0.033709683 -0.035178415 -0.03680833
-0.1333126 0.1843095 -0.05355123 -0.16456117 0.2453041 -0.22563161 0.023457631 -0.11627744
-0.038481034 -0.092869505 -0.08115788 0.2514553 0.18235181 -0.037479606 -0.050518904 -0.012457525
0.115125254 0.26535696 0.21898712 0.29175505 -0.18572207 0.12563196 -0.06059674 0.21100003
0.08025346 -0.084740795 -0.14954036 0.11823594 0.0461395 0.010574808 -0.0761786 -0.11450271
0.16556424 0.008001986 -0.117283404 -0.08535924 -0.009899944 -0.023325806 0.41726446 0.5027741
-0.15677947 0.11197548 0.15129055 0.027738431 -0.029497812 0.07150861 -0.18286385 0.15547709
0.009274534 0.1481757 -0.12611593 -0.05109762 -0.035019957 -0.17142661 0.03101889 -0.004410582
0.07079843 -0.13140517 -0.097542934 0.14949888 -0.2330553 -0.060154963 -0.1168852 -0.047280088
0.09871103 -0.1508439 -0.06987 -0.0972775 0.1566702 -0.15612057 0.20813036 -0.033843055
0.021627104 -0.061185464 0.04134447 0.011662327 -0.0679867 0.031613976 0.0791837 -0.12135803
-0.2163627 0.16606274 -0.10760537 -0.0034426893 0.12804274 0.21061715 0.040361714 0.014312676
0.10353838 0.15773149 0.024728363 -0.03835485 -0.077543415 -0.03364937 -0.15744779 0.05900914
-0.040615935 0.025998758 0.039006446 0.09740275 0.09293837 -0.025980407 0.11919542 0.18366052

encoder.cell.U_iou.weight f4 [384, 256]
00000000: e6ce 163d 51e8 9e3d 3393 533e 9625 1d3e
00000010: 34d6 93bd 48ee 483d 08f4 c93d d83c 91bb
00000020: 9e1c dcbd e355 b4bd 2d7b 11be f126 e63d
00000030: 5f2f 79be d999 0d3e 5caf ea3d 9aab cfbc
00000040: 2d6a e33d 0eff f43d 6c81 0d3d 6e06 123e
00000050: be93 853d 600f 49be 5783 8f3d b90e 4e3c
00000060: d78f 413d db59 2b3c 17f9 383d fd75 243e
00000070: 6b52 0f3e 97ca 193e adbc 33bd 5400 333d
00000080: 5d97 8bbc 63e4 cf3c 3049 a33d ac09 93bd
00000090: 2f72 d53b 9f98 08be 9eb7 623b 8287 3abd
000000a0: 8627 afbc b3fa f23d f1c0 86be 913e 753d
000000b0: fb93 12bd 1c83 843e a3e6 4a3e fe25 27bd
000000c0: 15d6 62bc f2cb dcbd 914a 4e3e c26a 08be
000000d0: 5e9c c83d f590 97be 7a7c dd3c 19c5 d93d
000000e0: 62b1 083e 3c6a 68be 69df f73d e823 1b3e
000000f0: bedf c2bd 6cb8 2bbd a0fb e53d c28c 45be
00000100: dc84 1abd 3dd1 3ebe b3c1 6abe b894 6ebe
00000110: 7da1 7abd 5218 723d 3c3b aebd 9d71 3e3e
00000120: 8404 bd3d 4bfb 233e 996f 733d 36a8 92be
00000130: 3069 9cbb a514 183c 521a 073d 7dde 3b3c
00000140: 04dd 45bd 977c bd3d 2efa 123e 4e9b b83d
00000150: 78c0 043e d83b 1f3c 00ac 73bd 6a81 853c
00000160: b869 f23d c859 29be 6214 a33b ad87 223d
00000170: 2808 293e 4763 aebd 57ca f2bd 9304 bfbd
00000180: 9d76 7fbe d722 ef3d 0c61 7ebd caab d13d
00000190: ec56 183e 150b 4a3e ec79 6cbd 4a38 9b3d
000001a0: c01c c6bd 329e 16be f40d e1bd e6f7 f1bd
000001b0: 133e b0be 2337 2b3e 438d 753e a177 81be
000001c0: 2028 0a3e ac5b b1bb 5d7b ffbd 94e3 15be
000001d0: c6ce 4b3c eba5 9a3d 88df 1c3e f5fe 45bd
000001e0: dfb9 0abe 38d8 3bbe 0b8e 713d 779c 99bb
000001f0: b6ff 683e cb12 8ebd 2660 f73d 5885 7c3d
00000200: b599 36bd 2843 9f3b 855d 443e ef90 a8be
00000210: 7b0b de3b 4b14 153d 0c6d d5bd 550a 3b3e
00000220: 8123 893d fc79 293e d6a3 463e 40c2 87bd
00000230: 6ebf 903e a8e1 87be 0a0f 1c3d ba84 94bd
00000240: 44e8 05be a665 dabe 10e0 7fbd e4c2 ca3c
00000250: 909e 9b3d e31b a9be bf53 65bd d8ec 573d
00000260: 9628 00be f042 083d 4752 9dbe eb00 053e
00000270: dd49 5a3e c5f1 15bd 59a8 92be 2f9a 223e
00000280: 7a0f f2bd 6d9c 0a3d 66dd 68be 1d58 4a3d
00000290: 06ba f3bd 2391 2fbe 451c 6e3e 54dd cabd
000002a0: 6626 94be 2af2 0f3e 4f06 943e 6761 523d
000002b0: 8e0b 083e 0404 c03d 352a a03c a8d7 993d
000002c0: 3409 3ebd 412d ce3d 644c 90bd bc6c 143e
000002d0: 9c0b 7ebe 955f b7be d77b 25bd 5a96 0ebd
000002e0: db37 ba3d e3ee 973e 1ce2 51bd 833e b0bd
000002f0: ea3f a9bd e5b6 623d 788d de3d e51a 013f
00000300: 3f8e ecbd bdd8 dd3c e036 803d d78f 84be
00000310: 8021 d4bd 2225 793d b96d febd 560b 7dbc
00000320: d2c4 e03d 66f7 cdbc 2008 47be 356b b0be
00000330: b1d7 c238 0ed6 c6be b4af 16bc 756d 2dbd
00000340: 30a6 b73d 440f 003c afcf 1abe 4072 79be
00000350: f6e6 3ebe e665 7b3d ebe2 b2be ad05 2ebb
00000360: fc6d 96be 36c5 babe 6c18 fc3d b516 13be
00000370: 6aae 6bba 7142 0bbd 250e debd 3e46 323d
00000380: c054 9abe f7fa f3bd d246 95bd 7749 963e
00000390: 896f a8be 3436 113c 7991 ad3c fe32 803c
000003a0: f7d0 333e 15e6 e93d 2505 4abe 2ebb 353d
000003b0: 4110 9c3e 9543 a9bd e914 b13b 0db7 63bc
000003c0: 785f 99be 9ced 53be 67d9 c73e 1ecf 8bbe
000003d0: aee1 a33d 1258 803d 24c4 323e c1db 023e
000003e0: 0aa1 20be 4f78 94bd a723 74bd f5f0 8dbe
000003f0: e548 cabe 5d70 cc3d c935 8bbd 353a d0bc
0.036818407 0.077591546 0.20661621 0.15346369 -0.072185904 0.049055368 0.098609984 -0.004432302
-0.10747646 -0.08805444 -0.14207144 0.11237896 -0.24334477 0.1382822 0.114592284 -0.02535038
0.11104236 0.1196271 0.034547254 0.14260265 0.0652232 -0.19634771 0.07007473 0.012576752
0.047256317 0.010458435 0.045159426 0.16060634 0.13996284 0.15018688 -0.043881107 0.043701485
-0.01703995 0.025377458 0.07972944 -0.07179579 0.006513856 -0.1333947 0.0034594308 -0.045539387
-0.02138115 0.11864223 -0.26319078 0.05987412 -0.035785656 0.2588128 0.19814543 -0.040807717
-0.013844986 -0.10781087 0.20145632 -0.13321975 0.0979545 -0.2960278 0.027036894 0.106332965
0.13348916 -0.22696775 0.12103159 0.15150416 -0.09515332 -0.041923925 0.11229634 -0.19291976
-0.03772436 -0.18634506 -0.22925453 -0.23298919 -0.061189163 0.059105225 -0.08507392 0.18598028
0.09229377 0.1601383 0.0594326 -0.2864396 -0.0047732815 0.009282266 0.032984085 0.01146662
-0.04830648 0.09252279 0.14353248 0.09013997 0.12964046 0.009718858 -0.059490204 0.016297061
0.118365705 -0.16538155 0.004976795 0.03968017 0.16507018 -0.085150294 -0.118549995 -0.09327044
-0.24947591 0.11676567 -0.06210427 0.10237844 0.14876908 0.1973079 -0.05773346 0.07579096
-0.096734524 -0.14708784 -0.109889895 -0.11814861 -0.3442236 0.16720252 0.23979668 -0.25286582
0.13491869 -0.0054125395 -0.124747016 -0.14637595 0.012439435 0.075511776 0.15319645 -0.04833885
-0.13547467 -0.183442 0.058973353 -0.0046878415 0.22753796 -0.06937178 0.12078886 0.061650604
-0.04458018 0.0048603006 0.191763 -0.32923076 0.006776271 0.036396306 -0.1042119 0.1826566
0.06696225 0.1655044 0.19398436 -0.06628847 0.2827105 -0.2653935 0.03810028 -0.07251878
-0.13076884 -0.42655677 -0.062469542 0.024751134 0.07598603 -0.33029088 -0.05598807 0.052716106
-0.12515482 0.03326696 -0.30726835 0.12988631 0.21317239 -0.036607523 -0.28644064 0.15879129
-0.11819358 0.033840586 -0.22740707 0.049400438 -0.119007155 -0.17145209 0.23252971 -0.09905496
-0.28935546 0.14057222 0.28911063 0.05136242 0.13285658 0.09375766 0.019551376 0.07511836
-0.046395496 0.10067225 -0.0704582 0.14494604 -0.24809116 -0.3581511 -0.040401306 -0.034811355
0.09092685 0.29674444 -0.051241025 -0.08605673 -0.08264144 0.055350203 0.10866827 0.5043166
-0.11550569 0.027080888 0.062604666 -0.2589099 -0.10357952 0.06082643 -0.12423272 -0.015444597
0.109750405 -0.025142383 -0.19436693 -0.34456792 9.2908165e-05 -0.38835186 -0.009197164 -0.042340714
0.089672446 0.00781614 -0.15118288 -0.24359989 -0.18642792 0.061376475 -0.3493875 -0.0026553676
-0.29380786 -0.36478585 0.123093456 -0.14364131 -0.00089905283 -0.03399891 -0.108425416 0.04352402
-0.30142784 -0.11913102 -0.072888985 0.29352924 -0.32897595 0.008863021 0.02118753 0.015649315
0.17560183 0.11420838 -0.19728525 0.04436796 0.3048115 -0.082648434 0.005404104 -0.013898623
-0.2995565 -0.2069611 0.39033052 -0.27306455 0.08002029 0.06266798 0.17457634 0.12779142
-0.15686432 -0.072495095 -0.059604313 -0.27722898 -0.3950874 0.09982369 -0.06797368 -0.02541838

encoder.cell.U_iou.bias f4 [384]
00000000: 277c 693d bda9 12be c481 ec3d 1884 e4bd
00000010: 34c3 983d 3a75 31be 79c7 65bd 2145 2bbe
00000020: 59ce d6bd 4ab8 99bc 0c52 1a3d 8be6 1cbe
00000030: a903 88bd 1329 22bd 0bdf 3cbe 8129 a8bd
00000040: ed3e e63d b703 39be a53f 1bbd 99f2 d23d
00000050: 78d8 b1bd 4c4c a4bd 4aa3 b7bd 9319 fbbd
00000060: 8647 01be 2d14 ce3d 8a5a 4bbe 125c d0bd
00000070: d010 a33d f714 1cbe d1e0 0fbe 12cb a43d
00000080: 7119 7c3d 4326 2fbc f6e7 47be 6eca 863a
00000090: 09d0 50bd b646 12be 4a55 08bd 7ca7 d8bd
000000a0: d9de 1abe 1808 06bc 5c89 27be 96f1 d83d
000000b0: 06ef 153e 9183 873d c5a6 653c 8dec 773d
000000c0: 2010 b23d f7f3 093e 7df4 e53c 1abb 403d
000000d0: 0815 3abe c77b 93bd a05c c6bd 9417 273c
000000e0: 3096 e3bd efa2 a6bc cd39 30bd 883a d3bc
000000f0: 936b 07be e2bf 06be e889 a3bb 3c3a 88bd
00000100: 78b5 83bc 8b39 adbd 0dd1 08be 5f50 30bd
00000110: b207 8ebe 6859 e83d c501 eebd f77c dbbd
00000120: 09b0 a83d 95cb f43b 8023 d1bd 9c48 2abe
00000130: ee0b 3dbd 3eaa b3bd 0890 6abd 0dab 50bd
00000140: c394 6fbd 646d d5bd e67a 9bbd dc92 52be
00000150: 03af 46be 16bf a9bd 5fc4 d3bd b362 093d
00000160: 70a1 b8bd 87d1 f2bd b581 d13d 2421 4cbd
00000170: a784 6c3d ee0b ddbd be6c c2bd d19c 17be
00000180: 994e d9bd d92c bfbd 08dd 2abd d808 a8bd
00000190: 1082 c3bd 3a5b 013d 23b9 15be 0028 d83d
000001a0: 9d9b 2cbd 215c 1b3c 17e0 c5bd 137a 46be
000001b0: 0eaa b7bd fc40 b43c 1f98 8cbd b756 a6bd
000001c0: 20fc 00be da7f 2fbe 8c0a 9e3d 587e c4bd
000001d0: e954 5b3b 2d7c ef3c 61b6 8c3d ba7f ed3d
000001e0: 0a03 86bd 2c09 46bd dd95 49bd cad4 f4bd
000001f0: e0be 3ebe 2ffd 853d 4c7c 553d 1c9a 27bd
00000200: a506 fb3c c8fa a4bc dd17 8e3d 9df6 bebd
00000210: 9362 143d a202 893c 8a9e c2bd 1f0d 4ebc
00000220: 5436 d63b 5639 213e e9df cc3d fbf6 243d
00000230: ffea d53d aa3c a53c 7854 ec3c dfba 88bc
00000240: 222b 2b3d beb8 553b 7eff 9c3d d477 2d3d
00000250: 8d5c 213e 696e 8c3d de9e 2cbd d3fd 6c3b
00000260: 3ce0 8dbd 6ad0 a43d 7f3e 203b 0c38 02be
00000270: 913e 213e ba85 fabd 0ccf d1bd 67c7 00bd
00000280: 09ef a9bb 64d7 b93d 291e a33d 15f7 c63c
00000290: 04ee 15bd cfe2 bd3c cdc3 d73d c75e 37bd
000002a0: e8dc 24bd b902 b33d 30b4 bc3d 3950 8d3e
000002b0: 38d2 853b 234d 963d bcd7 893d 2127 bf3d
000002c0: f13d a43d d63c 743d 9927 5fbd fad4 c53d
000002d0: fa56 0cbe 1ba1 ccbd 8343 7abd c590 5fbb
000002e0: bd86 983c 0bfb e43c 0b04 b83c 7707 313c
000002f0: c798 97bd 3fa8 c83d 22b4 b93e d1c4 bb3e
00000300: 368f 9cbd 6183 663b c7e0 b63d 8f65 b2bd
00000310: aacd 29bd 2d0f 003e 32e4 78bd 7a0e 423d
00000320: cd89 113e 1020 033e 2936 663d 08b3 973b
00000330: 09ef 6dbc 2ebc 073d b93b 3c3d 3c81 ca3c
00000340: 6d31 a73d 4625 4a3b eac7 fe3c aec5 6c3c
00000350: 1fa9 42bd d7bd f03d f356 49bb e7c0 263c
00000360: 98c7 1cbd 6b71 f4bd 6a12 8fbd 7ccb 3a3b
00000370: 4eff 8a3c f734 53bd 58a4 eb3d 21bb aabd
00000380: c646 43bd 33d8 473d bc6f 993d 5aa4 7e3d
00000390: 352d 44bd e8d2 313e 99fd 8c3d 5d9d a73c
000003a0: 9038 ddbd 86d7 903d 24e8 18bd 327e f03a
000003b0: 89fa 473d 7dc0 193e 1626 b13d 26c9 97bd
000003c0: 4a53 a13c 2acd a73c 9c95 2cbd 0b8c dabb
000003d0: bff9 1c3d 47b9 c43d aa6e 903c f1d8 0b3e
000003e0: 4b53 5dbc 3e94 ddbc c324 51bb 17ec 6a3d
000003f0: 819d 9dba 14ad 033e 9536 803d 4819 833c
0.057003167 -0.14322563 0.11548188 -0.111580074 0.07459107 -0.17329875 -0.056098435 -0.1672559
-0.104885764 -0.018764634 0.037675902 -0.1532232 -0.06641323 -0.039589953 -0.18444459 -0.08211041
0.11242471 -0.18067823 -0.037902493 0.10300178 -0.08683866 -0.08022365 -0.08966692 -0.12260737
-0.1262494 0.10062442 -0.19858757 -0.10173811 0.07962191 -0.15242372 -0.14050604 0.08046545
0.0615477 -0.010690275 -0.1952208 0.0010283717 -0.050979648 -0.14284787 -0.033284463 -0.1057882
-0.15124072 -0.008180641 -0.16360992 0.10592954 0.14641961 0.06616891 0.014016812 0.060528327
0.08694482 0.13471971 0.028070683 0.047053434 -0.18172085 -0.07201343 -0.096856356 0.010198493
-0.1111263 -0.020341365 -0.043023873 -0.025784746 -0.1322463 -0.13159135 -0.004990805 -0.06651732
-0.016077742 -0.08458241 -0.13360997 -0.043045398 -0.27740246 0.11345178 -0.11621431 -0.107171945
0.08236701 0.007470558 -0.10211849 -0.16629261 -0.046153955 -0.087727055 -0.057266265 -0.050944377
-0.05849148 -0.10421255 -0.075918004 -0.20563835 -0.19402699 -0.082884 -0.10340189 0.033541393
-0.09015167 -0.118563704 0.10229818 -0.049836293 0.057743695 -0.10793291 -0.09493397 -0.14805914
-0.106106944 -0.09334726 -0.041714698 -0.08204812 -0.09546292 0.03158114 -0.14621405 0.105545044
-0.042140592 0.009482414 -0.09661882 -0.19382505 -0.08967982 0.022003643 -0.06864952 -0.08122008
-0.12596178 -0.17138615 0.077168554 -0.09594411 0.0033467358 0.029234016 0.068707235 0.115966275
-0.065435484 -0.04834859 -0.049215186 -0.11954649 -0.186275 0.065424316 0.05212049 -0.040918455
0.030642817 -0.020139113 0.06938145 -0.093243815 0.03622682 0.016724888 -0.09502895 -0.0125763705
0.006537238 0.15744528 0.10003645 0.0402746 0.104452126 0.020170528 0.028848872 -0.01669067
0.04178918 0.0032611336 0.07665919 0.042350605 0.15757962 0.068569966 -0.042143695 0.0036162033
-0.06927535 0.08047564 0.0024451313 -0.12716693 0.15746523 -0.122325376 -0.10244569 -0.031440165
-0.005185966 0.090742856 0.07964737 0.02428774 -0.036603943 0.02317944 0.10535393 -0.04476812
-0.040249735 0.08740754 0.092140555 0.27600268 0.004083898 0.073389314 0.06730601 0.09333635
0.08019627 0.05962833 -0.054481123 0.09659763 -0.13705054 -0.09991666 -0.06109954 -0.003411339
0.018618936 0.027951738 0.022462865 0.010805002 -0.07402187 0.097977154 0.36270243 0.36673597
-0.07644503 0.0035173523 0.089295916 -0.08710777 -0.041455902 0.12505789 -0.0607645 0.047377087
0.14212723 0.128052 0.056203995 0.0046294965 -0.014522322 0.033138447 0.045955393 0.024719827
0.08163724 0.003084497 0.031101186 0.014451427 -0.047524568 0.11754959 -0.0030721992 0.010177827
-0.038276285 -0.11935695 -0.06985934 0.0028502634 0.016967442 -0.051564183 0.115059555 -0.08336473
-0.047674917 0.048790168 0.07492015 0.062168457 -0.047894675 0.1736561 0.068843074 0.020460779
-0.10801804 0.07072358 -0.03733076 0.0018348156 0.048822913 0.15014835 0.086498424 -0.07411413
0.019693036 0.020483572 -0.042134866 -0.0066695265 0.038324114 0.09605651 0.017630894 0.13656975
-0.013508628 -0.027048226 -0.003191278 0.05735406 -0.0012025089 0.12858993 0.06260411 0.016003266

encoder.cell.W_f.weight f4 [256, 32]
00000000: 8fa4 5abd e6ce ba3c 9ba2 37be 3472 a2bc
00000010: f43a ac3d b69f 3f3e 467c 57be 4e3e 0d3e
00000020: e9e0 383e 7b64 12be 7a1f cabd 7445 a2bd
00000030: 3826 233d e736 47be 0c0f 0bbe 2e05 1bbe
00000040: 8790 a53d 163a f63c f48f 4dbe 19a6 90bd
00000050: 835e 113e de27 633e 6d61 1c3e e750 b13d
00000060: b3de 80bd 85a4 043e 5fa6 43bd 4497 e93d
00000070: a4c3 e43d 2a28 39bb 1eb9 233c 19de 0cbd
00000080: 2acb b4bd 1234 15bc bc2f 9c3e 3884 4ebd
00000090: 35de 603d 0ae2 12be a54b eabd 4e4f d2bd
000000a0: f992 0c3e a4f1 83bd 63e4 463e 103b f53c
000000b0: 76db 1bbc 999d 223d 815d 163e 9a82 583c
000000c0: 2d6b ef3c 480d 75ba 7985 f03d 2c53 d0bd
000000d0: 86da 8ebc 3f3d 3b3e 3230 aa3c 5a07 573d
000000e0: 9d24 603d 81ef ea3c 72a5 f13d 068b 203d
000000f0: e255 7cbb 8f11 833e a217 d13d 048a 693e
00000100: 6758 d23c 2d8a b73e 9b06 d03e 15fc e63d
00000110: 37e1 663e 2e8b 583d 5bfc f8bd 030c 37be
00000120: aea2 f93d e228 70be cd42 d73e 7136 20be
00000130: f315 59be a19d 353d 9c3d ab3e 453f abbd
00000140: de3c 033c 7754 87be 7f97 803d 4229 e1bd
00000150: cb43 f63d 729b db3d c7c4 2bbe 12b4 2abe
00000160: 0f50 c0bd 963b 2e3e 10eb f5bd 9b02 d73e
00000170: bc50 fa3d e0fe 553e 3f2b 373e e68b 463e
00000180: 03d6 6f3e badf c5bc 0851 5b3d 6045 dbbd
00000190: eb34 1bbe ebbf 7dbe 9630 123e 65a6 e23d
000001a0: 6061 fd3c fb7f a4bd f33e 6c3d 1de9 bdbd
000001b0: 908e 9bbc ef7c 65bd 2cbb 1abe de8b 623e
000001c0: 753a 0b3c ea01 2b3e da9c bc3d 3b64 2c3e
000001d0: e0be 023e ba16 fd3d c77b 513b 2490 d43d
000001e0: 8e89 a13d b01c 083e b061 083e 55a0 2cbe
000001f0: fa8d 50bd a94a 2a3e 4ee0 f0bd 2fe7 6cbe
00000200: 7596 cd3c 993f af3d 5d10 073e 8d16 00bc
00000210: 7732 e33d 6f83 e3bd 189b ecbc d37a 77bd
00000220: 7c68 ec3c 5a47 c8bd 8d37 a2bd ffbe 5e3d
00000230: f33e 80bd 6016 ec3d bdd2 d0bd 1ddc 50bd
00000240: 49a0 f0bd 5099 b73d 0971 4ebd ea77 b1bd
00000250: aaa3 a13d 903d 3a3c 8750 ebbd 92d9 2fbe
00000260: ec08 c83d 2628 ee3d 770d a0bd 7a0d 28be
00000270: af59 d439 2469 343d b302 163d 18b5 1bbe
00000280: 89f7 843d d6c3 febd 8271 743d 34da 573c
00000290: 7f3e 33be 94f3 79be 4a06 69bc aab3 a9bd
000002a0: c79d 5dbb 0da7 1cbe 2861 de3d b6dd 163d
000002b0: 00c4 17be 5ec3 26bd c94e 24bc 5300 a03d
000002c0: 37a9 b5bd 7704 a3bd 17fe f33d ddf7 aa3d
000002d0: b6eb 30be d0f2 ce3d 6a33 853d a4ea 2dbd
000002e0: 89e8 4fbe 52f3 27be c56c 233e 3488 bebd
000002f0: bb5f e5bd 039e 8abd 5c93 c4bd 2931 4fbe
00000300: df4b 943d 23ba b7be 517a b1be f0db 1e3e
00000310: 2c73 2fbe db13 f13d f04e 4e3d 9426 a93d
00000320: 2f8f 113d 1e00 923c 3f12 5dbe a4fb d73c
00000330: 266b 973e 71cc 903e 3d17 a23d e9b2 80bd
00000340: c137 1ebe 325b 2b3d 2514 3bbe 2199 373d
00000350: 07d2 c43d 0e50 f2ba cd3f 34be 7f65 043e
00000360: 171c 9a3e 6096 c6bd 85ee 9f3d f1c5 c0be
00000370: 4520 ddbd 6262 a5bd 2559 23be 052f 173d
00000380: 94c8 753e d8df 3bbe 1c2c ad3d cb37 ff3d
00000390: cdf7 0dbd 1149 70bb c5ec 0c3e a7e7 36be
000003a0: 94e4 2f3e 87d5 103c 9768 39bd 0f94 e1bc
000003b0: e5a7 70be 64e3 343d ece9 ad3d ad94 883c
000003c0: e543 84bd 0a30 a83b 4a13 963d 38d0 ff3d
000003d0: fd5c 82ba 877d 9cbe 9312 ba3d e266 d2bd
000003e0: a3b6 433c d401 243d 5181 7d3e e19c bf3c
000003f0: ca9d 3e3d d703 debd 5d0b 2cbd 3bac 3dbe
-0.05337959 0.022803735 -0.17933123 -0.019829847 0.08409682 0.18713269 -0.210435 0.13793299
0.18054546 -0.14296143 -0.09869285 -0.079234034 0.03983137 -0.19454537 -0.13579959 -0.15138695
0.08084207 0.030056994 -0.20074445 -0.070629306 0.1419621 0.22183177 0.1527154 0.08658009
-0.062924765 0.12953384 -0.047766086 0.11405805 0.11170128 -0.00282527 0.009992866 -0.034391496
-0.08827813 -0.009106653 0.30505168 -0.050419062 0.054899413 -0.1434404 -0.11440209 -0.102690324
0.1372794 -0.06442574 0.1942306 0.02993539 -0.009512773 0.039701078 0.14684106 0.013214732
0.02922591 -0.00093479874 0.11744208 -0.10172114 -0.017438184 0.18285082 0.020774934 0.052497245
0.054722417 0.028678657 0.11799134 0.039195083 -0.0038503339 0.25599334 0.10209586 0.22806555
0.02567692 0.35847607 0.4063004 0.112785496 0.2254685 0.052867107 -0.12157508 -0.17875676
0.12189232 -0.23453096 0.42043152 -0.15645768 -0.21199779 0.04433978 0.33445442 -0.08361677
0.008010117 -0.2643163 0.062788956 -0.109941974 0.12024649 0.10723008 -0.16774283 -0.16670254
-0.0939027 0.17014918 -0.12007725 0.41994175 0.1222243 0.20898008 0.17887591 0.19389305
0.23421483 -0.024154533 0.053544074 -0.107065916 -0.15156905 -0.24780242 0.14276347 0.110668935
0.030930221 -0.08032223 0.05767722 -0.092729785 -0.018988878 -0.05602735 -0.15110463 0.22123668
0.008497824 0.16699949 0.092096046 0.1683511 0.12768126 0.123578504 0.0031964646 0.10379055
0.078875646 0.13292193 0.13318515 -0.16858037 -0.05091665 0.16630043 -0.11761533 -0.23135065
0.025096158 0.08557052 0.13189836 -0.0078178765 0.1109361 -0.11109053 -0.028882548 -0.06041987
0.028858416 -0.09779234 -0.07920752 0.054381367 -0.062620066 0.11527705 -0.10196445 -0.050991166
-0.11749322 0.08964789 -0.050400767 -0.0866545 0.078925446 0.011367217 -0.11489969 -0.1717284
0.09767327 0.116287515 -0.07815068 -0.16411391 0.0004050261 0.044045582 0.036623668 -0.152058
0.06492526 -0.124396965 0.059678562 0.013174582 -0.17504309 -0.24409324 -0.014222691 -0.08286221
-0.0033815966 -0.152981 0.10858375 0.036832534 -0.14820862 -0.04071366 -0.0100285495 0.07812562
-0.08870166 -0.07959836 0.11913698 0.083480574 -0.17277417 0.101049066 0.06503947 -0.0424601
-0.20303549 -0.16401413 0.15959461 -0.093033224 -0.111999 -0.067684196 -0.09598419 -0.20233597
0.07241034 -0.358842 -0.34663633 0.15513587 -0.17133778 0.11771365 0.05036825 0.08259311
0.03553694 0.017822322 -0.21588992 0.026365109 0.29573935 0.28280976 0.079145886 -0.062841244
-0.15450956 0.041835018 -0.18269403 0.04482377 0.09610372 -0.0018486993 -0.17602463 0.12929343
0.30099556 -0.096966505 0.07809166 -0.37651017 -0.107971705 -0.08075406 -0.15951975 0.036910076
0.24002296 -0.18347108 0.08455679 0.124618135 -0.03466015 -0.0036664645 0.13762195 -0.17861806
0.1717704 0.008839971 -0.04526576 -0.02753642 -0.23501547 0.04416217 0.08491883 0.016672457
-0.06458262 0.00513268 0.07327898 0.124908864 -0.0009945926 -0.3056452 0.09085574 -0.102735296
0.011945399 0.040040806 0.24756362 0.023390235 0.046537198 -0.10840576 -0.042003024 -0.18522732

encoder.cell.W_f.bias f4 [256]
00000000: afb1 1d3e 2231 bebd 1c35 5dbc 9008 473e
00000010: 17f6 c0bd 1cf9 393d efbd 9b3d 72b9 02be
00000020: b4e8 5f3e aba9 253e bb54 cfbd a7a1 55bc
00000030: f24d 003c c63a f2bc 54c6 693d b8bf 0a3d
00000040: 4aba 483e e0a0 3d3e 44bd 94bd d79c 023e
00000050: 5f1c e13c ea3f 56bd 8a75 1bbd 0da4 833e
00000060: 18ae 563d b48a 25be 2232 093e 1c05 b23d
00000070: 54d9 883c 8cb2 5c3d 4f8b a8bc 87a1 c83d
00000080: 8558 d43c db2c 1d3d 55e0 313e 7861 34be
00000090: cdb7 b53b 25a6 843d e529 0b3e 1ce0 3ebd
000000a0: acac 123e 3962 bb3d 4949 6e3c 8d79 4bbe
000000b0: d537 fc3c c9b2 35be 5bd6 efbd 2f29 023e
000000c0: 266b a43d c00a 44bd b6d1 073e 24e9 783e
000000d0: cf71 f73d f497 98bd d91b 073d 47e5 aebc
000000e0: b89e d93d 2788 4c3d b01a c63d d928 6c3d
000000f0: da17 3e3c db54 a13d d59f f03d e227 68be
00000100: 1190 95be e0a8 4dbd f8c4 dabd 5aac 4cbd
00000110: 0271 10bd 9432 db3c c7cd 2a3e b316 883d
00000120: 93da 803d c3cf a53d e1c0 aabd 92f1 45be
00000130: b28f 913e 62b0 ea3b 5ea6 283e 9c2f 12be
00000140: 53c8 d03c d3d0 dcbc 5ab7 fabd 4a80 833e
00000150: 488a f8bb fe52 443e add7 933c 96fc cd39
00000160: 8e1f e03d 2882 20be f794 493e 950a 01be
00000170: 4d04 05be d768 4bbe 107f 2dbd cf56 1dbd
00000180: 8f98 743d 710b 65bc 48b9 583c 5db3 8c3d
00000190: 7ab1 6d3c 3609 9ebd 2535 92bd c3f4 bdbd
000001a0: dc9b afbd 09b7 053e 3a9e 3dba 0487 e73d
000001b0: fdda c5bd 9b96 633d e00b eabd afce fc3d
000001c0: 0732 00be d15b 1d3e 06fd 213e 7ce6 e6bd
000001d0: 4dd6 213d ab8d f73d 5a2b 2f3e 28f6 f63c
000001e0: 0771 e83d e8c1 a8bd 3092 563d 9215 823d
000001f0: 699c 2e3e 2cd0 823d aa5f 26be 6abe a63d
00000200: 15f4 0fbe 4eeb 01be 3dfb 21bc b9a4 e93b
00000210: 1a01 27be 3946 623d e01a 5ebd 803d c13d
00000220: 1fc8 e3bd 5464 83bd 3821 43be 1c7f 06bc
00000230: a160 3bbd f459 ef3c 1402 2c3e 8e33 1cbe
00000240: 8787 813e a8c4 5d3d 79c6 72bd b810 f63d
00000250: 5b3b 293d 80d9 70bc 5a16 cdbd a3b4 f5bd
00000260: 416e 263e 3a59 a1bd 702f c73c 5485 523d
00000270: 88d1 06be 4496 ef3d ca89 e23c 8708 3b3d
00000280: 7f25 acbd 31c9 07be 83d9 03bd 051d 2dbe
00000290: 109c 053d 61aa 0a3e 6fcc 3bbe b065 373a
000002a0: 7b65 4d3c 5367 31bd 8d21 da3d 954a 01be
000002b0: 20da 4fbd 51dd 12bd 7216 23bd 8642 32be
000002c0: 44d1 01be 6954 debd b1e6 cd3d d34d 39be
000002d0: 9860 48be 59ed 223d ceef 31be f17f 283e
000002e0: 248c 613d 1a7a f8bd 9c89 94bd 1460 2a3e
000002f0: beff efbd 9ef8 423a 4c8e 1abe 2ff5 d1bd
00000300: 7bba 033b 8657 15be 389a 443d e696 293e
00000310: 3d3e 9abd b03e 893d 4378 d6bd 6b5d bebd
00000320: 6388 8ebe 2cab 2fbd 72ba be3d 8b19 373b
00000330: 35de c53d 94bc 003e 45dc ba3d e59a 023c
00000340: 954a fd3d f1ab 6f3d e6f6 81bc a286 2f3e
00000350: ed5c e7bd 3ae4 62bd 64ce 18be fc80 46be
00000360: 030b 95be 4d7a d73d 3061 fdbd a5c4 80bd
00000370: 47a0 14be b463 db3d 5f6d 283e 4849 933d
00000380: beaf 51bc 2af8 563d 4764 6b3e d324 c6bc
00000390: 82c6 6dbd 4dd6 113e 028e c23d 8ecc a4bd
000003a0: 984c 9e3d e368 903d de5d 443e 75da 89ba
000003b0: 32c3 8e3b 5a65 f8bc cb50 473d b954 06bd
000003c0: d779 a03d 3171 1c3d b27b 233b 186f 9f3d
000003d0: b3e0 ba3d 79c1 ebbc e23d b33d c6ac ecbd
000003e0: 451d 8a3d d9f3 0c3e 00c0 423d 4711 06be
000003f0: 6b97 64be 4bf9 ed3c 2c99 26be 2b11 a0bd
0.15399812 -0.09286715 -0.013501432 0.1943686 -0.09421938 0.045403585 0.07604586 -0.12766054
0.21866113 0.16178004 -0.10123583 -0.013039029 0.007831084 -0.029569041 0.057073906 0.033874243
0.19602314 0.185184 -0.07262662 0.12755142 0.027479349 -0.052307047 -0.03795389 0.25711098
0.052412122 -0.16166192 0.1339803 0.08692381 0.016705193 0.053881213 -0.02057424 0.09796434
0.025921116 0.038372856 0.17370732 -0.17615306 0.0055455924 0.06477002 0.135902 -0.046600446
0.14323682 0.09149594 0.01454384 -0.19870587 0.030788342 -0.17743982 -0.11710807 0.12711023
0.080282494 -0.047861814 0.13263592 0.24307686 0.12082254 -0.07450858 0.032985542 -0.021349562
0.10625976 0.049934532 0.09673059 0.057656143 0.011602366 0.07877513 0.117492355 -0.22671464
-0.29211476 -0.05020988 -0.106821 -0.049969055 -0.035264023 0.026757516 0.1668006 0.066449545
0.0629169 0.08096268 -0.0833757 -0.19330433 0.28429943 0.0071621398 0.16469714 -0.14275974
0.025486147 -0.026955044 -0.12242003 0.25683814 -0.007584844 0.19172284 0.018047178 0.00039288838
0.109435186 -0.1567465 0.19685732 -0.12601693 -0.12989922 -0.19864212 -0.042357504 -0.038412865
0.059715804 -0.013979779 0.013227768 0.06870148 0.014507646 -0.077166006 -0.07139043 -0.092752
-0.0857465 0.13058104 -0.00072333554 0.11305049 -0.09660909 0.05556355 -0.11428046 0.12344109
-0.12519084 0.15367056 0.15819177 -0.1127443 0.039511014 0.12087568 0.17106381 0.030146673
0.11349683 -0.0824011 0.05238551 0.063517705 0.17051853 0.06387362 -0.1624743 0.08141787
-0.14057954 -0.12687418 -0.00988656 0.007130232 -0.16309014 0.05524275 -0.05422485 0.09435558
-0.111221544 -0.064156204 -0.1905564 -0.008209016 -0.04574645 0.029217698 0.16797668 -0.15254042
0.25298712 0.054142624 -0.05927131 0.120149076 0.04131637 -0.014700294 -0.10014029 -0.11997344
0.16252996 -0.07878347 0.024314612 0.051396683 -0.13165867 0.11698583 0.027653594 0.04566243
-0.08405589 -0.13260342 -0.032189857 -0.16905601 0.032619536 0.13541557 -0.18339704 0.00069960486
0.012536402 -0.04331143 0.106509306 -0.12626107 -0.05074513 -0.035855595 -0.039816327 -0.17408189
-0.12677485 -0.10855944 0.100537665 -0.18096094 -0.19568098 0.039777134 -0.17376634 0.16455056
0.05506529 -0.12132664 -0.072528094 0.16638213 -0.11718701 0.00074375595 -0.15093344 -0.10251843
0.0020100165 -0.14584169 0.047998637 0.1656147 -0.07531402 0.0670141 -0.10472157 -0.09295162
-0.2783843 -0.04288785 0.09312905 0.0027938809 0.09661523 0.12571937 0.09124044 0.0079715
0.12367741 0.058513585 -0.0158648 0.17141202 -0.11297021 -0.055393435 -0.14922482 -0.19385141
-0.29109964 0.10521374 -0.12372053 -0.06287507 -0.14514266 0.10712376 0.16447972 0.07191712
-0.012798248 0.05248276 0.22987472 -0.024187481 -0.05805064 0.14241906 0.09499742 -0.08046828
0.07729453 0.070512556 0.19176432 -0.0010517376 0.004356765 -0.030321766 0.048661035 -0.03279564
0.07835739 0.038193885 0.0024945554 0.07784861 0.09124889 -0.028778778 0.087520376 -0.115563914
0.06743864 0.13764895 0.047546387 -0.13092528 -0.22323386 0.029049536 -0.16269368 -0.078157745

encoder.cell.U_f.weight f4 [256, 256]
00000000: 130c 30be 2e19 073e 5f34 383e d605 d23d
00000010: 6353 56bd d38d 79bd 757e be3d a93e a5bd
00000020: 5256 19be b6dc 5cbe 3725 73be 7ea0 093d
00000030: 813f b5be 9832 863d c268 0f3e b20a 5dbd
00000040: 69fe e53d 2fc5 013e f5f6 3a3d aa10 d43c
00000050: 62d8 80bd 069a d8bd afff c03c 5e22 4fbd
00000060: 7c69 1ebe 1b25 22be dc42 0bbd 8bae 8d3e
00000070: 45cc 2f3e d526 213d e9d9 443d a2bc da3d
00000080: 0b2f d7bd 4282 1fbd b530 a03d 8059 87be
00000090: 341c 5c3d f136 123d b3a9 a23d 4a3d 1ebd
000000a0: 4a2f e9bc 53ff 4abc 2367 bcbe 7248 c6bd
000000b0: 1bc8 89bd f066 933e c9a4 eb3d 41f6 f1bd
000000c0: 32b2 3bbe 317c 5dbe 47e7 373c df3f 4abe
000000d0: 3928 063e b894 43be f6d5 553c 97e7 f7bb
000000e0: ad7d 363e bf2d 7dbe 7642 d33d da98 003c
000000f0: 6c2d 83bd 6042 b6bd 63db 57bd 2a88 50be
00000100: 75b8 4abe 5f82 c4be 9d5e ddbd 06db dfbd
00000110: 27c1 e0bd b505 5dbd 9b9a 56bc 0b8a 4b3e
00000120: c377 fe3c e364 20bc 3f25 c93b 5e32 b9bd
00000130: 6191 2dbc fa81 343c c7c3 e53c 7ab9 a8bd
00000140: 2157 843d 939e 693e 7885 e9bc f79d 073d
00000150: ceee d53d ffdf 07be 55a8 a03d 2baa 8cbd
00000160: c205 b73b 5d30 0c3d 4361 413d 0ca3 df3d
00000170: ec30 9d3d c7d9 86bd d478 1bbd 00b5 30be
00000180: 9c6a 81bd d497 ffbc b157 dbbd 3795 3f3d
00000190: 474f df3d ab83 093e 9c0e 50bd e76d f73c
000001a0: 1dc2 bebd 7d49 6bbe 8cad f8bd 0448 4abd
000001b0: a03f a5be 9bc6 4e3d 252e 553e 8f67 fbbd
000001c0: a3aa 32bd d3ab b33d d3d4 51be 64a3 fbbc
000001d0: e31c 19bb b196 04be a6be 9a3d e544 b2bd
000001e0: e107 0fbd 602d cfbd 678e b1bd f5b3 a93d
000001f0: 1bf0 9d3d ccc4 4dbe 7509 e7bd db41 57bd
00000200: 346c 973c 8028 7cbd e3a4 3b3e 9571 a4be
00000210: 835f c4bc 4b6c 3abd d813 05be 1491 9cbb
00000220: ef39 853d 68e1 2f3e 4c74 3c3e 9c57 6cbc
00000230: e7e0 953e 372f 8cbe 5cbd 4ebd e9d6 c0bd
00000240: 23b0 6dbe 47e9 efbe 08a7 efbc fdea 233d
00000250: 9c6a f13d 0aa4 ddbe 8623 b5bd d0da a8bd
00000260: c99c c9bd 8092 ad3d 139f 94be 0e87 af3d
00000270: 978a 0b3e 0959 cfbc 85a1 35be aeb0 af3d
00000280: e293 a0bb 1ee2 a5bd cbc9 2bbe 6b1e 753d
00000290: c9cf fbbc d53f d9bd 8f00 6f3e 9e63 0fbe
000002a0: 6157 82be 1d0d 393e 25a6 9a3e 6efb fb3d
000002b0: c8f7 283d 20ab 533d 5db3 cbbd a066 b93c
000002c0: 4d53 5f3d 028a 313e 82be 5bbd a04d 143e
000002d0: 8ef2 07be f3a1 cbbe 6216 40bd f5d9 953c
000002e0: cae9 6c3e c2d8 3c3e f9ba 0bbe 91a2 04be
000002f0: fbba 89be 7e15 6cbd d00c ec3d 1aff cf3e
00000300: 9cbf f63a 8696 2d3d dc90 9f3d d9fd 31be
00000310: bf7a ffbd 87b1 863d db3f abbd 86d5 9abb
00000320: e092 b73d f283 cbbc 66fa 92be 75e6 f5be
00000330: 8f2c 9ebd c5ba a0be ce37 08be 7006 f6bc
00000340: b06b eebc 4f31 6b3d 78fb 12be ba10 9bbe
00000350: 98e6 17be f2aa a43d b823 75be 4bb9 133d
00000360: 133e 9dbe a67d a2be 89c1 0f3d 97e6 1cbe
00000370: 4ea7 e4bd 2b7b 91bd 5d04 18be ae9c b0bd
00000380: 83d9 a9be 4fc2 b1bd d65e 6dbd 0957 6a3e
00000390: 9150 1bbe 4a8a 5fbc ba6d 13be 771c 823c
000003a0: 43b8 f23d ff3f 373e 6fd1 94be 905c 4abe
000003b0: 0a41 713e a1b9 2cbd ac03 e0bd 7f42 58bd
000003c0: 3cb9 c5be b8d6 94be a226 013f 5418 0dbe
000003d0: cc04 1bbc bf53 1a3e d62b b13d fca0 d03d
000003e0: 9f83 21be faa7 f9bd d354 87bd c415 dcbd
000003f0: e37b b9be 1d7d d43d ad92 483d 9257 cfbd
-0.17192106 0.13193199 0.17988728 0.10255019 -0.052325618 -0.06092627 0.093014635 -0.08068592
-0.14974335 -0.2156857 -0.23744665 0.033600323 -0.35400012 0.06552619 0.14004806 -0.053965278
0.112301655 0.12672876 0.045645673 0.025886852 -0.06291272 -0.10576253 0.02355942 -0.050569884
-0.15469927 -0.15834467 -0.03399931 0.27672228 0.17167766 0.039343674 0.048059378 0.1068051
-0.105070196 -0.038942583 0.0782179 -0.2643547 0.053737834 0.035696927 0.07942524 -0.03863267
-0.028464932 -0.012389976 -0.36797437 -0.096817866 -0.0672762 0.28789473 0.1150604 -0.11814547
-0.18329695 -0.21629407 0.011224574 -0.19750927 0.13101281 -0.190997 0.013051501 -0.0075654495
0.17821379 -0.24724482 0.10315411 0.007848943 -0.06405148 -0.08899379 -0.052699458 -0.20364442
-0.19796927 -0.38380715 -0.10809062 -0.10930447 -0.10974341 -0.05396052 -0.013098384 0.19876878
0.031062966 -0.009789678 0.0061384733 -0.0904281 -0.010593743 0.011017317 0.028047455 -0.08238502
0.06461931 0.22814398 -0.028506026 0.03310963 0.10445939 -0.13269041 0.07844607 -0.068683945
0.005585403 0.03422581 0.047211897 0.109197706 0.07675347 -0.065845065 -0.037957028 -0.17256546
-0.06319162 -0.031200327 -0.10710085 0.04677316 0.10903793 0.13429134 -0.050795183 0.030203773
-0.09314368 -0.22977252 -0.121424764 -0.049385086 -0.32275105 0.050482374 0.20818384 -0.122756116
-0.043619763 0.08773007 -0.20491342 -0.03071756 -0.0023363165 -0.12948109 0.075558946 -0.08704547
-0.034919623 -0.101160765 -0.08669739 0.08286277 0.07711812 -0.20094603 -0.11281101 -0.05255304
0.018484212 -0.06156206 0.18324618 -0.32117906 -0.023971325 -0.045513432 -0.12995851 -0.004778037
0.065051906 0.1717583 0.18403739 -0.014425185 0.2927315 -0.27379772 -0.050473556 -0.09415991
-0.23211722 -0.46857664 -0.029254451 0.040019024 0.11787912 -0.43289214 -0.08844666 -0.0824486
-0.098443575 0.08475208 -0.29027614 0.085706815 0.13627087 -0.02531101 -0.17737396 0.08578621
-0.0049004415 -0.08099769 -0.16776197 0.059843462 -0.030738728 -0.10607878 0.23340057 -0.14002845
-0.2545729 0.18071409 0.30204883 0.12303816 0.041251928 0.05167687 -0.0994632 0.022631943
0.0545228 0.17337802 -0.05364848 0.14482737 -0.13276121 -0.39771995 -0.046896346 0.018292407
0.23136058 0.18442062 -0.13645543 -0.12952639 -0.26900467 -0.057637684 0.11525881 0.40624315
0.0018825415 0.04237988 0.077913016 -0.17381991 -0.12474584 0.065768294 -0.08361789 -0.004725161
0.08963561 -0.02484319 -0.28706664 -0.48027387 -0.077233426 -0.31392494 -0.13302538 -0.030032367
-0.029104084 0.05742007 -0.1435374 -0.302862 -0.14834058 0.08040418 -0.23939407 0.03606538
-0.3071142 -0.31736487 0.03509668 -0.15322338 -0.11164723 -0.071035706 -0.14845414 -0.08623634
-0.3317376 -0.086796395 -0.05795177 0.22884764 -0.15167452 -0.0136438105 -0.14397326 0.015882714
0.118515514 0.17895506 -0.29066035 -0.19761872 0.23559967 -0.042169217 -0.109382 -0.05279779
-0.38617885 -0.29070067 0.50449574 -0.13778812 -0.009461593 0.15071009 0.08650939 0.10186955
-0.15772866 -0.12190242 -0.06607976 -0.10746339 -0.3622733 0.10375426 0.048968006 -0.101241246
