ICTCS_notebooks/models/Tree_lstm.pth (torch, 778210 bytes, 12 tensors)

encoder.embedding.weight f4 [108, 32]
0.0 0.0 0.0 0.0 0.0 0.0 0.0 0.0
0.0 0.0 0.0 0.0 0.0 0.0 0.0 0.0
0.0 0.0 0.0 0.0 0.0 0.0 0.0 0.0
0.0 0.0 0.0 0.0 0.0 0.0 0.0 0.0
0.69528586 1.2514219 1.8307067 -0.37890097 -0.028880969 0.7451638 -0.18533063 0.09906106
-0.04395633 1.2330989 -0.17801687 -0.71334445 -0.17100005 -0.24305162 -0.036901012 0.14510879
-0.9105374 0.2622176 -0.69496775 0.06592218 -0.9805084 -0.05075679 0.694226 0.20171984
-2.3597562 0.76863056 0.72070956 -0.5385428 0.66034037 0.43727002 0.22797048 -0.019398091
0.57457393 -0.115243316 0.1607412 2.0544512 -0.6291929 -1.8198849 -1.2578326 0.6383072
-0.06436229 -0.8997593 -0.35233617 -1.5105662 -1.3018016 0.9605816 -0.8525373 0.20784125
0.03484412 0.23935196 0.18359494 0.4912711 0.37892166 0.27790362 -0.14982972 -1.1983308
0.51141167 -0.34196812 -1.0031295 0.20551075 0.45237762 -1.2525715 0.48962128 0.7232759
-1.2534076 -0.13321184 1.1564808 -0.08223987 -1.1348486 -1.1381018 -0.8217052 1.004032
0.6536186 0.069879286 1.2481452 0.4334887 1.2743286 -0.541663 1.0102366 0.07625691
0.49821153 -0.09819293 0.9522635 0.016638422 -0.735977 -1.7852944 1.2716744 -0.49848562
0.2555828 0.9491707 -0.9398296 -0.025474854 -0.24092266 0.17299545 -0.5578958 -0.067793526
-1.0765185 0.22628008 0.9016744 2.1477976 2.2912233 0.43738046 0.15262899 -1.00538
1.9860256 3.1221066 -0.21626468 1.1071659 -0.2178582 -0.17253293 -0.19734713 -2.2518606
-0.4950404 -0.11367352 -0.09861978 1.743385 1.290101 1.8253963 -0.16646218 -0.2841022
-0.13283482 1.5368031 -1.2047373 -1.6963198 0.037680607 -1.3946304 -0.3542519 1.3688021
-0.27629545 0.7802171 1.1396515 -0.68391883 0.5814047 -0.5365791 -0.059824917 0.6743726
0.45539746 0.63984114 -1.584964 1.0133511 -0.5084781 -0.2836773 1.5332309 0.021271056
-1.3739496 -1.6306682 -0.41934606 1.2029599 -0.062503114 1.1565961 1.4549563 -0.40517446
0.033250254 1.1657317 0.016844463 -1.3304248 1.3729132 -0.6292873 -0.56318814 -1.5653443
-0.081327416 -0.25298804 0.6999818 -0.45945272 -1.4475607 -0.3539158 -0.3792223 0.5858731
-0.15608022 1.1005539 0.6178126 0.5355866 -1.3100026 0.7869533 0.62414205 0.17266619
1.1153032 -0.558609 -0.6305077 0.5480148 2.8024974 -0.016987706 2.4137418 -1.5465238
-0.5007642 1.8025885 -0.04455654 1.0721152 1.8163842 0.45297658 -0.14687526 -0.6491192
-2.5478728 1.5014845 0.4797585 1.1489409 -1.4966428 -0.7988656 0.42916244 -0.012433133
0.81908566 -1.1251558 0.53250927 -1.462315 -0.28934896 -1.2407765 -1.349556 0.056287803
0.50680035 -1.1637933 -2.4504528 1.5828053 0.7572702 0.7467725 -1.0856707 0.7290673
0.19676097 1.2011311 -0.20962898 -2.5963507e-06 1.8006183 -0.008628098 -0.33392215 -2.0418282
00000000: 0000 0000 0000 0000 0000 0000 0000 0000
00000010: 0000 0000 0000 0000 0000 0000 0000 0000
00000020: 0000 0000 0000 0000 0000 0000 0000 0000
00000030: 0000 0000 0000 0000 0000 0000 0000 0000
00000040: 0000 0000 0000 0000 0000 0000 0000 0000
00000050: 0000 0000 0000 0000 0000 0000 0000 0000
00000060: 0000 0000 0000 0000 0000 0000 0000 0000
00000070: 0000 0000 0000 0000 0000 0000 0000 0000
00000080: 41fe 313f 982e a03f 9954 ea3f 4fff c1be
00000090: c897 ecbc 0ec3 3e3f 50c7 3dbe 86e0 ca3d
000000a0: 8d0b 34bd 2fd6 9d3f 0e4a 36be be9d 36bf
000000b0: a31a 2fbe 86e2 78be 8425 17bd 6697 143e
000000c0: fb18 69bf 6341 863e 68e9 31bf 3502 873d
000000d0: 9902 7bbf 5ae6 4fbd ccb8 313f a58f 4e3e
000000e0: 3f06 17c0 f9c4 443f 6c80 383f f1dd 09bf
000000f0: 110c 293f dbe1 df3e 1871 693e bfe8 9ebc
00000100: 4717 133f b004 ecbd 5799 243e 217c 0340
00000110: c912 21bf fdf1 e8bf a900 a1bf 1a68 233f
00000120: 60d0 83bd a056 66bf 6865 b4be 3c5a c1bf
00000130: 6fa1 a6bf ade8 753f e23f 5abf 56d4 543e
00000140: b5b8 0e3d ae18 753e 5000 3c3e e387 fb3e
00000150: 0502 c23e 6249 8e3e f66c 19be e762 99bf
00000160: e0eb 023f 7216 afbe 8c66 80bf 6971 523e
00000170: 0a9e e73e 4354 a0bf a4af fa3e 9c28 393f
00000180: a96f a0bf af68 08be 9007 943f 616d a8bd
00000190: b842 91bf 52ad 91bf 465b 52bf 1f84 803f
000001a0: 8c53 273f df1c 8f3d 39c3 9f3f 3bf2 dd3e
000001b0: 331d a33f 6daa 0abf 6f4f 813f 952c 9c3d
000001c0: 9515 ff3e 6019 c9bd 8ac7 733f 4d4d 883c
000001d0: fd68 3cbf 8784 e4bf 3ac6 a23f 8239 ffbe
000001e0: c0db 823e dafc 723f ac98 70bf a4b0 d0bc
000001f0: 6eb4 76be b825 313e 42d2 0ebf 55d7 8abd
00000200: 5ccb 89bf f7b5 673e 22d4 663f 8475 0940
00000210: 67a3 1240 55f0 df3e c64a 1c3e 4bb0 80bf
00000220: 1636 fe3f 98d0 4740 7d74 5dbe 9db7 8d3f
00000230: 3816 5fbe 79ac 30be 5e15 4abe 7c1e 10c0
00000240: ef75 fdbe aacd e8bd 2bf9 c9bd 3d27 df3f
00000250: 0822 a53f 96a6 e93f 1075 2abe d875 91be
00000260: da05 08be f7b5 c43f d534 9abf 0221 d9bf
00000270: fb56 1a3d 4083 b2bf 8160 b5be e834 af3f
00000280: 9976 8dbe 4fbc 473f 1ae0 913f 4e15 2fbf
00000290: f0d6 143f 3f5d 09bf f90a 75bd afa3 2c3f
000002a0: db29 e93e a1cc 233f 1ae0 cabf 7db5 813f
000002b0: 9f2b 02bf 273e 91be e940 c43f a340 ae3c
000002c0: 95dd afbf bcb9 d0bf 87b4 d6be 97fa 993f
000002d0: a201 80bd 570b 943f 023c ba3f 0773 cfbe
000002e0: 6b31 083d b236 953f 66fd 893c 5c4b aabf
000002f0: 9fbb af3f f918 21bf 192d 10bf 345d c8bf
00000300: fd8e a6bd a687 81be 0232 333f 633d ebbe
00000310: ab49 b9bf 7434 b5be 6d29 c2be c8fb 153f
00000320: 7ed3 1fbe f3de 8c3f f728 1e3f 341c 093f
00000330: 2aae a7bf c575 493f c6c7 1f3f 68cf 303e
00000340: 41c2 8e3f 0001 0fbf f468 21bf b34a 0c3f
00000350: 1e5c 3340 cd29 8bbc bf7a 1a40 7ef4 c5bf
00000360: 1532 00bf 38bb e63f eb80 36bd 123b 893f
00000370: 477f e83f 8cec e73e 7866 16be ad2c 26bf
00000380: 5910 23c0 a530 c03f e8a2 f53e 7f10 933f
00000390: fe91 bfbf 7582 4cbf 2ebb db3e 57b4 4bbc
000003a0: 99af 513f 1b05 90bf 8752 083f 232d bbbf
000003b0: 8c25 94be c4d1 9ebf 40be acbf 0a8e 663d
000003c0: abbd 013f 2ef7 94bf 38d4 1cc0 5d99 ca3f
000003d0: 76dc 413f 7c2c 3f3f 42f7 8abf 28a4 3a3f
000003e0: b57b 493e aabe 993f fba8 56be f73c 2eb6
000003f0: a97a e63f de5c 0dbc d8f7 aabe 50ad 02c0

encoder.cell.W_iou.weight f4 [384, 32]
-0.11629849 -0.42942396 -0.16169654 0.027142912 0.14657477 -0.17068908 0.07376516 0.39927027
0.085543655 0.0797006 -0.2116351 -0.26623017 0.07526972 -0.0029329043 0.117646016 -0.28576696
0.012331579 -0.19578321 -0.1410765 -0.01208555 -0.08281326 0.24188001 -0.43480602 0.04000923
0.15033287 0.09347783 -0.24269116 0.18572642 0.35914123 -0.38235098 -0.028923426 -0.43769
0.6803551 0.28207088 0.22034082 0.05097949 -0.16790235 -0.12032471 -0.25005236 -0.1940921
0.08039627 -0.0708545 -0.4391875 -0.3839986 -0.32856733 0.04297217 -0.2396403 0.40398657
-0.28227383 0.1669322 0.10912783 -0.38873428 -0.29595396 0.02372144 0.028261222 0.14223312
-0.26233572 -0.41539812 -0.17504859 0.21161836 -0.25103098 -0.08194842 0.031213695 0.49009725
0.40141433 0.2786196 0.13415223 0.2317842 0.05506748 0.17244335 0.042650092 0.020671314
-0.094775714 -0.04016054 0.07539371 -0.22425713 -0.016461855 -0.23012629 -0.19582167 0.06143944
-0.025206283 0.32606697 0.0979256 0.035691474 0.019003263 0.08660714 -0.19600728 0.12600112
0.0786864 -0.017055366 -0.013205825 0.1081922 -0.12153404 0.073284626 0.11080816 0.2982407
0.009213621 0.11270626 0.16444646 -0.41297483 0.04316403 0.19856131 0.22114171 -0.17719677
-0.28276762 0.118500866 0.22111352 -0.040901728 0.2762384 0.3099887 0.07706746 -0.057599757
-0.056407213 0.0014239374 0.1999664 -0.043828454 -0.40461335 -0.13349755 -0.11510015 0.19450533
-0.1189719 -0.07440527 -0.024920572 0.14641437 -0.020664567 0.08237423 0.23989888 -0.0049404143
0.025444662 0.15702136 -0.17078881 0.222979 -0.06182269 -0.06406689 0.05263113 -0.4434483
0.061776582 0.09690494 -0.04443249 0.33176708 0.023978282 -0.039244995 0.03008425 -0.115347125
-0.1275092 0.14414649 0.27241793 0.18289666 0.43492818 -0.05497852 0.15019788 0.10097346
0.4031989 -0.0846604 -0.08795766 -0.10813348 -0.2646318 0.084009014 -0.057272475 0.45574903
0.3216021 -0.41418442 -0.43135613 -0.07249799 0.06603373 -0.019471025 -0.10532009 0.34512186
-0.3838451 -0.16713262 0.03006408 -0.19686756 0.25981405 0.5407913 0.01598539 -0.3353386
0.14181288 0.31489483 0.17012839 0.011370426 -0.07928237 -0.01143543 -0.3463526 -0.11318293
0.0035344914 -0.37896037 0.10809901 0.5489023 0.2533674 -0.2200902 0.24841028 0.03791139
-0.04732788 0.16879047 0.20897745 -0.084145404 -0.47364163 -0.1286749 -0.18434477 0.18206333
-0.09493912 -0.087343894 -0.10974929 -0.19546895 -0.16666876 -0.21077292 0.085920274 0.073837295
-0.028442966 0.08799551 0.09770543 0.001251399 0.07329038 -0.0025215663 0.28000346 0.16703856
0.11443116 0.45581985 -0.18356523 -0.1386294 0.054017443 0.070274375 0.17748518 -0.26676184
0.07862732 -0.11346585 0.0025383541 -0.22814119 0.33311146 0.44932806 0.16449897 0.24479383
-0.2621511 0.039375722 -0.056380134 -0.34291783 0.088445 0.02427362 0.17978226 -0.38744104
-0.12676719 -0.065467075 -0.26228005 -0.18239419 -0.24966456 0.14871933 -0.058383398 -0.072763935
-0.24187376 0.08667322 0.1003543 0.050484106 0.3283158 -0.1748361 0.13857733 0.047169063
00000000: e72d eebd 75dd dbbe c793 25be d05a de3c
00000010: b217 163e 1ec9 2ebe 3012 973d 276d cc3e
00000020: 8331 af3d 113a a33d dfb6 58be 524f 88be
00000030: 0327 9a3d f835 40bb 65f0 f03d 0c50 92be
00000040: 640a 4a3c 657b 48be 5c76 10be 7902 46bc
00000050: 009a a9bd 65af 773e e59e debe b8e0 233d
00000060: dcf0 193e 4e71 bf3d 0884 78be 112f 3e3e
00000070: 5ce1 b73e 82c3 c3be d2f0 ecbc e718 e0be
00000080: c02b 2e3f 986b 903e 06a1 613e dfcf 503d
00000090: 98ee 2bbe cd6c f6bd dd06 80be 14c0 46be
000000a0: cda6 a43d 2a1c 91bd 2fdd e0be 779b c4be
000000b0: fa39 a8be 9603 303d 4464 75be 54d7 ce3e
000000c0: 3286 90be 46f0 2a3e 697e df3d 2e08 c7be
000000d0: 4787 97be 7753 c23c 1484 e73c 8fa5 113e
000000e0: de50 86be 10af d4be f03f 33be 7cb2 583e
000000f0: 2287 80be 93d4 a7bd ddb3 ff3c 07ee fa3e
00000100: 2e86 cd3e 3aa7 8e3e 345f 093e d658 6d3e
00000110: 708e 613d fd94 303e ddb1 2e3d e356 a93c
00000120: c519 c2bd 617f 24bd 0468 9a3d a9a3 65be
00000130: 03db 86bc 3aa6 6bbe 7a85 48be eca7 7b3d
00000140: 687d cebc 40f2 a63e 388d c83d 3931 123d
00000150: bbac 9b3c 165f b13d 22b6 48be 7006 013e
00000160: 5626 a13d b2b7 8bbc 3f5d 58bc df93 dd3d
00000170: d7e6 f8bd 4016 963d 63ef e23d 01b3 983e
00000180: baf4 163c 8ad2 e63d a764 283e 7071 d3be
00000190: c4cc 303d a853 4b3e f972 623e 1273 35be
000001a0: ebc6 90be 95b0 f23d 956b 623e 9288 27bd
000001b0: 1f6f 8d3e d7b6 9e3e 8bd5 9d3d b9ed 6bbd
000001c0: 400b 67bd 69a3 ba3a fec3 4c3e 7785 33bd
000001d0: 7b29 cfbe 95b3 08be a1b9 ebbd 682c 473e
000001e0: 8aa7 f3bd ca61 98bd 3a26 ccbc a6ed 153e
000001f0: bd48 a9bc d2b3 a83d 0da8 753e 33e3 a1bb
00000200: 5371 d03c 35ca 203e 43e3 2ebe 9b54 643e
00000210: ca39 7dbd 8035 83bd bd93 573d a80b e3be
00000220: 7109 7d3d 1976 c63d d8fe 35bd 60dd a93e
00000230: 1a6e c43c 5cbf 20bd 3f73 f63c 1d3b ecbd
00000240: c691 02be 239b 133e 5d7a 8b3e 4349 3b3e
00000250: e8ae de3e 2831 61bd 79cd 193e 2ccb ce3d
00000260: 1670 ce3e 6f62 adbd 2523 b4bd 1675 ddbd
00000270: d27d 87be eb0c ac3d 8b96 6abd f057 e93e
00000280: 08a9 a43e fb0f d4be b6da dcbe d479 94bd
00000290: b13c 873d b381 9fbc 0fb2 d7bd d0b3 b03e
000002a0: 5887 c4be d024 2bbe f248 f63c a697 49be
000002b0: 5906 853e 4c71 0a3f cbf3 823c 80b1 abbe
000002c0: 6537 113e e539 a13e 2336 2e3e 064b 3a3c
000002d0: cc5e a2bd ab5b 3bbc 2155 b1be 74cc e7bd
000002e0: eda2 673b 1807 c2be 0463 dd3d dc84 0c3f
000002f0: 5fb9 813e 535f 61be 445f 7e3e f948 1b3d
00000300: e1da 41bd 69d7 2c3e 2ffe 553e 6d54 acbd
00000310: 2881 f2be 5ac3 03be e0c4 3cbe cf6e 3a3e
00000320: 716f c2bd 5be1 b2bd 3cc4 e0bd 0329 48be
00000330: 37ab 2abe dbd4 57be f8f6 af3d 0238 973d
00000340: 3901 e9bc fd36 b43d c919 c83d fc05 a43a
00000350: 4419 963d dd40 25bb 9d5c 8f3e 280c 2b3e
00000360: e25a ea3d 3861 e93e 86f8 3bbe def4 0dbe
00000370: 6541 5d3d 03ec 8f3d adbe 353e 0295 88be
00000380: 5c07 a13d c960 e8bd 845a 263b d89d 69be
00000390: 968d aa3e 540e e63e 6b72 283e 3cab 7a3e
000003a0: ab38 86be 7048 213d dbee 66bd ed92 afbe
000003b0: a722 b53d 79d9 c63c d718 383e ac5e c6be
000003c0: 42cf 01be 9a13 86bd 9249 86be 8bc5 3abe
000003d0: 11a8 7fbe e149 183e 6e23 6fbd 4205 95bd
000003e0: c1ad 77be bb81 b13d 8e86 cd3d 6cc8 4e3d
000003f0: 0219 a83e 3c08 33be 37e7 0d3e 5934 413d

encoder.cell.W_iou.bias f4 [384]
-0.043168463 0.0008705028 0.07719446 0.00849032 -0.20126477 -0.088462695 0.10598576 0.19630225
-0.09251863 0.07999205 -0.09292943 0.014043687 -0.14182118 -0.29623464 0.11987764 0.10049636
-0.009078811 -0.04738834 -0.17878737 -0.125817 0.07138603 -0.2887376 0.0022732967 -0.047192037
-0.13710628 0.069033556 0.09367505 -0.18479353 -0.20146383 -0.018176757 -0.18354152 0.12343505
-0.03011086 -0.008599832 -0.23313165 -0.09732317 -0.1635452 -0.1722273 -0.20042923 -0.14466642
-0.10486152 0.3079357 -0.010883857 -0.23080464 -0.07510289 -0.30730376 0.11018876 -0.21536389
0.047831997 -0.18483104 -0.041946013 0.16891159 0.021954615 -0.24110563 -0.19552965 0.056462258
-0.15500158 -0.08357996 -0.22528157 0.05815468 0.079838224 0.17416397 -0.0069677434 -0.026265102
-0.27186078 0.059268862 -0.095605314 -0.19744319 -0.08721417 0.1433347 0.17471203 -0.11256405
-0.19293445 0.103803925 0.15967934 -0.10481636 -0.07479026 -0.068040244 -0.07703429 -0.15697226
-0.059101813 -0.10000014 -0.025512304 -0.21288112 -0.026392892 -0.20902865 -0.19395544 -0.16965564
-0.13208733 0.11659577 -0.27209702 0.022335544 0.14381926 -0.19057117 0.09734209 -0.142527
-0.17159589 0.036527 -0.14609015 0.37894636 0.012857372 -0.044555347 0.009129112 0.09134789
-0.25740832 -0.0069878437 -0.00022397512 -0.091531925 0.16372955 0.106006645 -0.1027586 0.1104337
-0.19558968 0.21851164 0.13163744 0.036895406 0.015982887 -0.1465328 0.1532183 -0.17681329
0.029759295 0.008006047 -0.10640043 -0.025169885 -0.20718947 0.16159871 -0.045241337 -0.11546601
0.093699 -0.09640555 0.10545822 0.08543799 -0.07009542 0.09988182 -0.05709953 -0.041602302
-0.020398397 0.10153172 0.08464467 -0.04126683 0.056599654 0.056181572 0.08380671 0.23920642
0.03216814 -0.13795273 -0.10047453 -0.050635464 0.061137427 0.028691938 -0.031736426 -0.06354041
0.16880774 0.19931516 0.039848093 -0.06413175 0.008405819 -0.11917096 0.19261107 0.23831286
-0.082026176 -0.12254777 -0.10450756 0.14167564 -0.115291156 0.0773529 0.0576174 0.17557052
-0.05752142 0.30294034 -0.07059528 -0.044339575 0.1407064 -0.262293 0.17696238 0.060669467
-0.05740839 0.3117408 -0.034744326 0.18101887 0.14766121 0.16731423 -0.11082414 -0.1201859
-0.21261223 -0.061785057 -0.17951334 0.094386265 0.19007257 0.014349884 -0.22745132 -0.12648489
-0.106490895 -0.020466123 -0.0745408 -0.10265715 -0.2412599 0.11794746 -0.1093727 0.0372699
0.11361706 0.05767432 0.15670092 0.050086066 0.0068852687 0.10706942 -0.100957975 0.09169452
0.14022642 0.35460314 0.16676107 0.009156868 0.014210156 0.095865995 0.111888 0.015990954
-0.14142711 -0.090247445 -0.12506618 0.15972583 -0.03641791 0.058342166 0.006723909 -0.1476187
-0.1762017 0.1340704 0.17079662 0.0040245894 -0.13356003 0.08720325 -0.029952686 0.15586211
-0.02966165 -0.10934273 -0.12592018 0.07992214 0.07648724 -0.09237593 -0.045161143 0.09518728
0.06966262 0.15401745 0.08103257 -0.045711588 0.046458393 -0.16199629 0.08587277 -0.07291486
-0.065902404 0.18256389 0.13745454 0.1295459 -0.18437982 -0.1288454 -0.13178101 0.18735448
00000000: 6ad1 30bd 7432 643a 2118 9e3d fc1a 0b3c
00000010: 5a18 4ebe ee2b b5bd 100f d93d 7503 493e
00000020: 687a bdbd dfd2 a33d c951 bebd 7e17 663c
00000030: 9239 11be 11ac 97be 6882 f53d 09d1 cd3d
00000040: 4bbf 14bc 471a 42bd 0914 37be 2cd6 00be
00000050: d732 923d 6ad5 93be 97fb 143b 704c 41bd
00000060: 9765 0cbe 7761 8d3d b4d8 bf3d 843a 3dbe
00000070: 894c 4ebe 6ce7 94bc 4ff2 3bbe 84cb fc3d
00000080: 0dab f6bc 4fe6 0cbc 10ba 6ebe 5f51 c7bd
00000090: 6578 27be 5a5c 30be 523d 4dbe 6f23 14be
000000a0: a3c1 d6bd c0a9 9d3e 3452 32bc 0d58 6cbe
000000b0: 8bcf 99bd eb56 9dbe a5aa e13d 5a88 5cbe
000000c0: 7ceb 433d 5944 3dbe 95cf 2bbd 29f7 2c3e
000000d0: 2ada b33c 65e4 76be ed38 48be f844 673d
000000e0: bcb8 1ebe f82b abbd 36b0 66be 9a33 6e3d
000000f0: 3982 a33d 0a58 323e ab51 e4bb e929 d7bc
00000100: 5631 8bbe e8c3 723d b8cc c3bd 8c2e 4abe
00000110: 589d b2bd 55c6 123e b6e7 323e fb87 e6bd
00000120: 9c90 45be 2797 d43d fb82 233e f6a9 d6bd
00000130: a32b 99bd af58 8bbd 27c4 9dbd 56bd 20be
00000140: be14 72bd e0cc ccbd 2eff d0bc 82fd 59be
00000150: e835 d8bc 9b0b 56be 419c 46be 35ba 2dbe
00000160: e741 07be c3c9 ee3d 4d50 8bbe 08f9 b63c
00000170: 5b45 133e 1725 43be 4a5b c73d 99f2 11be
00000180: d5b6 2fbe 569d 153d a898 15be 4205 c23e
00000190: baa7 523c ab7f 36bd 4592 153c 9a14 bb3d
000001a0: 06cb 83be 48fa e4bb ddda 6ab9 1775 bbbd
000001b0: b8a8 273e 031a d93d 1a73 d2bd 102b e23d
000001c0: a948 48be 84c1 5f3e f7cb 063e a31f 173d
000001d0: 8bee 823c b20c 16be 42e5 1c3e 8b0e 35be
000001e0: c4c9 f33c cc2b 033c 78e8 d9bd 1331 cebc
000001f0: 7a29 54be 227a 253e fb4e 39bd 7279 ecbd
00000200: 43e5 bf3d 4670 c5bd 7bfa d73d 1dfa ae3d
00000210: 308e 8fbd d78e cc3d 32e1 69bd 2d67 2abd
00000220: 8a1a a7bc ddef cf3d 2f5a ad3d 6807 29bd
00000230: 0ad5 673d a61e 663d daa2 ab3d 87f2 743e
00000240: bdc2 033d 7b43 0dbe 97c5 cdbd 2267 4fbd
00000250: 3d6b 7a3d 5b0b eb3c 0efe 01bd 7921 82bd
00000260: f0db 2c3e 4619 4c3e c137 233d 8257 83bd
00000270: 8fb8 093c e70f f4bd d63b 453e 4908 743e
00000280: 57fd a7bd 53fa fabd 0f08 d6bd 6b13 113e
00000290: c51d ecbd 326b 9e3d 3900 6c3d c2c8 333e
000002a0: 959b 6bbd ff1a 9b3e 4294 90bd 6a9d 35bd
000002b0: 5715 103e 454b 86be a035 353e 8c80 783d
000002c0: 0f25 6bbd 7d9c 9f3e 1150 0ebd 035d 393e
000002d0: 8034 173e 6c54 2b3e c4f7 e2bd 0624 f6bd
000002e0: 05b7 59be 5412 7dbd 58d2 37be 964d c13d
000002f0: 62a2 423e c71b 6b3c 00e9 68be 4185 01be
00000300: e617 dabd 92a8 a7bc d9a8 98bd e93d d2bd
00000310: d60c 77be 708e f13d cbfe dfbd 53a8 183d
00000320: 10b0 e83d e83b 6c3d 3576 203e 0c27 4d3d
00000330: d29d e13b 3647 db3d 0ec3 cebd 56ca bb3d
00000340: 8497 0f3e 8b8e b53e 6ac3 2a3e b006 163c
00000350: b7d1 683c 6455 c43d 8925 e53d 76ff 823c
00000360: 45d2 10be a7d3 b8bd 5911 00be 2b8f 233e
00000370: f22a 15bd 32f8 6e3d 3d54 dc3b 5b29 17be
00000380: 386e 34be c049 093e 4fe5 2e3e b4e0 833b
00000390: f6c3 08be 9e97 b23d 565f f5bc 519a 1f3e
000003a0: fdfc f2bc 15ef dfbd 38f1 00be 38ae a33d
000003b0: 58a5 9c3d 972f bdbd e4fa 38bd 8cf1 c23d
000003c0: 47ab 8e3d c0b6 1d3e 67f4 a53d 133c 3bbd
000003d0: 284b 3e3d 5be2 25be 10de af3d 6354 95bd
000003e0: d7f7 86bd 07f2 3a3e e2c0 0c3e aea7 043e
000003f0: 10ce 3cbe 0cf0 03be 9af1 06be dad9 3f3e

encoder.cell.U_iou.weight f4 [384, 256]
0.13771945 0.1412455 -0.21937364 -0.07796421 -0.08873006 -0.29576606 0.088576876 0.0931389
-0.034077298 -0.19462138 0.10894487 0.056874108 -0.066576056 -0.013471271 -0.051189378 -0.10872485
0.05274046 0.0360689 -0.12032542 -0.095734484 -0.10653242 -0.045120824 0.08785634 0.068487495
0.15233457 0.024674684 -0.0025061993 0.031424113 -0.060971607 0.17920211 -0.023761408 -0.10282208
0.16384971 0.082273625 0.08379293 -0.30281958 -0.1644539 0.00037993374 -0.10788065 0.029565094
0.15358685 0.16355556 0.008815852 -0.12524271 0.1240617 -0.05064108 0.031783633 0.08474864
-0.089974575 -0.12815732 0.1326175 0.06339226 0.11323979 -0.26789576 0.17149663 0.07888681
-0.008837027 -0.03241074 -0.0055439323 0.127921 0.116502315 0.04259248 -0.18507096 -0.043772288
-0.14783359 0.024660975 -0.20411654 0.22963303 -0.10846586 0.16698909 -0.024099534 0.17883156
-0.010757373 -0.14049394 0.0773447 0.03148027 0.060278144 0.12457282 -0.011329379 -0.13224779
-0.035989113 -0.021019466 0.07887498 0.21369225 -0.010904123 -0.020236406 -0.028097969 0.13054664
-0.023604928 0.025509885 0.00844977 -0.027388249 0.060505405 0.02934739 0.0018759336 -0.19690508
0.10939927 0.16959901 -0.25545505 -0.016238222 -0.19750518 0.14761795 0.023995696 -0.013717777
-0.004405632 -0.070707195 -0.2337581 -0.09745152 0.15922834 0.13584201 0.09927142 0.023525827
-0.02570037 0.08255148 -0.068894245 0.12876359 0.09143881 -0.17592931 0.029842207 0.09589476
0.15706483 0.04549323 -0.11455217 0.13422933 -0.3082838 -0.08635119 0.18575333 -0.11431439
0.05547407 -0.2018579 -0.21427411 -0.095987916 -0.05729267 0.008596884 0.1767173 0.033260766
0.08396554 -0.10881523 -0.07934637 -0.046879783 -0.11150249 -0.16651186 -0.019212423 -0.0057783835
0.047064107 -0.217786 -0.05333033 -0.17489536 -0.09329537 -0.22215383 -0.0051203487 0.052068435
-0.03103213 -0.02717671 0.016318232 -0.24386479 -0.17975585 0.019281017 -0.13771643 -0.07273405
-0.04974417 0.028015587 0.010196808 -0.19493522 0.22721377 -0.21661589 -0.3232728 -0.087881096
0.036281552 0.011923883 -0.06508539 0.04714949 0.008010819 -0.056798715 0.059661597 0.0543357
-0.11212652 0.005536442 0.15593238 0.066685855 -0.01568039 0.02310377 0.028681519 -0.06451671
0.03256748 -0.0074520796 -0.06737921 0.044507362 0.087372 0.11025155 -0.18282175 -0.13017572
-0.20224264 -0.10183593 -0.010168251 0.057260666 -0.19303656 0.1281211 0.06466461 -0.052526154
-0.059233762 0.032727834 0.07499979 0.018394466 -0.009666497 -0.12773536 -0.19071436 -0.27673104
-0.18911408 0.017208537 -0.066993974 0.0073022 -0.06330912 0.043596797 -0.1121266 -0.015010377
-0.0380007 0.024952173 -0.006605401 0.078502744 -0.07493632 -0.001891607 -0.09919616 -0.08393822
0.066678755 0.15778118 -0.14940314 0.04178415 -0.2669371 -0.012490377 0.07455876 0.009677842
-0.046978764 -0.1498524 -0.16647828 -0.104208805 0.13494119 0.054314367 -0.2991755 -0.032148987
0.023224004 -0.006317824 0.06497198 -0.009586058 0.13743278 -0.201232 -0.07982672 -0.16759968
0.13422684 0.06011772 -0.17755088 -0.071240045 -0.12963077 -0.18591627 -0.021952128 -0.16505823
00000000: 5406 0d3e a9a2 103e 7ca3 60be b3ab 9fbd
00000010: 1bb8 b5bd a66e 97be cb67 b53d 9cbf be3d
00000020: a394 0bbd d44a 47be 7d1e df3d d3f4 683d
00000030: 0759 88bd 9bb6 5cbc f4ab 51bd 22ab debd
00000040: 6106 583d fcbc 133d 2c6d f6bd 7110 c4bd
00000050: ab2d dabd 9dd0 38bd 06ee b33d 2c43 8c3d
00000060: 98fd 1b3e 9022 ca3c 0c3f 24bb 92b6 003d
00000070: 5dbd 79bd c280 373e 49a7 c2bc 6294 d2bd
00000080: 38c8 273e 137f a83d a19b ab3d 2b0b 9bbe
00000090: 9a66 28be d831 c739 88f0 dcbd 7f32 f23c
000000a0: df45 1d3e 1c7b 273e 5d70 103c a03f 00be
000000b0: 1014 fe3d 056d 4fbd 8e2f 023d b290 ad3d
000000c0: 9744 b8bd ac3b 03be e2cc 073e cdd3 813d
000000d0: 43ea e73d a229 89be d09c 2f3e 688f a13d
000000e0: 2dc9 10bc 20c1 04bd e0a9 b5bb b9fd 023e
000000f0: c498 ee3d 7475 2e3d 3e83 3dbe 924a 33bd
00000100: b061 17be d005 ca3c ed03 51be ec24 6b3e
00000110: 5923 debd 30ff 2a3e 636c c5bc 9f1f 373e
00000120: b13f 30bc a5dd 0fbe e666 9e3d 75f1 003d
00000130: 37e6 763d 0920 ff3d dc9e 39bc f76b 07be
00000140: 5269 13bd 0431 acbc 3589 a13d 24d2 5a3e
00000150: 35a7 32bc d2c6 a5bc b62d e6bc 05ae 053e
00000160: 1f5f c1bc 1bfa d03c e770 0a3c 525d e0bc
00000170: 84d4 773d f069 f03c e3e1 f53a 7ca1 49be
00000180: b90c e03d 5dab 2d3e 01cb 82be 0506 85bc
00000190: cc3e 4abe 2929 173e 9f92 c43c 87c0 60bc
000001a0: 1f5d 90bb efce 90bd 495e 6fbe aa94 c7bd
000001b0: c10c 233e 2b1a 0b3e d04e cb3d 3cb9 c03c
000001c0: 9589 d2bc c010 a93d 6d18 8dbd 9ada 033e
000001d0: 4544 bb3d d026 34be a577 f43c 7964 c43d
000001e0: 9ad5 203e 1c57 3a3d 549a eabd 6a73 093e
000001f0: 60d7 9dbe e5d8 b0bd 1f36 3e3e aa1d eabd
00000200: c738 633d d6b3 4ebe ac6a 5bbe 5095 c4bd
00000210: b8ab 6abd f2d9 0c3c 61f5 343e 713c 083d
00000220: 20f6 ab3d 85da debd 5a80 a2bd 0405 40bd
00000230: 6b5b e4bd 1682 2abe 5f63 9dbc 9858 bdbb
00000240: 4bc6 403d 4b03 5fbe e770 5abd c517 33be
00000250: a511 bfbd 4b7c 63be 99c8 a7bb b645 553d
00000260: 1837 febc b1a1 debc d0ad 853c b1b7 79be
00000270: eb11 38be 39f3 9d3c 8905 0dbe 97f5 94bd
00000280: 8bc0 4bbd f280 e53c 8310 273c 199d 47be
00000290: baaa 683e 8ed0 5dbe 0384 a5be 01fb b3bd
000002a0: f79b 143d 645c 433c 7d4b 85bd d31f 413d
000002b0: cf3f 033c c5a5 68bd b85f 743d 1c8f 5e3d
000002c0: 97a2 e5bd 0b6b b53b bdac 1f3e 9892 883d
000002d0: 2974 80bc 1e44 bd3c 81f5 ea3c 5621 84bd
000002e0: 7a65 053d 9330 f4bb 1cfe 89bd 5a4d 363d
000002f0: 17f0 b23d 91cb e13d a035 3bbe c94c 05be
00000300: b218 4fbe 5b8f d0bd bc98 26bc 298a 6a3d
00000310: 60ab 45be 2d32 033e e16e 843d aa25 57bd
00000320: 1a9f 72bd 9f0d 063d 7d99 993d feaf 963c
00000330: 3a60 1ebc 0fcd 02be a04a 43be b1af 8dbe
00000340: 1fa7 41be ebf8 8c3c 2334 89bd 4b47 ef3b
00000350: 36a8 81bd 8e92 323d a2a2 e5bd 16ee 75bc
00000360: 9fa6 1bbd 8068 cc3c 1f72 d8bb 0cc6 a03d
00000370: 3778 99bd ccef f7ba 5b27 cbbd cde7 abbd
00000380: df8e 883d 6491 213e 23fd 18be db25 2b3d
00000390: fbab 88be 70a4 4cbc 43b2 983d d08f 1e3c
000003a0: ce6c 40bd e872 19be 4879 2abe 6d6b d5bd
000003b0: 062e 0a3e be78 5e3d 882d 99be a8ae 03bd
000003c0: 4440 be3c c005 cfbb 0810 853d d70e 1dbc
000003d0: 2ebb 0c3e c30f 4ebe 317c a3bd 409f 2bbe
000003e0: c372 093e 003e 763d e6cf 35be 4de6 91bd
000003f0: eebd 04be d660 3ebe f3d4 b3bc 0605 29be

encoder.cell.U_iou.bias f4 [384]
0.14831412 -0.08184525 -0.08047466 -0.021643596 -0.13164127 -0.06085737 0.12970181 -0.022703663
0.042096753 -0.122909255 -0.08558951 -0.04761349 -0.063195206 -0.1707596 0.038611233 0.13119817
-0.038557407 -0.104869895 -0.05998408 -0.03868252 -0.013533905 -0.1673243 -0.033095706 -0.1182009
0.044717222 -0.035387978 -0.0094921095 -0.13078295 -0.021371715 0.070953965 -0.08773173 0.12532811
-0.12693849 0.054525487 -0.10230388 0.0045504286 -0.041872423 -0.055883493 -0.14829125 -0.03988056
0.066667974 0.17657936 -0.024140086 -0.1131675 -0.0958559 -0.18724558 0.09489258 -0.095970966
-0.113673344 -0.1420195 0.04206017 0.055774443 0.05766637 -0.11980822 -0.10990319 0.052766655
-0.08365133 -0.09441018 -0.0965188 -0.09307094 0.08851657 0.025390228 -0.13412957 -0.11494223
-0.0837519 -0.14604242 -0.15105781 -0.08945438 -0.15209003 0.06158493 0.024320487 -0.07095386
-0.13659538 -0.03579688 -0.03800526 0.08576352 -0.11196229 -0.010141133 -0.08993453 -0.12909757
-0.11491163 -0.20669359 -0.021202069 -0.20292886 -0.17155138 -0.0698649 -0.042297587 -0.0858418
-0.1843419 0.00025603073 -0.07662068 -9.853685e-05 -0.04504276 -0.09033537 -0.11238624 -0.22279282
-0.053899914 0.042894542 -0.07410394 0.23580827 -0.12348676 0.022484887 0.05159275 0.15568915
-0.123336285 -0.040840983 -0.04104098 -0.13801049 0.012826436 -0.015923621 -0.02735159 -0.10736046
-0.055408638 0.08590545 0.14600165 0.049479693 0.08395733 -0.094219364 0.038667474 -0.110012375
0.09573897 -0.02528589 -0.044456225 0.111505546 -0.0032599655 0.012564257 -0.06606294 -0.14871095
0.13268265 0.063875735 0.011860305 -0.04809519 0.037561715 0.19322787 0.081036426 0.054032013
0.010859382 -0.010683664 -0.02512106 -0.042173315 -0.011570243 0.016610857 0.034024805 0.12739295
-0.009246177 0.03820008 -0.08979656 -0.04124349 -0.016428893 0.020676069 0.14119558 -0.06758034
-0.023199372 0.09937082 0.042221434 0.07959065 -0.10443395 0.07723838 0.066522 0.026387814
-0.06686037 0.051885653 0.008861122 -0.022342792 -0.00052646204 -0.07220988 -0.00812645 0.0093288785
0.11156537 0.2721485 0.027468735 -0.046503246 -0.001663984 -0.069672294 0.16813402 -0.019849181
0.07790694 0.19129695 -0.012812214 0.09030849 0.05467056 0.066796444 0.0034926143 0.06832533
-0.045576796 -0.058646694 -0.040786322 0.039621204 0.06535922 0.06580834 -0.11196201 -0.047507755
-0.01294299 -0.13779946 -0.027628988 -0.018323937 -0.03205338 0.081262715 -0.041097753 -0.07328287
-0.06390154 -0.05672519 -0.061055757 0.07523825 -0.100130476 -0.0091668265 -0.019782402 -0.029509777
0.008564709 0.21927789 0.02624007 0.06432918 -0.0795316 -0.0029781782 0.015716353 0.020281926
-0.052187156 -0.06872257 -0.024582759 0.098114744 0.075118534 -0.0066454946 0.010923006 0.01720464
-0.087128624 0.103465654 -0.01981928 0.11734461 -0.055015735 0.03454273 -0.04087055 0.20933722
0.060851205 -0.018714031 0.007858526 7.886097e-05 0.01269417 0.0078768395 0.073089905 0.08703744
0.12563476 0.15437426 0.061360624 0.048358344 0.16404784 0.039575335 0.09254632 -0.124421544
0.10003729 0.03926483 0.0023375438 0.059458114 -0.10171075 0.053622168 -0.048002034 0.046003155
00000000: a8df 173e 7c9e a7bd e6cf a4bd e94d b1bc
00000010: f8cc 06be 9445 79bd 8dd0 043e 08fd b9bc
00000020: a56d 2c3d d9b7 fbbd 8e49 afbd 5d06 43bd
00000030: 7d6c 81bd 9bdb 2ebe d026 1e3d d058 063e
00000040: 5fee 1dbd 07c6 d6bd deb1 75bd 9071 1ebd
00000050: 50bd 5dbc 1057 2bbe 5d8f 07bd 5013 f2bd
00000060: 6829 373d fcf2 10bd cb84 1bbc f7eb 05be
00000070: bc13 afbc 5050 913d b1ac b3bd 0356 003e
00000080: 2afc 01be 1e56 5f3d b284 d1bd c31b 953b
00000090: 6b82 2bbd 17e6 64bd a9d9 17be cc59 23bd
000000a0: 3889 883d 38d1 343e 6ec1 c5bc 5dc4 e7bd
000000b0: 1950 c4bd 4ebd 3fbe 0a57 c23d 6d8c c4bd
000000c0: 92cd e8bd 8f6d 11be 4947 2c3d be73 643d
000000d0: 9233 6c3d 035e f5bd ec14 e1bd d921 583d
000000e0: 6351 abbd 205a c1bd a6ab c5bd fa9b bebd
000000f0: 2d48 b53d 2bff cf3c 4359 09be d566 ebbd
00000100: 1e86 abbd 258c 15be e6ae 1abe dc33 b7bd
00000110: 7dbd 1bbe 7b40 7c3d c23b c73c 4250 91bd
00000120: a9df 0bbe c09f 12bd 67ab 1bbd c9a4 af3d
00000130: 7c4c e5bd ff26 26bc 982f b8bd 2732 04be
00000140: ca56 ebbd 7ca7 53be f6af adbc 95cc 4fbe
00000150: 2aab 2fbe 5415 8fbd 3c40 2dbd d3cd afbd
00000160: 1fc4 3cbe dd3b 8639 4eeb 9cbd 92a5 ceb8
00000170: c27e 38bd c001 b9bd c22a e6bd cd23 64be
00000180: 28c6 5cbd 30b2 2f3d cec3 97bd b977 713e
00000190: a0e6 fcbd 3a32 b83c eb52 533d fa6c 1f3e
000001a0: bc97 fcbd e048 27bd 961a 28bd 9f52 0dbe
000001b0: f925 523c 4172 82bc 7110 e0bc cddf dbbd
000001c0: 2bf4 62bd 32ef af3d 7581 153e 38ab 4a3d
000001d0: d2f1 ab3d 15f6 c0bd c961 1e3d 2b4e e1bd
000001e0: cb12 c43d 5b24 cfbc bb17 36bd 055d e43d
000001f0: 25a5 55bb 50da 4d3c 024c 87bd af47 18be
00000200: f6dd 073e 48d1 823d ba51 423c 76ff 44bd
00000210: 50da 193d 87dd 453e 6df6 a53d ac50 5d3d
00000220: 8deb 313c 890a 2fbc aeca cdbc edbd 2cbd
00000230: 1e91 3dbc 7e13 883c 985d 0b3d 4c73 023e
00000240: 477d 17bc b077 1c3d 42e7 b7bd efee 28bd
00000250: e395 86bc dc60 a93c 9395 103e 9067 8abd
00000260: 9c0c bebc ee82 cb3d 62f0 2c3d 6c00 a33d
00000270: 77e1 d5bd 282f 9e3d b03c 883d 422b d83c
00000280: 17ee 88bd 0d86 543d 3d2e 113c 3b08 b7bc
00000290: 4502 0aba c6e2 93bd cd24 05bc 27d8 183c
000002a0: 627c e43d 0c57 8b3e 1d06 e13c 307a 3ebd
000002b0: 0a1a daba 59b0 8ebd 532b 2c3e c09a a2bc
000002c0: ac8d 9f3d 59e3 433e 52ea 51bc a8f3 b83d
000002d0: 3dee 5f3d 93cc 883d 58e4 643b 27ee 8b3d
000002e0: bcae 3abd 8437 70bd 8f0f 27bd d849 223d
000002f0: 0edb 853d 86c6 863d 574c e5bd 7e97 42bd
00000300: d60e 54bc 4d1b 0dbe 3056 e2bc 151c 96bc
00000310: 684a 03bd 116d a63d 1e56 28bd 5415 96bd
00000320: d0de 82bd ac58 68bd 9a15 7abd 8316 9a3d
00000330: 3511 cdbd 7530 16bc b40e a2bc 7dbe f1bc
00000340: fe52 0c3c 628a 603e 6af5 d63c 04bf 833d
00000350: 77e1 a2bd 8a2d 43bb 95bf 803c 4826 a63c
00000360: 33c2 55bd 6bbe 8cbd c861 c9bc 62f0 c83d
00000370: bfd7 993d 73c2 d9bb 68f6 323c bff0 8c3c
00000380: 7e70 b2bd cde5 d33d 0b5c a2bc 5f52 f03d
00000390: 2e58 61bd ad7c 0d3d e167 27bd 7f5c 563e
000003a0: 1d3f 793d 2b4e 99bc 0cc1 003c 2962 a538
000003b0: 35fb 4f3c dc0d 013c 29b0 953d af40 b23d
000003c0: 66a6 003e 4914 1e3e 4755 7b3d 6613 463d
000003d0: 28fc 273e bf19 223d ed88 bd3d b9d0 febd
000003e0: 5ae0 cc3d 29d4 203d 7a31 193b 5a8a 733d
000003f0: ba4d d0bd eba2 5b3d c89d 44bd ce6d 3c3d

encoder.cell.W_f.weight f4 [256, 32]
0.13483909 0.07425432 0.063656196 0.12666944 -0.20554778 -0.13347326 -0.057761274 0.008812336
-0.042783283 -0.058674823 -0.026479863 -0.14553234 0.009652939 0.060108796 -0.06822718 0.24606135
-0.08862392 -0.04595276 0.12801608 -8.4946936e-05 -0.19619066 -0.17680645 0.08095146 0.06381378
-0.20662788 -0.089765705 -0.096910045 0.28379554 0.33587754 -0.42242897 -0.17106481 -0.21530943
0.07785606 0.091719486 -0.16108496 -0.113557786 0.06818133 0.113784164 0.079877436 0.00078133907
-0.091302425 -0.13743727 0.20679928 -0.104368575 -0.024837255 -0.052861564 0.11371345 -0.015230259
-0.22141337 -0.09779765 -0.08061699 -0.14570688 0.1323606 -0.1352853 -0.09373198 -0.2673388
-0.19832163 -0.25587392 0.07023902 0.21448301 0.0075725513 0.0052422322 -0.36185423 -0.18237926
-0.25227407 -0.010017896 0.17150731 0.056619015 -0.14481899 -0.36943504 -0.05996687 -0.09248599
0.01589199 -0.047845796 0.26916122 -0.006045737 -0.119408496 0.030190563 -0.1221328 0.08987104
-0.29356706 -0.20864235 -0.08764651 0.09225824 -0.26998383 0.052139327 0.29759106 0.08787353
0.093793765 -0.4163088 -0.049998626 -0.07586037 0.2315822 -0.031236306 -0.05494392 0.10163811
-0.29122064 0.2483164 0.11179606 0.14357263 0.036296483 -0.24750835 0.035195448 -0.24992128
0.045104828 -0.05235264 -0.020296466 -0.107424356 -0.13138963 0.0060507315 -0.25858605 0.18386069
-0.0698238 -0.11049112 0.0521573 -0.029012116 -0.21661922 -0.020780703 -0.125385 0.087613724
-0.010497535 -0.30297983 -0.12756896 0.08605699 0.027172154 0.0769906 -0.040863376 0.017858068
-0.12511586 -0.074204996 -0.15099508 -0.02463746 0.18541679 -0.08829253 -0.2850384 -0.26843405
0.20070264 -0.08569105 -0.053173136 0.25371614 0.1008224 -0.07759807 0.07373082 -0.029283566
0.04623478 -0.2456618 0.006940439 0.025584657 -0.014907332 -0.08519568 -0.15387698 -0.26501656
0.15044995 0.006724415 -0.10182028 -0.19624428 0.028904378 -0.077929564 -0.24519123 -0.11226366
0.24103568 -0.24066663 0.043830566 -0.014713224 0.47789213 0.33188963 0.058069307 0.55968225
-0.3448066 -0.36080348 -0.18935886 -0.78608215 0.23478058 -0.44839644 0.59452266 -0.25768477
0.07642449 0.2094167 -0.19021225 -0.14028221 0.29899466 0.1539766 -0.45001882 -0.27844447
-0.6281499 0.0418481 -0.27331457 0.6275855 0.12537937 -0.83770627 -0.47163975 -0.3773805
0.12515183 -0.20701885 0.18385082 -0.21136147 0.20498607 0.016568543 0.07809915 -0.19727893
0.13771927 0.07533493 -0.1118607 0.122437924 0.38493827 -0.23088557 0.17165881 -0.026357723
0.20162225 0.1038866 0.111607134 -0.025065463 0.042020872 0.4010035 -0.20057379 0.12429995
0.3064922 0.526765 -0.07480314 -0.17127348 -0.3687365 0.35164812 0.0455566 0.10265317
-0.21022311 0.07053906 -0.21293011 0.10850636 -0.10048205 -0.07645523 -0.13237794 0.09454878
0.026897939 -0.30037257 0.14187099 -0.2859324 -0.12211728 0.03843496 -0.115639724 0.14289561
-0.008571628 -0.26340175 -0.2426295 -0.05779731 -0.080845125 -0.18713182 -0.00084028736 -0.10454547
-0.6557984 -0.1893505 -0.41872507 0.34418175 0.39379552 -0.6217789 -0.3848181 -0.38553408
00000000: 4213 0a3e a612 983d 2e5e 823d a2b5 013e
00000010: 1e7b 52be 37ad 08be 1697 6cbd 9e61 103c
00000020: 863d 2fbd 0355 70bd 4cec d8bc 6e06 15be
00000030: 5c27 1e3c a434 763d b1ba 8bbd 82f7 7b3e
00000040: 7580 b5bd f638 3cbd a616 033e 8a25 b2b8
00000050: 34e6 48be c00c 35be e1c9 a53d cdb0 823d
00000060: 4296 53be 15d7 b7bd c678 c6bd a64d 913e
00000070: 24f8 ab3e 9c48 d8be 9d2b 2fbe 137a 5cbe
00000080: ff72 9f3d 6dd7 bb3d 75f3 24be fc90 e8bd
00000090: a7a2 8b3d ac07 e93d c896 a33d c7d2 4c3a
000000a0: c4fc babd 5bbc 0cbe 31c3 533e 31bf d5bd
000000b0: 8077 cbbc 5e85 58bd 99e2 e83d 5688 79bc
000000c0: 30ba 62be 224a c8bd 851a a5bd 2f34 15be
000000d0: 8a89 073e 3b88 0abe 8df6 bfbd a2e0 88be
000000e0: d314 4bbe e801 83be 7ad9 8f3d 6fa1 5b3e
000000f0: 2a23 f83b 08c7 ab3b f544 b9be a1c1 3abe
00000100: 112a 81be 1a22 24bc 9d9f 2f3e 57e9 673d
00000110: 6e4b 14be 9726 bdbe d29f 75bd 4b69 bdbd
00000120: eb2f 823c f4f9 43bd 80cf 893e 511b c6bb
00000130: 718c f4bd 3352 f73c c320 fabd 4f0e b83d
00000140: 6c4e 96be 57a6 55be 0380 b3bd e3f1 bc3d
00000150: 523b 8abe 0c90 553d db5d 983e 0af7 b33d
00000160: f216 c03d 6d26 d5be 5ccb 4cbd af5c 9bbd
00000170: e223 6d3e 48e3 ffbc e00c 61bd a427 d03d
00000180: df1a 95be a846 7e3e 55f5 e43d b404 133e
00000190: 9fab 143d d472 7dbe 1a29 103d 5deb 7fbe
000001a0: d7bf 383d b96f 56bd c644 a6bc 4d01 dcbd
000001b0: 018b 06be 3745 c63b 6465 84be fa45 3c3e
000001c0: c8ff 8ebd 2b49 e2bd e5a2 553d d1aa edbc
000001d0: 6ed1 5dbe 4b3c aabc ed64 00be d36e b33d
000001e0: dafd 2bbc 2c20 9bbe 70a1 02be a63e b03d
000001f0: 2398 de3c 3fad 9d3d 5b60 27bd 154b 923c
00000200: 5f1e 00be caf8 97bd 749e 1abe 80d4 c9bc
00000210: e6dd 3d3e b7d2 b4bd 8ef0 91be 3070 89be
00000220: fe84 4d3e ca7e afbd 13cc 59bd 15e7 813e
00000230: f97b ce3d bdeb 9ebd 2f00 973d 17e4 efbc
00000240: ae60 3d3d c48e 7bbe 9f6c e33b ea96 d13c
00000250: e23d 74bc 137b aebd ed91 1dbe 40b0 87be
00000260: 8d0f 1a3e 7b58 dc3b 2787 d0bd 43f4 48be
00000270: e0c8 ec3c 8999 9fbd 6913 7bbe 7dea e5bd
00000280: 0fd2 763e 5071 76be ae87 333d bc0f 71bc
00000290: 47ae f43e 70ed a93e 15da 6d3d 5647 0f3f
000002a0: 7e8a b0be 3cbb b8be 4ae7 41be ae3c 49bf
000002b0: 526a 703e 3894 e5be a332 183f 42ef 83be
000002c0: 7184 9c3d 5571 563e 00c7 42be 24a6 0fbe
000002d0: d415 993e 0bac 1d3e de68 e6be 4690 8ebe
000002e0: 6fce 20bf ea68 2b3d e3ef 8bbe 71a9 203f
000002f0: 7363 003e eb73 56bf c47a f1be 0438 c1be
00000300: cd27 003e c0fc 53be 6443 3c3e 246f 58be
00000310: dee7 513e c1ba 873c 72f2 9f3d 7d03 4abe
00000320: 4806 0d3e 3349 9a3d 3917 e5bd bcc0 fa3d
00000330: a116 c53e 446d 6cbe 54c7 2f3e 27ec d7bc
00000340: 1076 4e3e 7fc2 d43d 4892 e43d 1656 cdbc
00000350: 141e 2c3d 5550 cd3e 3763 4dbe f990 fe3d
00000360: 8cec 9c3e 12da 063f 6332 99bd 5162 2fbe
00000370: 08cb bcbe 390b b43e 8f99 3a3d d33b d23d
00000380: ba44 57be c876 903d 5a0a 5abe 9538 de3d
00000390: 88c9 cdbd 8f94 9cbd 158e 07be caa2 c13d
000003a0: 1159 dc3c 6fca 99be a146 113e bb65 92be
000003b0: a018 fabd fa6d 1d3d 85d4 ecbd 3a53 123e
000003c0: 0370 0cbc 98dc 86be de73 78be dfbc 6cbd
000003d0: 2192 a5bd 7c9f 3fbe bb46 5cba ef1b d6bd
000003e0: 67e2 27bf 19e5 41be 2263 d6be 9738 b03e
000003f0: 919f c93e e72c 1fbf e106 c5be b964 c5be

encoder.cell.W_f.bias f4 [256]
0.028516687 0.126055 0.11158114 -0.09170707 0.21759963 -0.057910822 -0.14389215 0.12466146
-0.024096357 0.022549262 -0.1501256 -0.10772149 -0.019295165 0.122246675 -0.024603553 -0.15798026
0.18897513 0.09045732 0.056323867 -0.06718107 0.06256542 0.101661205 -0.12078086 0.08534667
0.12269887 0.039182052 0.051242348 -0.13313335 -0.13997704 0.06792393 -0.013162546 -0.009419309
0.056473527 -0.015435616 0.053431716 0.15912056 0.08893865 0.2013072 0.1067027 -0.097389586
-0.1323199 0.02976138 0.1953975 -0.059724454 0.023378046 0.07859021 0.06530864 -0.056869164
0.16707839 0.06923547 -0.0550245 -0.04418363 0.08149359 -0.09492537 0.14171958 0.06212554
-0.08815919 0.16903442 -0.09167948 -0.032286417 -0.07801713 -0.11371232 -0.05031471 0.12740643
0.026864327 -0.20195349 0.005652993 0.04289262 -0.046604775 0.008386415 0.13438492 0.20214188
0.12609652 -0.12405708 0.14615154 0.026290497 -0.1375578 0.00030970876 -0.1376408 0.12342283
-0.045435306 -0.22234465 0.03077965 0.16459207 -0.07498697 -0.06734028 0.12334672 0.020022396
-0.18740185 -0.04011278 0.07116463 0.11979081 -0.1328962 -0.19651657 -0.050598748 -0.10251622
0.013836606 -0.027214717 -0.044722784 -0.15936637 -0.10261957 0.085214205 0.13847795 -0.16310713
0.21444938 -0.13588376 -0.1831328 0.053428445 -0.09025443 -0.16976474 0.124049366 -0.23601328
0.015603106 0.17229107 -0.023499241 0.08299741 0.06885052 0.12754631 0.13493854 -0.06029517
-0.17393185 -0.12654589 0.19358842 -0.07860253 0.055845954 0.023971917 0.10530341 0.11122313
0.14746258 0.013093228 -0.045810778 0.021825222 0.18547395 -0.08696791 0.21485804 -0.17000154
0.17201877 -0.14705376 -0.18063182 -0.13761993 -0.24225427 -0.21649916 -0.16448975 -0.04466524
-0.20026356 0.11279537 0.007975112 -0.12637681 -0.17853424 0.058031976 0.11466699 -0.14246985
-0.06446485 0.1657977 0.13403186 0.011150756 0.096352875 0.10106478 -0.053044498 -0.061008923
-0.1015452 -0.03184514 0.19590521 -0.09554676 -0.14539938 -0.1182724 0.15430616 -0.10340349
0.100109585 0.029880168 0.14583163 -0.059528086 0.11776709 0.09550508 0.01608533 -0.09361838
-0.033336416 0.120371796 0.08910667 -0.071924545 -0.10011955 0.045919918 0.13388544 0.17041875
0.05679204 0.13085625 -0.046685077 -0.051246878 0.071466796 0.06790689 0.04208979 -0.12995303
-0.12949008 -0.106610514 -0.19100001 0.20180751 0.055873826 -0.10797533 0.08654184 0.092186704
-0.006798163 -0.060100477 -0.07575674 0.13409355 0.095443144 -0.23378436 -0.06132285 0.09107341
0.033747844 -0.04203496 -0.103966735 -0.043109607 -0.06350808 0.100740425 -0.16632701 0.14187633
0.09251811 0.07590386 0.028636707 -0.046821672 -0.12523448 0.14348228 -0.17888075 0.013639702
-0.050558485 0.07450329 0.13246208 0.06508312 -0.0938801 0.0026942347 -0.13319778 -0.11961316
-0.07025287 0.19994834 0.0067379735 0.071533784 0.05905219 0.09870576 -0.058458153 -0.13380702
0.063283145 -0.09648946 0.12967338 -0.004272824 -0.038813487 0.13154352 -0.010164659 0.12113781
-0.20917687 0.026370935 0.003819746 0.17280388 -0.11792435 0.23720323 -0.11186544 -0.08455563
00000000: d49b e93c 9014 013e a784 e43d ebd0 bbbd
00000010: 70d2 5e3e e633 6dbd 7758 13be 824e ff3d
00000020: b965 c5bc 3bb9 b83c 86ba 19be 169d dcbd
00000030: e510 9ebc 775c fa3d 648d c9bc 94c5 21be
00000040: b282 413e b041 b93d dbb3 663d 3b96 89bd
00000050: 4d22 803d c033 d03d f55b f7bd 3cca ae3d
00000060: 8c49 fb3d 5c7d 203d 7fe3 513d 1c54 08be
00000070: 2456 0fbe b41b 8b3d b8a7 57bc 7253 1abc
00000080: c950 673d aae5 7cbc 37db 5a3d 80f0 223e
00000090: 7825 b63d 7a23 4e3e f286 da3d 3174 c7bd
000000a0: de7e 07be 23ce f33c 4816 483e a1a1 74bd
000000b0: 5183 bf3c e7f3 a03d 89c0 853d a4ef 68bd
000000c0: 9916 2b3e 53cb 8d3d 5f61 61bd e5f9 34bd
000000d0: 1ce6 a63d 3b68 c2bd f01e 113e 5a77 7e3d
000000e0: ce8c b4bd 5c17 2d3e 74c2 bbbd c33e 04bd
000000f0: 72c7 9fbd 01e2 e8bd cc16 4ebd d576 023e
00000100: 9412 dc3c e5cc 4ebe be3c b93b 2cb0 2f3d
00000110: a6e4 3ebd 2d67 093c 339c 093e 48fe 4e3e
00000120: 721f 013e a311 febd c0a8 153e 2b5f d73c
00000130: f4db 0cbe 6860 a239 b6f1 0cbe 1cc5 fc3d
00000140: 5f1a 3abd 51ae 63be 9b25 fc3c d38a 283e
00000150: c592 99bd b3e9 89bd 359d fc3d 0206 a43c
00000160: 45e6 3fbe 4c4d 24bd c3be 913d e254 f53d
00000170: f115 08be a43b 49be a240 4fbd 06f4 d1bd
00000180: efb2 623c 66f1 debc 3d2f 37bd f030 23be
00000190: 362a d2bd c984 ae3d 2acd 0d3e 8e05 27be
000001a0: 9e98 5b3e 1d25 0bbe 2a87 3bbe c9d7 5a3d
000001b0: 51d7 b8bd cfd6 2dbe 980d fe3d 77ad 71be
000001c0: 2ba4 7f3c 126d 303e 7b81 c0bc 8cfa a93d
000001d0: 8001 8d3d 809b 023e 542d 0a3e 11f8 76bd
000001e0: 311b 32be 3f95 01be 0b3c 463e 5dfa a0bd
000001f0: babe 643d c160 c43c 50a9 d73d f4c8 e33d
00000200: 6e00 173e fb84 563c 15a4 3bbd cfca b23c
00000210: e2ec 3d3e 3b1c b2bd bf03 5c3e e214 2ebe
00000220: b025 303e 4395 16be 8cf7 38be 3dec 0cbe
00000230: 8111 78be f5b1 5dbe 0070 28be e6f2 36bd
00000240: e411 4dbe 4201 e73d 0baa 023c ec68 01be
00000250: aed1 36be f0b2 6d3d 87d6 ea3d 9ee3 11be
00000260: 2606 84bd dfc6 293e a63f 093e a9b1 363c
00000270: a854 c53d 0dfb ce3d 3045 59bd 7ee4 79bd
00000280: eef6 cfbd 0d70 02bd 609b 483e 05ae c3bd
00000290: 93e3 14be cd38 f2bd 6f02 1e3e 35c5 d3bd
000002a0: 4106 cd3d 41c7 f43c e354 153e b9d3 73bd
000002b0: df2f f13d 2b98 c33d 62c5 833c feba bfbd
000002c0: c48b 08bd 7d85 f63d 8f7d b63d 2d4d 93bd
000002d0: 7b0b cdbd 8616 3c3d 4419 093e 4182 2e3e
000002e0: c59e 683d 2eff 053e da38 3fbd 3fe8 51bd
000002f0: 2f5d 923d c412 8b3d 5866 2c3d 6812 05be
00000300: 0c99 04be 9d56 dabd 8295 43be a1a6 4e3e
00000310: f4db 643d 2b22 ddbd d93c b13d 62cc bc3d
00000320: 20c3 debb eb2b 76bd 5a26 9bbd d24f 093e
00000330: b277 c33d 2b65 6fbe ab2d 7bbd b284 ba3d
00000340: 2e3b 0a3d da2c 2cbd 83ec d4bd b393 30bd
00000350: 8610 82bd ff50 ce3d a151 2abe 0748 113e
00000360: 237a bd3d 7c73 9b3d 8797 ea3c 15c8 3fbd
00000370: 783d 00be 05ed 123e 842c 37be 0f79 5f3c
00000380: 6a16 4fbd 2e95 983d 24a4 073e 4c4a 853d
00000390: 3644 c0bd c291 303b 0065 08be bff7 f4bd
000003a0: bde0 8fbd 42bf 4c3e 38ca dc3b 4e80 923d
000003b0: b6e0 713d 3f26 ca3d d171 6fbd b504 09be
000003c0: 989a 813d 449c c5bd 19c9 043e 0c03 8cbb
000003d0: e4fa 1ebd 58b3 063e ab89 26bc 1a17 f83d
000003e0: 7632 56be dc07 d83c b454 7a3b 80f3 303e
000003f0: 5282 f1bd 67e5 723e b519 e5bd 812b adbd

encoder.cell.U_f.weight f4 [256, 256]
-0.06266512 -0.17054509 -0.10277261 -0.1396216 -0.21192819 0.16018197 -0.16137758 -0.010820877
-0.13164192 0.043848947 -0.22104672 -0.18288234 -0.041418415 -0.13892092 -0.1822201 0.13532811
-0.082718484 -0.2520302 -0.058579877 -0.1601726 0.17204481 -0.28091112 -0.14898176 -0.0917003
-0.03170316 -0.28350267 -0.19944118 -0.21771735 -0.17146245 -0.06551661 -0.29636338 0.17581698
-0.28200236 0.021056272 -0.18238834 -0.115853794 0.024756609 -0.07341152 -0.22604865 -0.13948618
-0.08615121 -0.09717494 -0.30365813 -0.030890193 -0.027702352 -0.080481194 0.13930981 -0.060049593
-0.23409308 0.09004483 -0.015233682 -0.10227553 0.017984396 0.079462856 -0.14631177 -0.18751116
-0.26023462 -0.07710695 -0.16239151 -0.10101256 -0.10809864 -0.22084397 -0.030074874 -0.008383066
0.006834291 -0.016563851 0.095476165 -0.1364941 -0.09568186 -0.14241649 -0.06562093 -0.059091996
-0.1571763 0.0006499834 -0.14187315 -0.17428552 -0.117990665 -0.023117637 -0.08380663 -0.12995574
-0.22443639 0.1942964 -0.20926487 -0.20000407 -0.18335997 -0.024834208 -0.13449465 -0.22025265
-0.20963082 -0.014647263 -0.18163075 -0.0365224 -0.083785206 -0.21620356 -0.065184005 0.15545051
-0.13159157 -0.042833045 -0.19855303 0.18696433 -0.04679698 -0.21923335 -0.09196595 0.14598043
-0.07304514 -0.22706582 -0.101509824 0.096928075 -0.103563346 -0.14833461 -0.18194157 0.13290237
-0.091430135 -0.13563055 0.0032349357 -0.2075619 -0.04276115 -0.038677666 0.11741937 -0.14420843
-0.1209085 -0.1710231 -0.09894601 -0.11021315 -0.14619203 -0.1318795 -0.1961621 -0.14237706
0.10606208 -0.13887179 -0.32259515 -0.1906063 -0.20098552 0.0047071506 0.23116185 0.043465365
0.041806266 0.06671816 -0.003396849 -0.1495789 0.07412925 -0.004146307 -0.2391981 0.033670418
0.060865946 -0.13422538 -0.14628406 -0.15861902 0.06477129 -0.027295878 -0.07218268 -0.087214276
0.06715726 0.0543272 -0.16391051 -0.056851014 0.019182494 -0.042091485 0.057543885 0.048650708
0.21037146 -0.16151114 -0.12881096 -0.062389262 -0.053017985 6.214384e-05 -0.049075767 0.0011839644
0.10981907 0.10272365 0.111167766 -0.109205864 -0.037179854 -0.04879101 0.0031178256 0.0752643
-0.29823357 -0.108000875 0.10390671 0.22773398 -0.13779725 0.21888943 0.073905244 -0.03125567
0.10574064 0.03754805 0.050050702 0.06063056 -0.10161327 -0.09585493 -0.19255984 -0.014894393
0.05495915 -0.01600272 -0.011070704 0.12298575 0.11870266 0.14399053 -0.17505468 -0.20786726
-0.02172716 0.0011919743 0.22893852 0.002997698 -0.0020526785 0.08605324 0.11622066 0.03355758
0.09715297 0.123497896 -0.04144926 0.053987097 -0.011971552 0.1392445 0.031732075 0.027822629
-0.16155648 0.036609452 -0.048770647 -0.13048415 -0.14275135 -0.002195907 -0.05014217 0.061148107
-0.068539456 0.11498588 -0.089834295 -0.030849958 -0.30701685 -0.0026524593 -0.102302045 0.04570917
0.16730359 -0.03492583 -0.28071392 0.1026168 0.2083264 0.003515226 -0.100149624 0.00035000467
-0.21640718 -0.09036897 0.19863862 -0.14503005 0.22458844 -0.07418921 -0.03432485 0.08316199
0.013548149 -0.18285361 -0.14233871 -0.21625094 -0.09441154 -0.07554267 0.23590201 0.074657954
00000000: 9256 80bd 5fa3 2ebe 727a d2bd f7f8 0ebe
00000010: b403 59be be06 243e 2a40 25be 0c4a 31bc
00000020: 24cd 06be f49a 333d 125a 62be 8245 3bbe
00000030: 5ba6 29bd 4941 0ebe e897 3abe 7493 0a3e
00000040: 4f68 a9bd 1a0a 81be 74f1 6fbd 4904 24be
00000050: 842c 303e 95d3 8fbe ad8e 18be 5ecd bbbd
00000060: 2cdb 01bd 4327 91be 4f3a 4cbe 4cf1 5ebe
00000070: da93 2fbe 932d 86bd f1bc 97be 5e09 343e
00000080: 9d62 90be 347e ac3c 02c4 3abe c144 edbd
00000090: 5fce ca3c c758 96bd 4c79 67be 77d5 0ebe
000000a0: 0c70 b0bd a803 c7bd 1479 9bbe 6e0d fdbc
000000b0: 0bf0 e2bc 53d3 a4bd 3ba7 0e3e 90f6 75bd
000000c0: 19b6 6fbe 6d69 b83d b196 79bc d575 d1bd
000000d0: 0354 933c 6cbd a23d c1d2 15be ed02 40be
000000e0: 793d 85be 40ea 9dbd f649 26be acdf cebd
000000f0: d262 ddbd ec24 62be 955f f6bc 2159 09bc
00000100: 30f2 df3b eab0 87bc 0289 c33d 1cc5 0bbe
00000110: daf4 c3bd a1d5 11be 4464 86bd 730a 72bd
00000120: d3f2 20be a663 2a3a 3247 11be e777 32be
00000130: 17a5 f1bd 3361 bdbc cfa2 abbd 1e13 05be
00000140: a7d2 65be a3f5 463e 8849 56be decd 4cbe
00000150: b7c2 3bbe 1c71 cbbc f7b8 09be e989 61be
00000160: 76a9 56be 13fb 6fbc 69fd 39be 8398 15bd
00000170: 9497 abbd 7764 5dbe 317f 85bd 6b2e 1f3e
00000180: f1bf 06be b471 2fbd 7c51 4bbe 9473 3f3e
00000190: 31ae 3fbd b57e 60be a558 bcbd e57b 153e
000001a0: b198 95bd f183 68be 62e4 cfbd 3a82 c63d
000001b0: 0519 d4bd 07e5 17be e44e 3abe 8f17 083e
000001c0: b93f bbbd bce2 0abe 3701 543b 1b8b 54be
000001d0: 5126 2fbd 796c 1ebd 9179 f03d 60ab 13be
000001e0: e09e f7bd ae20 2fbe 35a4 cabd 6fb7 e1bd
000001f0: 5db3 15be 6b0b 07be b8de 48be 4bcb 11be
00000200: 1337 d93d 6834 0ebe 312b a5be 4c2e 43be
00000210: 26cf 4dbe 713e 9a3b b1b5 6c3e bd08 323d
00000220: 0c3d 2b3d 88a3 883d ab9d 5ebb 362b 19be
00000230: 14d1 973d bedd 87bb 59f0 74be fee9 093d
00000240: 924e 793d 6172 09be 7dcb 15be 066d 22be
00000250: cfa6 843d 9b9b dfbc 83d4 93bd 669d b2bd
00000260: bf89 893d 3386 5e3d 28d8 27be 9cdc 68bd
00000270: 9b24 9d3c 1f68 2cbd 23b3 6b3d f745 473d
00000280: 9e6b 573e 2d63 25be 05e7 03be e28b 7fbd
00000290: 6329 59bd 3853 8238 ac03 49bd 412f 9b3a
000002a0: d2e8 e03d c760 d23d edab e33d 53a7 dfbd
000002b0: e749 18bd 15d9 47bd 6f54 4c3b 2b24 9a3d
000002c0: 12b2 98be 902f ddbd 0bcd d43d 1933 693e
000002d0: b91a 0dbe 8d24 603e a25b 973d f205 00bd
000002e0: 8c8e d83d fccb 193d f701 4d3d c057 783d
000002f0: 9e1a d0bd 974f c4bd 682e 45be 9d07 74bc
00000300: d81c 613d 2318 83bc e661 35bc f4df fb3d
00000310: 611a f33d 4172 133e 8941 33be 28db 54be
00000320: 28fd b1bc 053c 9c3a dc6e 6a3e 0775 443b
00000330: 3b86 06bb ae3c b03d 1905 ee3d ac73 093d
00000340: 23f8 c63d 77ec fc3d b3c6 29bd 9321 5d3d
00000350: 5424 44bc 1c96 0e3e 7ef9 013d 48ec e33c
00000360: 106f 25be cbf3 153d bbc3 47bd a39d 05be
00000370: 692d 12be 35e9 0fbb e061 4dbd 7076 7a3d
00000380: 6a5e 8cbd b87d eb3d 0bfb b7bd 0db9 fcbc
00000390: 5031 9dbe e2d4 2dbb bc83 d1bd 8a39 3b3d
000003a0: a251 2b3e 630e 0fbd bcb9 8fbe c228 d23d
000003b0: 8453 553e b55f 663b 3f1b cdbd d580 b739
000003c0: d899 5dbe 5e13 b9bd ec67 4b3e c282 14be
000003d0: 83fa 653e 83f0 97bd 3798 0cbd d550 aa3d
000003e0: 0ef9 5d3c fa3d 3bbe 3dc1 11be e370 5dbe
000003f0: d65a c1bd 1eb6 9abd 4c90 713e 45e6 983d
